UnityMLTutorial_complete/results/Test3/MoveToGoal/MoveToGoal-3456.onnx (onnx, 72951 bytes, 7 tensors)

network_body.linear_encoder.seq_layers.0.weight f4 [128, 6]
0	0x3d9c77e9	0.076400585
1	0xbe8d2774	-0.27569163
2	0x3e3ae0ac	0.18249768
3	0xbc136052	-0.0089951325
4	0xbd5046c5	-0.05084874
5	0x3f0a0b6e	0.5392369
6	0x3c91de2f	0.01780614
7	0x3ebcbfa7	0.3686497
8	0x3ef2f96a	0.47455913
9	0x3edb1660	0.42790508
10	0xbeabbe8a	-0.33543807
11	0xbf0b694b	-0.5445754
12	0xbed283e4	-0.4111625
13	0xbe1cba4e	-0.15305445
14	0xbd1eab17	-0.038737383
15	0x3c5f3f9e	0.013626007
16	0xbe6bcd28	-0.2302748
17	0xbdd9cc82	-0.1063471
18	0x3e8ba7aa	0.27276355
19	0xbc47a34b	-0.012184928
20	0x3ecd6758	0.40117908
21	0xbe8dfb86	-0.2773096
22	0x3ece894e	0.4033913
23	0x3e585c1b	0.21128885
24	0x3dac2b86	0.08406739
25	0xbe612851	-0.21988036
26	0x3e04a166	0.12952194
27	0xbebde702	-0.37090307
28	0x3de3f3b0	0.11130464
29	0x38d1df5f	0.00010007503
30	0xbd077460	-0.03306997
31	0x3ea2f32e	0.31826156
32	0xbeda0182	-0.42579275
33	0x3f139939	0.57655674
34	0x3f045ddb	0.5170571
35	0xbe2f3218	-0.17108953
36	0xbc2cb8fa	-0.010542149
37	0xbf1bb3f6	-0.60821474
38	0xbcd6847c	-0.02618622
39	0x3e74dcb4	0.23912317
40	0x3f098cb1	0.53730303
41	0xbce98c5f	-0.028509317
42	0xbf157ae1	-0.58390623
43	0xbccc0fe7	-0.024909927
44	0x3e5231f2	0.20526865
45	0x3e867d2f	0.26267383
46	0x3e8985de	0.26859945
47	0x3ebb580f	0.3659062
48	0x3d475285	0.04866268
49	0x3ed6ed0c	0.41977727
50	0x3e6746b5	0.22585566
51	0xbed90abc	-0.42391002
52	0x3b338052	0.0027389717
53	0xbd102689	-0.035193
54	0x3ef8e04d	0.48608628
55	0xbf1bc689	-0.60849816
56	0x3e86c436	0.26321572
57	0xbd3ccbfe	-0.04609298
58	0xbcdc73b7	-0.026910646
59	0x3b38eca7	0.0028217228
60	0x3e698e49	0.22808184
61	0x3ed9e387	0.42556402
62	0xbea692be	-0.3253383
63	0xbe61d5b7	-0.22054182
64	0xbe95f00d	-0.29284707
65	0xbeaef385	-0.34170166
66	0xbe85713f	-0.26062962
67	0x3efa6313	0.48903713
68	0xbe7596be	-0.23983285
69	0xbce8be45	-0.02841104
70	0x3eafd8af	0.34345004
71	0x3ed855f8	0.4225309
72	0x3eb78eec	0.35851228
73	0x3e3da776	0.18520913
74	0xbeec6e40	-0.46177864
75	0xbf2a4075	-0.66504604
76	0xbe454057	-0.19262825
77	0xbecc633c	-0.3991946
78	0x3f0d1106	0.551041
79	0xbf100aa5	-0.5626624
80	0x3e7c18ef	0.24618886
81	0x3f5476a6	0.82993543
82	0x3c1bc85d	0.00950822
83	0x3e99013c	0.29883754
84	0xbf2ef7e6	-0.68347013
85	0xbea553db	-0.3229054
86	0xbfa57c22	-1.2928507
87	0xbdf97927	-0.12181311
88	0x3e88fc4e	0.26754993
89	0xbf05da33	-0.5228607
90	0xbe8fbdb4	-0.2807442
91	0x3f08edcb	0.53487843
92	0xbee2551f	-0.44205567
93	0x3e9b24a2	0.30301386
94	0x3e986a91	0.29768804
95	0x3ee93af7	0.455528
96	0x3ec56ead	0.38561
97	0xbdb49c66	-0.08818893
98	0xbec11e46	-0.3771841
99	0xbf681e28	-0.90671015
100	0x3d439141	0.047745947
101	0x3d10dc9c	0.03536664
102	0x3edee903	0.4353715
103	0xbf28e710	-0.65977573
104	0xbe150a49	-0.14554705
105	0xbbbcb3b9	-0.0057587293
106	0x3efae966	0.49006194
107	0x3e372190	0.17883897
108	0x3d6b7860	0.057487845
109	0x3f090cf3	0.53535384
110	0xbf1e093a	-0.6173283
111	0xbe6a3972	-0.22873476
112	0x3ee05e72	0.43822056
113	0xbf95e0bd	-1.170921
114	0x3e97db18	0.29659343
115	0xbf1174e5	-0.5681899
116	0x3f16dcd1	0.5893069
117	0x3df4f9dc	0.119617194
118	0x3eb2e79c	0.3494233
119	0x3eb98ff8	0.36242652
120	0x3d9f00b7	0.07763808
121	0x3d8ac712	0.06776251
122	0xbe11f9a6	-0.1425539
123	0x3e9491c5	0.29017463
124	0x3b97548c	0.004618233
125	0x3e0e528e	0.1389868
126	0xbef86e8e	-0.48521847
127	0xbeef124c	-0.46693647
128	0xbed54e75	-0.4166142
129	0x3e7ebf2b	0.24877612
130	0xbe0c5a45	-0.1370631
131	0xbe86e26b	-0.26344618
132	0x3f1007c6	0.5626186
133	0xbeb1666b	-0.3464845
134	0x3f1fb2be	0.62382114
135	0x3c13bd81	0.009017349
136	0x3f3d9baf	0.7406568
137	0x3e254da3	0.16142897
138	0x3cfbc2ef	0.0307326
139	0xbd13727e	-0.03599786
140	0x3e2774c0	0.1635313
141	0xbd791451	-0.06081039
142	0xbf08dce4	-0.5346205
143	0xbee1590f	-0.4401326
144	0xbe24a4fe	-0.16078565
145	0xbef27c0b	-0.47360262
146	0x3cce682b	0.025196156
147	0x3dd1ddcd	0.10247383
148	0x3edeeeb5	0.43541494
149	0x3e7620b9	0.2403592
150	0x3f0601fb	0.5234677
151	0xbd9d04d5	-0.07666937
152	0xbe22f999	-0.15915526
153	0x3f1e8f60	0.6193752
154	0xbea74c90	-0.326756
155	0xbec8e69e	-0.39238447
156	0x3f3c41cc	0.735379
157	0x3e991c09	0.29904202
158	0xbeb7ddbc	-0.35911357
159	0xbdc17179	-0.09445471
160	0xbc52fd74	-0.012877811
161	0xbec8c7f3	-0.3921505
162	0xbf2cf2e0	-0.675581
163	0xbd864c5f	-0.065575354
164	0x3e5a557b	0.2132167
165	0x3e0f7c64	0.14012295
166	0xbb84ca03	-0.004052402
167	0x3d1fcf9a	0.039016344
168	0x3e6d6819	0.23184241
169	0x3f31e478	0.6948924
170	0xbeae921e	-0.34095854
171	0x3e1cbc71	0.1530626
172	0xbeb83b41	-0.35982707
173	0x3e4298bf	0.1900358
174	0xbef677ae	-0.48138183
175	0x3f31eae5	0.69499046
176	0xbe868204	-0.2627107
177	0x3f24b980	0.6434555
178	0x3d7007c0	0.05860114
179	0xbe970839	-0.2949846
180	0xbe697657	-0.2279905
181	0xbf5e4d0b	-0.8683631
182	0xbf559cb5	-0.8344224
183	0xbdcf382f	-0.10118138
184	0x3f24185e	0.6409968
185	0xbeaa8aff	-0.3330917
186	0xbd0f2808	-0.034950286
187	0xbf03b8c8	-0.5145383
188	0x3e7c5be4	0.24644428
189	0x3dc57be2	0.096427694
190	0x3e261972	0.16220644
191	0x3e8222fb	0.25417313
192	0xbeaf9da3	-0.34299955
193	0x3edfd22c	0.43715036
194	0xbdca9cdc	-0.098932
195	0xbec1b44b	-0.37832865
196	0x3e84630c	0.25856817
197	0xbd9ea6d1	-0.077466615
198	0x3da6ece6	0.081506535
199	0x3e46bbbd	0.19407554
200	0xbf128ece	-0.5724915
201	0xbd3a1eb1	-0.045439426
202	0xbe6990b6	-0.22809109
203	0xbe3c2377	-0.18372904
204	0xbf446b85	-0.7672656
205	0xbe33137e	-0.17487904
206	0xbd4c1840	-0.049827814
207	0xbe09eba9	-0.13468803
208	0xbecddd36	-0.40207833
209	0x3f476343	0.77885836
210	0x3efad422	0.4898997
211	0x3ea1a44f	0.3157067
212	0xbf016a22	-0.5055257
213	0x3f99766d	1.1989266
214	0x3e9c481d	0.30523768
215	0xbe1c9516	-0.15291247
216	0xbdfb3014	-0.122650295
217	0xbf18f292	-0.5974513
218	0xbe146455	-0.14491399
219	0xbcb57492	-0.022150312
220	0xbeb0cdde	-0.34532064
221	0x3d628273	0.055300187
222	0xbd60052a	-0.054692425
223	0xbd46fb46	-0.048579477
224	0xbe64806a	-0.22314611
225	0x3ee1fc43	0.44137773
226	0x3f1a1c95	0.6019986
227	0xbe4a290b	-0.19742219
228	0xbf2ce01d	-0.6752947
229	0x3eca1d5f	0.39475533
230	0x3f103495	0.56330234
231	0x3f1438ec	0.57899356
232	0xbe4ab6b2	-0.19796255
233	0x3f0e2467	0.55524296
234	0xbebeb2b7	-0.37245724
235	0x3f382aa4	0.71940064
236	0x3e0ca2f9	0.13734044
237	0xbf45b0df	-0.7722301
238	0xbea550c9	-0.32288197
239	0xbd6f635c	-0.058444366
240	0xbeaaf787	-0.33391973
241	0x3e5e3f6e	0.21703884
242	0x3ea20d57	0.31650802
243	0x3c7db0ff	0.015484094
244	0xbeec72fc	-0.46181476
245	0x3e3f0210	0.1865313
246	0x3de2b2df	0.11069273
247	0x3e0a0c62	0.13481286
248	0x3e831e96	0.25609273
249	0xbf0286b9	-0.5098682
250	0xbe86d966	-0.26337737
251	0xbe648906	-0.22317895
252	0x3ef7ac62	0.48373705
253	0x3dc2daac	0.095143646
254	0xbe13a42c	-0.14418095
255	0x3ea51760	0.32244396

network_body.linear_encoder.seq_layers.0.bias f4 [128]
0	0x00000000	0.0
1	0x00000000	0.0
2	0x00000000	0.0
3	0x00000000	0.0
4	0x00000000	0.0
5	0x00000000	0.0
6	0x00000000	0.0
7	0x00000000	0.0
8	0x00000000	0.0
9	0x00000000	0.0
10	0x00000000	0.0
11	0x00000000	0.0
12	0x00000000	0.0
13	0x00000000	0.0
14	0x00000000	0.0
15	0x00000000	0.0
16	0x00000000	0.0
17	0x00000000	0.0
18	0x00000000	0.0
19	0x00000000	0.0
20	0x00000000	0.0
21	0x00000000	0.0
22	0x00000000	0.0
23	0x00000000	0.0
24	0x00000000	0.0
25	0x00000000	0.0
26	0x00000000	0.0
27	0x00000000	0.0
28	0x00000000	0.0
29	0x00000000	0.0
30	0x00000000	0.0
31	0x00000000	0.0
32	0x00000000	0.0
33	0x00000000	0.0
34	0x00000000	0.0
35	0x00000000	0.0
36	0x00000000	0.0
37	0x00000000	0.0
38	0x00000000	0.0
39	0x00000000	0.0
40	0x00000000	0.0
41	0x00000000	0.0
42	0x00000000	0.0
43	0x00000000	0.0
44	0x00000000	0.0
45	0x00000000	0.0
46	0x00000000	0.0
47	0x00000000	0.0
48	0x00000000	0.0
49	0x00000000	0.0
50	0x00000000	0.0
51	0x00000000	0.0
52	0x00000000	0.0
53	0x00000000	0.0
54	0x00000000	0.0
55	0x00000000	0.0
56	0x00000000	0.0
57	0x00000000	0.0
58	0x00000000	0.0
59	0x00000000	0.0
60	0x00000000	0.0
61	0x00000000	0.0
62	0x00000000	0.0
63	0x00000000	0.0
64	0x00000000	0.0
65	0x00000000	0.0
66	0x00000000	0.0
67	0x00000000	0.0
68	0x00000000	0.0
69	0x00000000	0.0
70	0x00000000	0.0
71	0x00000000	0.0
72	0x00000000	0.0
73	0x00000000	0.0
74	0x00000000	0.0
75	0x00000000	0.0
76	0x00000000	0.0
77	0x00000000	0.0
78	0x00000000	0.0
79	0x00000000	0.0
80	0x00000000	0.0
81	0x00000000	0.0
82	0x00000000	0.0
83	0x00000000	0.0
84	0x00000000	0.0
85	0x00000000	0.0
86	0x00000000	0.0
87	0x00000000	0.0
88	0x00000000	0.0
89	0x00000000	0.0
90	0x00000000	0.0
91	0x00000000	0.0
92	0x00000000	0.0
93	0x00000000	0.0
94	0x00000000	0.0
95	0x00000000	0.0
96	0x00000000	0.0
97	0x00000000	0.0
98	0x00000000	0.0
99	0x00000000	0.0
100	0x00000000	0.0
101	0x00000000	0.0
102	0x00000000	0.0
103	0x00000000	0.0
104	0x00000000	0.0
105	0x00000000	0.0
106	0x00000000	0.0
107	0x00000000	0.0
108	0x00000000	0.0
109	0x00000000	0.0
110	0x00000000	0.0
111	0x00000000	0.0
112	0x00000000	0.0
113	0x00000000	0.0
114	0x00000000	0.0
115	0x00000000	0.0
116	0x00000000	0.0
117	0x00000000	0.0
118	0x00000000	0.0
119	0x00000000	0.0
120	0x00000000	0.0
121	0x00000000	0.0
122	0x00000000	0.0
123	0x00000000	0.0
124	0x00000000	0.0
125	0x00000000	0.0
126	0x00000000	0.0
127	0x00000000	0.0

network_body.linear_encoder.seq_layers.2.weight f4 [128, 128]
0	0x3a934aff	0.001123756
1	0x3dc73478	0.097268045
2	0x3d85ab25	0.06526784
3	0xbddedd54	-0.10882059
4	0x3da624c0	0.08112478
5	0xbda7d517	-0.081949405
6	0x3d110078	0.035400838
7	0xbd0542c8	-0.03253439
8	0x3e1a2988	0.15054905
9	0xbdebe866	-0.11518936
10	0xbdc225b2	-0.09479846
11	0xbd21c302	-0.039492615
12	0xbd567e89	-0.052366767
13	0x3d206149	0.03915528
14	0xbc92dd50	-0.017927796
15	0x3d6a8e12	0.057264395
16	0x3dadf2b4	0.084935576
17	0x3b7f5b8c	0.0038964478
18	0x3d33f94c	0.04393892
19	0x3cd94420	0.026521742
20	0xbd922540	-0.07136011
21	0x3d8f9046	0.0700994
22	0x3d3ddfaf	0.0463559
23	0x3dc21aae	0.09477745
24	0x3d62f7ac	0.05541198
25	0x3da2d890	0.07951462
26	0x3dad2565	0.08454398
27	0xbd8069f9	-0.06270213
28	0x3e15c0ea	0.14624372
29	0xbdd048a9	-0.10170109
30	0x3e40ec37	0.18840109
31	0x3cb6f1ef	0.02233216
32	0xbe3f3d32	-0.18675688
33	0xbd66901a	-0.05628977
34	0xbd8fc594	-0.07020107
35	0x3de9aac3	0.11409523
36	0x3cf0dfa6	0.029403519
37	0xbcb291da	-0.021798063
38	0x3c1585d4	0.009126145
39	0xbce98c7e	-0.028509375
40	0x3c931680	0.017955065
41	0x3d11aa50	0.035562813
42	0x3e139050	0.1441052
43	0xbd86d133	-0.0658287
44	0x3d2a0106	0.041504882
45	0x3df70fe8	0.12063581
46	0xbdac092c	-0.08400187
47	0xbcbdc755	-0.023166338
48	0xbbcb5b99	-0.0062059877
49	0x3debeb03	0.11519434
50	0xbd591ac5	-0.053004045
51	0xbbd50d03	-0.0065017953
52	0xbdca32c9	-0.09872968
53	0xbd0a83c4	-0.033817068
54	0xbcc367a5	-0.023853133
55	0xbdb7e413	-0.089790486
56	0xbd9050bc	-0.07046649
57	0x3c1eca96	0.009691855
58	0x3d2e1477	0.042499986
59	0xbdb493f5	-0.08817283
60	0xbd75bf1b	-0.059996706
61	0x3d802e91	0.06258882
62	0xbdd58bd1	-0.104270585
63	0xbe0dad6e	-0.1383569
64	0xbd00eef3	-0.03147788
65	0x3e437087	0.19085895
66	0x3dbf028e	0.09326659
67	0x3dfa7669	0.12229616
68	0xbddecb58	-0.108786285
69	0x3d38a3b5	0.045078
70	0x3dba1338	0.09085697
71	0x3d07de8c	0.03317122
72	0x3e3c96f5	0.1841696
73	0xbc15f1c7	-0.0091518825
74	0x3c8ba29a	0.017045308
75	0xbc60d768	-0.013723232
76	0xbd394a79	-0.04523704
77	0xbd98a8f6	-0.07454102
78	0xbdb936de	-0.09043668
79	0x3d9a9930	0.075487494
80	0xbc3e9d4e	-0.011634184
81	0x3d913f78	0.07092184
82	0xbcc318f2	-0.023815606
83	0x3e4d4c6e	0.20048687
84	0xbd6e9cd7	-0.058255043
85	0xbd48442a	-0.04889313
86	0x3c9d8161	0.019226732
87	0xbd6826d1	-0.056677643
88	0x3d8fe1a6	0.07025461
89	0x3d2cab31	0.04215545
90	0x3daabc3a	0.083366826
91	0xbd557cec	-0.052121088
92	0x3bbd2d92	0.0057732547
93	0x3de50914	0.11183372
94	0xbd0a14e2	-0.03371132
95	0xbc8eac55	-0.017416159
96	0xbc406215	-0.011742135
97	0xbd9dbad6	-0.07701652
98	0x3db9a5c3	0.0906482
99	0xbe71a45b	-0.23597853
100	0x3d36a041	0.044586424
101	0xbd748c18	-0.059703916
102	0x3cbacf9d	0.022804076
103	0xbdb7a8b3	-0.08967724
104	0x3e2b8328	0.16749251
105	0xbd89fdaa	-0.06737836
106	0xbdc78ab5	-0.09743253
107	0x3c4bf407	0.012448317
108	0xbdd5e6ae	-0.10444389
109	0xbc6d38c1	-0.014478863
110	0xbde593cb	-0.1120983
111	0x3cbe13e5	0.023202846
112	0xbd434fa7	-0.047683384
113	0x3dc727f2	0.09724416
114	0x3d5d329b	0.05400334
115	0xbde847c0	-0.1134181
116	0xbe265a64	-0.16245419
117	0x3daccd8c	0.084376425
118	0x3d5be69b	0.05368672
119	0xbd2da36c	-0.04239218
120	0xbe0047c4	-0.12527376
121	0x3bc6a6c0	0.0060623586
122	0xbcbf01a6	-0.023316216
123	0x3d7625ce	0.060094647
124	0x3e7c85b9	0.24660386
125	0x3cd3a02f	0.025833217
126	0xbe4b3f3c	-0.19848341
127	0x3d5c316a	0.053758062
128	0x3cb74b9a	0.022374917
129	0x3ddebda3	0.10876014
130	0x3dcd4fc5	0.100249805
131	0xbd58a2ed	-0.052889753
132	0x3e755a9c	0.23960346
133	0xbdce980d	-0.10087595
134	0xbd87fa11	-0.06639493
135	0xbde356f7	-0.111005716
136	0x3db63c4b	0.08898219
137	0xbe311288	-0.17292225
138	0xbd766f77	-0.060164895
139	0xbdb0d9a7	-0.08635264
140	0x3ca82176	0.020523768
141	0x3c244756	0.010026773
142	0xbd426079	-0.047455285
143	0x3dd20d21	0.102564104
144	0xbd1abfa8	-0.037780434
145	0x3c4dec8a	0.012568602
146	0xbd7c33aa	-0.06157271
147	0x3d00a1de	0.03140437
148	0xbdc31c23	-0.09526851
149	0xbdc45666	-0.09586792
150	0x3c7dbd30	0.015487
151	0xbca81874	-0.020519473
152	0x3d9fd3cd	0.0780407
153	0x3cffba4b	0.031216761
154	0x3da805d2	0.08204235
155	0xbd4e684b	-0.05039243
156	0xbde6572e	-0.11247097
157	0x3de6e76d	0.1127461
158	0x3e16de5d	0.14733262
159	0x3be08362	0.0068515996
160	0x3d067cbc	0.0328338
161	0xbd44a66b	-0.04801027
162	0xbd0ec369	-0.034854326
163	0xbdf79ca4	-0.12090424
164	0x3db9a117	0.090639286
165	0xbd90c477	-0.07068723
166	0x3db296cf	0.08720171
167	0x3de8794e	0.11351262
168	0xbe22b5b5	-0.15889628
169	0x3d186773	0.037208032
170	0xbcdc87e3	-0.026920265
171	0xbc22b977	-0.009931914
172	0xbdbe9d27	-0.09307318
173	0x3e00d477	0.12581049
174	0x3d54113e	0.051774256
175	0x3cdd9e7e	0.027053114
176	0xbc5591c8	-0.013035245
177	0x3d13e936	0.03611108
178	0x3cc70253	0.0242931
179	0x3ce0ac7b	0.027425995
180	0x3cb56be6	0.022146177
181	0xbd230749	-0.03980187
182	0x3dea5b8d	0.11443243
183	0x3e1e1df6	0.15441117
184	0x3e271937	0.16318212
185	0xbdb6bf2c	-0.08923182
186	0xbd63997a	-0.05556629
187	0x3c3a6162	0.011375757
188	0x3cc4c190	0.024018079
189	0x3df1648c	0.11786756
190	0x3d3a84af	0.045536693
191	0xbca6e080	-0.020370722
192	0x3de9da2e	0.114185676
193	0xbe404335	-0.18775637
194	0x3e4185d1	0.18898703
195	0xbd908566	-0.07056694
196	0x3d7149b3	0.058908176
197	0xbc67985f	-0.014135449
198	0x3d7ac9c0	0.06122756
199	0xbd1ad001	-0.037796024
200	0xbdcd9d43	-0.10039761
201	0x3d91bd6a	0.07116206
202	0x3db343f6	0.08753197
203	0x3c970299	0.018433856
204	0xbdb2c92e	-0.08729778
205	0x3e0c81b1	0.13721348
206	0x3dbff4a2	0.09372832
207	0x3d4c6da0	0.049909234
208	0x3d899d01	0.06719399
209	0x3e85d885	0.26141754
210	0xbb4c0955	-0.0031133492
211	0x3c1cc3fd	0.009568212
212	0x3d1fb28a	0.038988627
213	0x3dc8bc74	0.098015696
214	0xbe3be314	-0.18348342
215	0x3dd7d434	0.105385214
216	0x3dbeb11f	0.09311127
217	0xbd907f4b	-0.07055529
218	0x3cfe7cf8	0.03106545
219	0xbd81439a	-0.06311722
220	0x3dac576d	0.08415113
221	0x3cd7d7c4	0.026348002
222	0xbdc92f26	-0.09823446
223	0x3da9251f	0.082590334
224	0x3db2f14f	0.08737432
225	0x3e015dc8	0.12633431
226	0xbcac84ce	-0.02105942
227	0xbd7dbf5e	-0.06195008
228	0x3d239270	0.039934576
229	0xbdb283b9	-0.0871653
230	0xbdaaa10a	-0.08331497
231	0x3d27e84b	0.040993016
232	0xbe3b416b	-0.18286674
233	0x3de8d085	0.11367897
234	0xbde41c9b	-0.111382686
235	0x3e6b6d2a	0.22990862
236	0x3c8a3327	0.016870094
237	0x3e020ff1	0.12701394
238	0x3d03da14	0.032190397
239	0x3e3827ae	0.17983887
240	0xbdee77bf	-0.116439335
241	0x3b0c8460	0.0021441206
242	0x3cd46d42	0.025931004
243	0x3e4f2cd2	0.20231941
244	0xbd2ff879	-0.04296157
245	0x3d11dd9e	0.03561174
246	0xbdac25f4	-0.084056765
247	0x3d9115d2	0.0708424
248	0x3be6396f	0.0070258896
249	0xbe68488b	-0.22683923
250	0xbdb08b65	-0.086203374
251	0x3e359637	0.17733084
252	0xbdaa9e7f	-0.08331012
253	0x3d848e82	0.06472494
254	0xbdd3ae89	-0.10336024
255	0x3d0b4e67	0.034010317

network_body.linear_encoder.seq_layers.2.bias f4 [128]
0	0x00000000	0.0
1	0x00000000	0.0
2	0x00000000	0.0
3	0x00000000	0.0
4	0x00000000	0.0
5	0x00000000	0.0
6	0x00000000	0.0
7	0x00000000	0.0
8	0x00000000	0.0
9	0x00000000	0.0
10	0x00000000	0.0
11	0x00000000	0.0
12	0x00000000	0.0
13	0x00000000	0.0
14	0x00000000	0.0
15	0x00000000	0.0
16	0x00000000	0.0
17	0x00000000	0.0
18	0x00000000	0.0
19	0x00000000	0.0
20	0x00000000	0.0
21	0x00000000	0.0
22	0x00000000	0.0
23	0x00000000	0.0
24	0x00000000	0.0
25	0x00000000	0.0
26	0x00000000	0.0
27	0x00000000	0.0
28	0x00000000	0.0
29	0x00000000	0.0
30	0x00000000	0.0
31	0x00000000	0.0
32	0x00000000	0.0
33	0x00000000	0.0
34	0x00000000	0.0
35	0x00000000	0.0
36	0x00000000	0.0
37	0x00000000	0.0
38	0x00000000	0.0
39	0x00000000	0.0
40	0x00000000	0.0
41	0x00000000	0.0
42	0x00000000	0.0
43	0x00000000	0.0
44	0x00000000	0.0
45	0x00000000	0.0
46	0x00000000	0.0
47	0x00000000	0.0
48	0x00000000	0.0
49	0x00000000	0.0
50	0x00000000	0.0
51	0x00000000	0.0
52	0x00000000	0.0
53	0x00000000	0.0
54	0x00000000	0.0
55	0x00000000	0.0
56	0x00000000	0.0
57	0x00000000	0.0
58	0x00000000	0.0
59	0x00000000	0.0
60	0x00000000	0.0
61	0x00000000	0.0
62	0x00000000	0.0
63	0x00000000	0.0
64	0x00000000	0.0
65	0x00000000	0.0
66	0x00000000	0.0
67	0x00000000	0.0
68	0x00000000	0.0
69	0x00000000	0.0
70	0x00000000	0.0
71	0x00000000	0.0
72	0x00000000	0.0
73	0x00000000	0.0
74	0x00000000	0.0
75	0x00000000	0.0
76	0x00000000	0.0
77	0x00000000	0.0
78	0x00000000	0.0
79	0x00000000	0.0
80	0x00000000	0.0
81	0x00000000	0.0
82	0x00000000	0.0
83	0x00000000	0.0
84	0x00000000	0.0
85	0x00000000	0.0
86	0x00000000	0.0
87	0x00000000	0.0
88	0x00000000	0.0
89	0x00000000	0.0
90	0x00000000	0.0
91	0x00000000	0.0
92	0x00000000	0.0
93	0x00000000	0.0
94	0x00000000	0.0
95	0x00000000	0.0
96	0x00000000	0.0
97	0x00000000	0.0
98	0x00000000	0.0
99	0x00000000	0.0
100	0x00000000	0.0
101	0x00000000	0.0
102	0x00000000	0.0
103	0x00000000	0.0
104	0x00000000	0.0
105	0x00000000	0.0
106	0x00000000	0.0
107	0x00000000	0.0
108	0x00000000	0.0
109	0x00000000	0.0
110	0x00000000	0.0
111	0x00000000	0.0
112	0x00000000	0.0
113	0x00000000	0.0
114	0x00000000	0.0
115	0x00000000	0.0
116	0x00000000	0.0
117	0x00000000	0.0
118	0x00000000	0.0
119	0x00000000	0.0
120	0x00000000	0.0
121	0x00000000	0.0
122	0x00000000	0.0
123	0x00000000	0.0
124	0x00000000	0.0
125	0x00000000	0.0
126	0x00000000	0.0
127	0x00000000	0.0

action_model._continuous_distribution.log_sigma f4 [1, 2]
0	0x00000000	0.0
1	0x00000000	0.0

action_model._continuous_distribution.mu.weight f4 [2, 128]
0	0xbc74039a	-0.014893437
1	0xbce49718	-0.027904078
2	0x3c6eea3b	0.014582212
3	0xb8375045	-4.3705357e-05
4	0x3c55a5df	0.013040035
5	0xbc5e1075	-0.013553728
6	0x3abfd8be	0.0014636738
7	0xbc333723	-0.010938439
8	0x3bc0c61a	0.0058829905
9	0x3c875f20	0.016524851
10	0x3c1944b1	0.009354756
11	0xbcaa2f51	-0.020774515
12	0x3bdc2932	0.006718778
13	0xbc0feca1	-0.008784444
14	0xbb329f53	-0.002725561
15	0x3b42ca24	0.0029722536
16	0xbcfde607	-0.030993475
17	0xbce67bf8	-0.028135285
18	0xbc85cc8c	-0.016332887
19	0xbbfbf985	-0.007689657
20	0xbc832447	-0.01600851
21	0xbbfc9eaa	-0.007709344
22	0xbc5cb8a8	-0.01347176
23	0xbb424ed0	-0.0029649027
24	0x3b274e39	0.0025528802
25	0xbc15e487	-0.009148723
26	0x3cd8b21a	0.026452113
27	0xbc74728d	-0.014919889
28	0x3cdf2d75	0.027243355
29	0x3c463417	0.01209738
30	0x3c9ece92	0.01938561
31	0x3c24d669	0.010060885
32	0xbc5bde93	-0.013419765
33	0xbce451c5	-0.027871022
34	0x3cb98093	0.022644317
35	0xbce3d34b	-0.027810713
36	0xbb7744a7	-0.003773013
37	0xbd04d14e	-0.03242617
38	0xbacf1a8a	-0.0015800756
39	0xbc44014f	-0.011963203
40	0xbb3bcd37	-0.0028656253
41	0x3c85bc2f	0.016325084
42	0xbcc612a2	-0.024178807
43	0x3ba22cf0	0.0049492046
44	0xbc2af4e6	-0.010434365
45	0xbc7c81e0	-0.015411824
46	0x3c859372	0.016305659
47	0x3cf46adf	0.029836116
48	0xbb37a8ab	-0.0028024118
49	0x3b6a5f13	0.0035762235
50	0x3cd26a50	0.02568546
51	0xbb5aa1cf	-0.0033360606
52	0x3a80151d	0.0009771917
53	0xbcace57e	-0.021105524
54	0x3ccafad7	0.024777813
55	0x3c372457	0.011178098
56	0x3c85416c	0.016266547
57	0xbc951b33	-0.018201446
58	0xbbb8a155	-0.0056344667
59	0xbcd8abd0	-0.026449114
60	0xbc21ba25	-0.0098710405
61	0x3c5409d2	0.0129417945
62	0xbc0d95d6	-0.008641681
63	0xbd28dcdd	-0.041226257
64	0xbc5f16ab	-0.013616244
65	0x3cd9d53b	0.026590934
66	0x3c6be6bb	0.014398272
67	0x3d3d28b9	0.046181414
68	0x3bc57e4e	0.0060270196
69	0x3bff5562	0.007792161
70	0x3c36af4b	0.011150192
71	0x3cebc8ea	0.028782327
72	0xb9a0c410	-0.00030663656
73	0x3c4601ba	0.012085373
74	0xbc7d8920	-0.015474588
75	0x3ba81b7b	0.005130229
76	0xbcbf0d4e	-0.023321774
77	0xbbd48278	-0.0064852796
78	0x3b6b9bea	0.0035951086
79	0x3ca98b1e	0.020696219
80	0xbcd0cd1d	-0.02548843
81	0xbcf954df	-0.030435978
82	0x3cb07b6a	0.021543223
83	0x3c81232f	0.015763847
84	0xba91a962	-0.0011113102
85	0x3b1043af	0.0022012999
86	0xbc67ada7	-0.014140523
87	0x38f79d07	0.000118071264
88	0x3c3923b3	0.011300015
89	0xbbd210a3	-0.0064106747
90	0x3d0b0dbb	0.03394864
91	0xbc63a170	-0.01389347
92	0x3b2389d3	0.0024953976
93	0xbb6952e5	-0.0035602388
94	0x3c40808c	0.011749398
95	0xbc52e258	-0.012871347
96	0x3cf98e07	0.030463232
97	0xbc8248e0	-0.01590389
98	0xbc0c3799	-0.008558177
99	0x3cb34b64	0.021886535
100	0x3cdd4bad	0.027013624
101	0xbcc449c5	-0.023960957
102	0xbc9a67ec	-0.018848382
103	0xbc6da4bf	-0.014504611
104	0xbc134d16	-0.008990547
105	0xba0ab9ba	-0.00052919576
106	0x3c156700	0.009118795
107	0x3c02e5f5	0.007989396
108	0x3bd6a25f	0.006550118
109	0x3a16f006	0.0005757812
110	0x3c3c2dbd	0.011485514
111	0xbce46080	-0.027878046
112	0x3b7c4125	0.0038490978
113	0x3ce4716b	0.027886113
114	0x3c7daa73	0.015482533
115	0x3c29a1d3	0.010353523
116	0x3c52b8f7	0.012861482
117	0x3beac910	0.007165082
118	0x3c24c34b	0.010056327
119	0x3d126e83	0.035749923
120	0x3ac00f1f	0.0014652944
121	0xbc081e94	-0.008308072
122	0x3afc870b	0.001926632
123	0x3b83421b	0.004005683
124	0x3c363c0b	0.011122714
125	0x3caa0ffb	0.020759573
126	0xbc7431d3	-0.014904457
127	0xbb8abd27	-0.0042339745
128	0x3bc67259	0.006056112
129	0xbcade70d	-0.021228338
130	0x3cb3421b	0.021882107
131	0xbb989c9f	-0.0046573426
132	0x3c90b4b7	0.017664297
133	0x3c3aa803	0.011392596
134	0xbcee4f2f	-0.029090492
135	0x3c742ab5	0.01490276
136	0xbb1136f7	-0.0022158006
137	0x3c29bc24	0.010359798
138	0xbcfd54f7	-0.030924303
139	0xbd1db3e5	-0.03850164
140	0xbc1a33e0	-0.009411782
141	0xbcae5f4a	-0.021285672
142	0xbce9cf23	-0.028541153
143	0xba8d4d46	-0.0010780476
144	0x3ce450ba	0.027870525
145	0x3ba38e12	0.0049913013
146	0xbd020cdc	-0.031750545
147	0xbce320bb	-0.027725568
148	0xbb42d735	-0.0029730324
149	0x3b149a34	0.002267492
150	0x3ce09828	0.027416304
151	0x3b8d7816	0.004317294
152	0xba04cc8a	-0.0005065879
153	0xbc5da71f	-0.013528614
154	0xbb1f57b3	-0.0024313747
155	0x3c42baab	0.011885325
156	0xbc880cb8	-0.016607627
157	0xbc2bbd65	-0.010482167
158	0x3b738987	0.003716083
159	0x3c469aef	0.0121219
160	0xbc78b008	-0.015178688
161	0x3cb16f53	0.021659529
162	0x3d031f9d	0.03201257
163	0xbc897864	-0.01678104
164	0xbbe0ed38	-0.006864216
165	0xb9e74ced	-0.00044117068
166	0x3c1efde1	0.009704084
167	0x3d0696de	0.032858722
168	0x3c64be43	0.013961378
169	0xbca2bc6e	-0.01986524
170	0x3be8e5f5	0.007107491
171	0x3c060a79	0.008181208
172	0x3cdce8e7	0.026966525
173	0x3c7f806d	0.015594584
174	0xbc64b648	-0.013959475
175	0xbb85aa65	-0.0040791505
176	0xbb988fb7	-0.004655804
177	0xbc7411aa	-0.01489679
178	0x3c2b3d67	0.010451651
179	0xbceebe67	-0.029143525
180	0xbab82363	-0.0014048632
181	0x3b8677f7	0.0041036564
182	0x3c0a03fb	0.008423801
183	0x3cdb86a0	0.026797593
184	0xbc404ef4	-0.011737574
185	0x3c5159fb	0.012777801
186	0xbcb92bdf	-0.022603927
187	0x3cf21c47	0.0295545
188	0xbc425985	-0.011862163
189	0xbc20a4ee	-0.009804947
190	0x3c25fbd0	0.010130838
191	0x3c26c6bb	0.010179217
192	0xbca0cf81	-0.019630196
193	0x3c9da27b	0.019242516
194	0xbc21a91b	-0.009866978
195	0xbc980fef	-0.018562285
196	0xbcfc5f2a	-0.030807097
197	0x3c9156f5	0.01774166
198	0x3bdb7b35	0.006698037
199	0xbcd89447	-0.026437892
200	0xbd1caa10	-0.03824812
201	0x3ca5a783	0.020221477
202	0x3bdc04b5	0.0067144283
203	0xbafd8577	-0.0019342144
204	0xbcd3c94d	-0.025852824
205	0x3c11eef6	0.00890707
206	0x3b854767	0.0040673497
207	0x3beaef30	0.0071696267
208	0x3c9b9722	0.018992964
209	0xbb1f7180	-0.0024329126
210	0x3d3b9cfb	0.045804005
211	0xbce782bf	-0.028260587
212	0xbbfa59e3	-0.00764011
213	0x3cee45fd	0.029086107
214	0xbc723352	-0.0147827435
215	0xbc61da30	-0.01378493
216	0x3be114ad	0.00686892
217	0x3beb9282	0.007189096
218	0x3b67fa9a	0.0035397173
219	0x3c802a0f	0.015645055
220	0x3c670fe3	0.014102909
221	0x3cc747e8	0.02432628
222	0x3bc36eb5	0.005964125
223	0xbc4214f7	-0.011845819
224	0x3ce7d58d	0.028300071
225	0x3c942e1a	0.01808839
226	0xba4b5796	-0.0007756887
227	0x3c2fb6b1	0.010724709
228	0xbbc5d297	-0.006037067
229	0x3c6becab	0.014399688
230	0x3c3198f8	0.010839693
231	0x3be26fbf	0.006910294
232	0x3c58f347	0.013241596
233	0x3ca39c07	0.01997186
234	0x3ca1ab8f	0.019735126
235	0x3cd12573	0.025530552
236	0xbbb9a1ee	-0.0056650555
237	0x3b2b0673	0.0026096373
238	0xbcc25bb6	-0.023725372
239	0xbb7ab5fd	-0.0038255446
240	0xbc7043fa	-0.014664644
241	0x3c86cf91	0.016456397
242	0x3b86b762	0.0041112164
243	0xbcb6643e	-0.022264596
244	0x3b452373	0.0030080944
245	0x3aa0fdec	0.0012282706
246	0x3c950ca8	0.018194512
247	0x39eb468d	0.00044875257
248	0x3c983f1c	0.01858478
249	0x3c5c27a3	0.0134371845
250	0x3ca70218	0.02038674
251	0x3cb5478c	0.022128843
252	0x3d149ede	0.03628432
253	0xbb40f049	-0.0029440096
254	0x3c0ca6f4	0.008584727
255	0x3c7c894a	0.015413592

action_model._continuous_distribution.mu.bias f4 [2]
0	0x00000000	0.0
1	0x00000000	0.0
