UnityMLTutorial_complete/results/Test3/MoveToGoal/MoveToGoal-71144.onnx (onnx, 72951 bytes, 7 tensors)

network_body.linear_encoder.seq_layers.0.weight f4 [128, 6]
0	0x3e1cf531	0.15327908
1	0xbe86fedd	-0.2636632
2	0xbe7c7bf7	-0.24656664
3	0xbdd4d2fb	-0.10391804
4	0x3e074b5a	0.13212338
5	0x3f4af140	0.7927437
6	0x3e510c56	0.20414862
7	0xbea5c37d	-0.32375708
8	0x3f47d528	0.78059626
9	0xbec35a15	-0.38154665
10	0xbe649d3f	-0.2232561
11	0x3e173539	0.14766397
12	0x3ef6653b	0.48124108
13	0x3f186871	0.59534365
14	0x3e85041d	0.259797
15	0xbf60d179	-0.8781963
16	0x3e3e0a35	0.18558581
17	0xbf087ad6	-0.5331243
18	0x3f74389c	0.9539888
19	0xbec37c69	-0.38180855
20	0xbe91c114	-0.2846762
21	0xbe2f784d	-0.17135735
22	0xbe75ad44	-0.23991877
23	0x3f1931f1	0.5984183
24	0xbf4a9030	-0.7912626
25	0xbe0dcd14	-0.13847762
26	0xbcaa4deb	-0.020789107
27	0xbf2b4374	-0.668998
28	0x3d8fa890	0.070145726
29	0x3f244387	0.6416554
30	0x3f1d40ea	0.61427176
31	0xbea07f03	-0.31346902
32	0x3d338dd2	0.043836422
33	0xbeaa6c15	-0.33285585
34	0x3ebe78e6	0.37201613
35	0x3ecde848	0.4021628
36	0x3f5b2b0f	0.8561258
37	0x3ec0933b	0.37612328
38	0x3d8108a8	0.06300479
39	0x3e83bb01	0.2572861
40	0xbe65f4f6	-0.22456726
41	0x3edd0d6f	0.43174312
42	0x3edcd00d	0.4312748
43	0x3e525edb	0.20543997
44	0xbe391c3a	-0.18077174
45	0x3efa3f49	0.48876408
46	0x3eeb61e7	0.4597313
47	0x3f163d88	0.5868764
48	0x3e6502f9	0.22364415
49	0x3e32049c	0.17384571
50	0x3e1b68b3	0.15176658
51	0x3e9a78a7	0.30170175
52	0xbf727eef	-0.94724935
53	0x3ee5361e	0.4476785
54	0xbe5fe9e8	-0.21866572
55	0xbdea6085	-0.11444191
56	0x3eae657e	0.34061807
57	0x3f666953	0.9000446
58	0xbe00f408	-0.1259309
59	0xbed5de33	-0.41771087
60	0xbdd67a6f	-0.10472571
61	0x3da673e6	0.081275746
62	0x3ea7fb25	0.32808796
63	0x3f68998d	0.908593
64	0x3ecb4fb4	0.39709246
65	0x3ed9fde4	0.42576516
66	0x3db12157	0.08648937
67	0x3f21dcbd	0.63227445
68	0x3f5f6093	0.87256736
69	0xbf371f9f	-0.71532625
70	0xbeb1832a	-0.34670383
71	0x3ef9bf6c	0.48778856
72	0x3e0f6111	0.14001872
73	0xbf25b5ac	-0.64730334
74	0x3f2f54de	0.6848887
75	0xbe84c4c9	-0.25931385
76	0xbec092a9	-0.37611893
77	0xbe76ce41	-0.24102117
78	0x3f29016e	0.66017807
79	0xbd5525ab	-0.052037876
80	0xbea413a3	-0.32046232
81	0x3e9c52f1	0.3053203
82	0x3dde02c6	0.10840373
83	0xbd42534f	-0.04744273
84	0x3de5aaf0	0.11214244
85	0xbe945799	-0.28973082
86	0xbe198d98	-0.1499542
87	0xbefb6610	-0.49101305
88	0x3de6c79c	0.11268541
89	0xbe979eb1	-0.2961326
90	0xbf4514df	-0.7698497
91	0xbeb94c4d	-0.36191025
92	0x3ea80ef3	0.32823905
93	0x3e87d29f	0.2652788
94	0x3cae9c80	0.02131486
95	0xbf104f12	-0.5637065
96	0xbdee6ef5	-0.11642257
97	0xbeed4625	-0.4634258
98	0x3eac05f5	0.33598295
99	0x3f09d505	0.53840667
100	0xbe629876	-0.22128472
101	0xbf2806e5	-0.6563552
102	0x3f2dfcd4	0.6796391
103	0x3f34ae24	0.7057822
104	0x3ee764f2	0.45194203
105	0xbec94a72	-0.3931461
106	0x3ed833e5	0.42227092
107	0x3ed093a6	0.40737647
108	0xbee70966	-0.45124358
109	0xbedd9c22	-0.43283182
110	0xbceddc76	-0.029035788
111	0x3e543c18	0.20726049
112	0x3eb11898	0.34589076
113	0xbd805211	-0.06265653
114	0xbd00ed31	-0.031476203
115	0x3ce32b41	0.027730586
116	0xbdd56382	-0.1041937
117	0xbe8c9e27	-0.2746441
118	0xbcd1478b	-0.02554681
119	0xbcdd375a	-0.027003933
120	0xbf304b3a	-0.68864787
121	0x3e1e464c	0.15456504
122	0xbd35ae69	-0.044355784
123	0xbf430121	-0.761736
124	0xbe9b0950	-0.30280542
125	0xbe6e3380	-0.23261833
126	0x3e7379ce	0.23776934
127	0xbee56175	-0.44800916
128	0x3e8d34a9	0.2757924
129	0x3e0d06f9	0.13772191
130	0xbdfd303d	-0.12362716
131	0xbe29b4c0	-0.16572857
132	0xbe157f7f	-0.14599417
133	0x3e39c13e	0.18140122
134	0xbe41796f	-0.1889398
135	0x3e206d9b	0.15666811
136	0x3ec6bd44	0.38816273
137	0x3d14d69f	0.03633749
138	0x3b3c4989	0.0028730354
139	0xbcbcfc88	-0.023069635
140	0x3cdb2512	0.026751075
141	0xbe49a041	-0.19690038
142	0xbf2f34a9	-0.6843973
143	0xbf1e4512	-0.6182414
144	0x3eb52367	0.35378572
145	0xbf613c05	-0.8798221
146	0x3ece0a12	0.40242058
147	0xbe847f38	-0.2587831
148	0xbea45497	-0.32095787
149	0x3f1e5834	0.6185334
150	0x3f1ca2e1	0.61186033
151	0xbedf7c54	-0.43649542
152	0x3e8e9d4f	0.27854392
153	0xbdf310af	-0.118684165
154	0xbecdd6c7	-0.40202925
155	0x3e4a2f13	0.1974452
156	0xbeec339c	-0.46133125
157	0xbcd58437	-0.026064022
158	0x3dd8f68a	0.105938986
159	0x3d141b1f	0.036158677
160	0xbd6048f4	-0.054757074
161	0xbda2e24c	-0.07953319
162	0xbc759f0e	-0.014991535
163	0xbee2d674	-0.4430424
164	0xbf249149	-0.6428419
165	0x3e87dbe4	0.2653495
166	0xbca6b705	-0.020350942
167	0xbe4d1e70	-0.20031142
168	0x3ee0b024	0.43884385
169	0x3dd272b2	0.10275783
170	0xbf82a685	-1.0207068
171	0xbea8b325	-0.32949176
172	0xbd495ed4	-0.0491627
173	0x3d8fc13c	0.070192784
174	0xbe025a12	-0.12729672
175	0xbdd2ed73	-0.10299196
176	0xbf019006	-0.5061039
177	0x3ed59909	0.4171832
178	0xbe608f65	-0.219297
179	0x3c88a77a	0.016681422
180	0x3d8d52f2	0.06900586
181	0xbf1ebf10	-0.6201029
182	0x3ea52659	0.3225582
183	0xbe641101	-0.22272111
184	0xbd1aec82	-0.037823208
185	0x3e3329c9	0.17496409
186	0xbdcb9907	-0.09941297
187	0x3c308921	0.010774882
188	0xbe63d0f2	-0.22247675
189	0x3e61d264	0.22052914
190	0xbe836eef	-0.25670573
191	0xbd965d84	-0.073420554
192	0xbecea9d4	-0.40363944
193	0xbf19ae37	-0.60031456
194	0xbec39953	-0.38202915
195	0x3df24240	0.118290424
196	0xbe3e5929	-0.185887
197	0xbdadab9a	-0.08479996
198	0xbe8867a7	-0.2664158
199	0xbeec43b4	-0.46145403
200	0x3e9bee57	0.30455276
201	0xbe9dd8fb	-0.30829605
202	0x3f18923f	0.59598154
203	0x3e709012	0.23492458
204	0x3e92a3b2	0.28640515
205	0xbedb3ba0	-0.42818928
206	0xbe60ada0	-0.21941233
207	0xbe4f1dc5	-0.202262
208	0xbd9ecca9	-0.077538796
209	0x3e81d9c8	0.25361466
210	0x3e71bcbf	0.23607157
211	0xbe06f6f3	-0.13180141
212	0xbf303027	-0.68823475
213	0x3e7d2e98	0.24724805
214	0x3f1f185e	0.62146556
215	0xbd26d4ce	-0.04073029
216	0x3f294c2c	0.66131854
217	0xbee61344	-0.44936574
218	0x3f0a5522	0.5403615
219	0xbf587943	-0.8456003
220	0xbea501dd	-0.32227984
221	0xbea02ba2	-0.3128329
222	0xbf2feabe	-0.68717563
223	0xbe94a11b	-0.29029164
224	0x3da4bd9e	0.08043979
225	0xbe629487	-0.22126971
226	0xbe295642	-0.16536811
227	0x3edd0433	0.43167266
228	0x3d977763	0.07395818
229	0x3e8ba426	0.27273673
230	0x3de6ae68	0.11263734
231	0x3ea4493c	0.32087123
232	0x3f0f964b	0.56088704
233	0xbea72862	-0.32647997
234	0x3ed82c8e	0.42221493
235	0xbdea75cc	-0.11448249
236	0x3e362d93	0.17790823
237	0xbf1ba59a	-0.6079956
238	0xbe382efc	-0.17986673
239	0x3eb5dd72	0.35520512
240	0xbe66c041	-0.22534277
241	0xbe9347de	-0.28765768
242	0xbdde5ae0	-0.10857177
243	0xbd08cfce	-0.033401303
244	0xbd60c0d0	-0.05487138
245	0x3dc29bb3	0.095023535
246	0x3e8321ec	0.25611818
247	0x3eaf550e	0.3424458
248	0x3df1c6a6	0.11805467
249	0xbe999497	-0.29996178
250	0x3df0e5d3	0.117625855
251	0xbdc088e5	-0.094011106
252	0xbec16fbb	-0.37780556
253	0x3c981a00	0.018567085
254	0xbf2ddc95	-0.67914706
255	0x3f10bbde	0.5653666

network_body.linear_encoder.seq_layers.0.bias f4 [128]
0	0xbc4a78a0	-0.012357861
1	0x3c0a15cd	0.008428049
2	0xbbc5e6d6	-0.0060394807
3	0x3b96d2b1	0.004602753
4	0x3c5e49ee	0.013567431
5	0x3c0a579a	0.008443737
6	0xbc6a5160	-0.014301628
7	0xbbb9694f	-0.0056583057
8	0x3a9ad3ad	0.0011812352
9	0xbb538050	-0.0032272525
10	0xbc1f3dc3	-0.009719315
11	0x3c16fac3	0.00921506
12	0xbb7220be	-0.0036945785
13	0x3c0264e8	0.007958628
14	0xbbd4c71e	-0.006493463
15	0xbc001f62	-0.007819982
16	0xbba700bf	-0.0050965245
17	0x3bbadaf1	0.0057023694
18	0xbb90e586	-0.0044218926
19	0x3c841445	0.016122947
20	0xbba7fdf5	-0.0051267096
21	0x3c087bd0	0.0083303
22	0xbb9c762d	-0.00477483
23	0xbb96857f	-0.0045935507
24	0x3c206266	0.009789085
25	0xbc02726e	-0.0079618525
26	0x3c033ef3	0.008010614
27	0x3ccea060	0.025222957
28	0x3c810fad	0.015754545
29	0xbb45aa83	-0.0030161447
30	0xbbc4c5c2	-0.00600502
31	0xbaf87972	-0.0018957092
32	0xbbb9be9f	-0.0056684758
33	0x3b6e868d	0.0036396116
34	0xb9b4bf07	-0.00034474602
35	0x3c93c5ee	0.018038716
36	0xbb15aefa	-0.002283989
37	0xbb74b962	-0.0037341942
38	0x3a986f9d	0.0011629943
39	0xbbd80afa	-0.0065931054
40	0x39ef23b6	0.0004561224
41	0xbb994276	-0.004677112
42	0xbb4c4b15	-0.0031172682
43	0xbad47604	-0.0016209488
44	0xbb5b8856	-0.003349801
45	0xbc0224c4	-0.007943336
46	0xbb54e3c1	-0.0032484385
47	0xbb7b9916	-0.0038390807
48	0xbbab93d0	-0.0052361265
49	0x3b99214b	0.0046731583
50	0x3b8fee40	0.0043924153
51	0x3a28ea29	0.0006443584
52	0x3a3471bb	0.0006883402
53	0xbc175a83	-0.009237888
54	0xbc29789a	-0.010343695
55	0xbb1eeefa	-0.0024251328
56	0xbb5e3562	-0.003390633
57	0xb9e11cfc	-0.0004293694
58	0xbc142446	-0.009041851
59	0xbc9d8de6	-0.019232702
60	0xbbc2921e	-0.0059378287
61	0x3b8bd5bf	0.004267424
62	0xbc057a71	-0.008146868
63	0x3b01e969	0.0019822961
64	0x3a420ca9	0.0007402399
65	0xbb6625b6	-0.0035117692
66	0x3b8f844f	0.004379786
67	0xbc1e8033	-0.00967412
68	0xbc82b5d4	-0.015955843
69	0xbbda6656	-0.0066650314
70	0x3b773c1d	0.003772504
71	0xbbd49425	-0.0064873868
72	0xbad371cf	-0.001613194
73	0x3c500e06	0.012698656
74	0x3af0266f	0.0018322001
75	0xbb81a602	-0.0039565573
76	0xbbf75dcf	-0.0075490247
77	0xbbde405e	-0.0067825755
78	0xba740fc9	-0.00093102135
79	0x39fc3a49	0.0004810861
80	0xbc3aab96	-0.011393448
81	0xbb3c3bdf	-0.002872221
82	0x3ba91b8d	0.005160755
83	0xbb9c9135	-0.004778052
84	0xbafb3378	-0.0019165119
85	0xba6947fc	-0.0008898971
86	0xbb895af5	-0.004191751
87	0xbbca0dba	-0.006166187
88	0xbc0a6f29	-0.008449354
89	0xbb658902	-0.003502429
90	0x3b9f3478	0.0048585497
91	0xba8353bc	-0.0010019462
92	0xbbc96c9f	-0.006146982
93	0x3bf29d27	0.007403988
94	0xbbcfaffa	-0.0063381167
95	0x3bde9c44	0.0067935307
96	0x3bef5a55	0.0073044696
97	0x3becefa6	0.0072307168
98	0xba98ed15	-0.0011667336
99	0x3b8fa141	0.0043832366
100	0xbb174b58	-0.002308568
101	0xbb950624	-0.004547851
102	0xbbdab29c	-0.006674124
103	0x3c98636c	0.018602096
104	0xbbd8613c	-0.006603388
105	0xbc256a21	-0.010096104
106	0xbb5a503d	-0.0033311986
107	0x3c13d0cc	0.009021949
108	0x3a17abbe	0.00057857845
109	0xbbb35eb0	-0.005473934
110	0x3c37ffd4	0.011230428
111	0x3a3a763f	0.0007112957
112	0x3ba9615e	0.005169078
113	0xbb01c056	-0.001979848
114	0x3b9e176d	0.00482457
115	0x3c67459a	0.014115715
116	0xbbdf9419	-0.0068230745
117	0x3bee37a5	0.007269817
118	0xbb04d91c	-0.0020271009
119	0xba927eeb	-0.001117674
120	0xbbb24105	-0.00543988
121	0x3bf25cbf	0.00739631
122	0xbaa5e395	-0.0012656326
123	0xbc1f6d9d	-0.009730724
124	0x3ba27254	0.0049574766
125	0xbad84c9b	-0.0016502322
126	0x3b0f3775	0.0021853123
127	0xbc89e431	-0.016832443

network_body.linear_encoder.seq_layers.2.weight f4 [128, 128]
0	0x3d5871e3	0.052842986
1	0x3d579207	0.052629497
2	0x3d993598	0.07480925
3	0xbdbdc80d	-0.09266672
4	0xbd98d1e6	-0.0746191
5	0xbc8a18a0	-0.016857445
6	0x3e0c0c13	0.13676481
7	0xbbb376c7	-0.005476806
8	0x3d45680e	0.048194937
9	0x3d844250	0.064579606
10	0x3dd967a4	0.10615471
11	0x3d8d952b	0.06913217
12	0x3a48c1d7	0.0007658279
13	0x3cd30b08	0.025762096
14	0x3b8c05fa	0.0042731734
15	0x3d241a3c	0.04006408
16	0x3c90d972	0.017681811
17	0xbbfa1d27	-0.0076328698
18	0xbd8c2059	-0.06842107
19	0xbd98dd16	-0.07464044
20	0x3d25857d	0.040410507
21	0x3d7a4d81	0.06110907
22	0xbdabf3c5	-0.08396105
23	0xbcb05fdc	-0.021530084
24	0x3d86d78d	0.06584082
25	0x3e161240	0.146554
26	0x3d2a7309	0.041613612
27	0x3d949784	0.07255462
28	0x3e26bfce	0.16284105
29	0xbd3b6dfd	-0.04575919
30	0xbaad9900	-0.001324445
31	0x3c4fe8c6	0.012689775
32	0x3d2a011f	0.041504975
33	0xbe225fa7	-0.15856801
34	0x3e24d4be	0.1609678
35	0xbc7f1b5d	-0.015570489
36	0x3d3da29b	0.04629765
37	0xbd53f108	-0.051743537
38	0x3e225e2d	0.15856238
39	0x3d06ba30	0.032892406
40	0xbd5985f8	-0.05310628
41	0xbe1fd134	-0.15607148
42	0x3d8c3443	0.06845906
43	0x3b7cbc9c	0.0038564568
44	0x3dbc6231	0.09198416
45	0xbd9ca213	-0.07648101
46	0x3d937229	0.07199509
47	0x3e48b5c3	0.19600587
48	0xbb87e092	-0.004146644
49	0xbd4fdcf9	-0.050747845
50	0xbc352a52	-0.011057453
51	0x3dec7417	0.1154558
52	0xbbb505cf	-0.005524374
53	0xbdb0cf22	-0.086332574
54	0x3be3f8e4	0.0069571603
55	0xbd0e0148	-0.03466919
56	0x3dd897b5	0.10575811
57	0x3e1cc206	0.15308389
58	0xbd0ac45c	-0.03387867
59	0x3da8fed6	0.08251731
60	0xbd4e67f5	-0.05039211
61	0x3daa5476	0.08316891
62	0x3d4285c6	0.047490858
63	0x3d95219c	0.07281801
64	0x3da9583b	0.08268782
65	0x3d422969	0.047402773
66	0x3dbe30e0	0.09286666
67	0x3c917eee	0.01776072
68	0xbdbee1fd	-0.093204476
69	0x3cc0def6	0.023543816
70	0x3c8f9af1	0.017529937
71	0xbe0e1d9c	-0.13878483
72	0x3b8a97a8	0.0042295046
73	0x3bb17ab4	0.0054162387
74	0x3d626de3	0.055280577
75	0x3cbd4db5	0.023108343
76	0x3d298838	0.041389674
77	0xbe04565d	-0.1292357
78	0x3dbc4a1a	0.09193821
79	0x3d2a1da9	0.041532192
80	0x3d7628a5	0.060097355
81	0x3e03b762	0.12862924
82	0xbd86466a	-0.06556399
83	0x3cbcb006	0.023033153
84	0x3d1815c6	0.03713014
85	0xbd0344ac	-0.032047912
86	0xbc1ab7a7	-0.0094432
87	0x3d34621a	0.04403887
88	0xbe203114	-0.15643722
89	0xbbe7c47d	-0.007072984
90	0xbca80821	-0.020511689
91	0xbd085157	-0.033280697
92	0x3ce2a9ef	0.027668921
93	0xbdb7c224	-0.08972576
94	0x3d76b9b8	0.06023571
95	0xbce10df5	-0.027472476
96	0xbe1bbf5e	-0.1520972
97	0x3d033fc5	0.032043237
98	0x3d308202	0.043092735
99	0x3d7cbbba	0.061702468
100	0x3d85289f	0.065018885
101	0xbdefa6ba	-0.117017224
102	0x3d3b5039	0.045730803
103	0xbd9ecc5d	-0.07753823
104	0xbd39aff8	-0.045333833
105	0xbda7b48b	-0.08188733
106	0x3e3d5a6e	0.18491527
107	0xbdd26d2c	-0.10274729
108	0xbbb8db99	-0.0056414125
109	0xbe22ad90	-0.15886521
110	0xbe05ae78	-0.13054836
111	0x3cd61d18	0.02613692
112	0xbe0ce366	-0.1375862
113	0xbdaf31ca	-0.085544184
114	0xbcf7428f	-0.030183105
115	0xbd2ec82a	-0.04267136
116	0xbda9d4b0	-0.0829252
117	0xbe030699	-0.12795486
118	0x3dbe4520	0.09290528
119	0xbce1e375	-0.02757428
120	0x3d8fdfa0	0.07025075
121	0xbd068d22	-0.03284944
122	0x3d93ca83	0.072163604
123	0x3cbb383c	0.022853963
124	0xbcad66d5	-0.021167198
125	0xbda30dd9	-0.079616256
126	0xbd85299d	-0.06502078
127	0x3c611f8a	0.01374043
128	0x3e0576de	0.13033625
129	0x3e008900	0.12552261
130	0x3e0e47a4	0.13894516
131	0x3d8d1f89	0.068907805
132	0x3cbc1ccb	0.022962948
133	0xbc551a61	-0.0130067775
134	0xbd1634d0	-0.03667146
135	0x3e08deb7	0.13366209
136	0xbc9c86c7	-0.019107236
137	0xbcb02bbd	-0.021505231
138	0x3da26077	0.079285555
139	0xbd54b5eb	-0.051931303
140	0x3e4b9279	0.19880094
141	0x3e27f3c2	0.1640158
142	0xbb96a4f7	-0.004597302
143	0x3d24283a	0.040077426
144	0xbda79991	-0.08183587
145	0xbb84a2b9	-0.0040477184
146	0x3d5c231e	0.053744428
147	0x3e22ecd6	0.15910658
148	0x3d240080	0.04003954
149	0x3cc89217	0.024483724
150	0x3d2c4385	0.04205658
151	0x3bfdca1b	0.00774504
152	0x3deb54d8	0.11490792
153	0xbe22285b	-0.15835707
154	0xbe379ce7	-0.17930947
155	0x3ca8468c	0.020541452
156	0x3d78d8c8	0.060753614
157	0x3d2f487a	0.04279373
158	0x3d72f116	0.05931195
159	0xbdd5da7c	-0.10442063
160	0xbe16a9d1	-0.14713217
161	0x3d536ffb	0.051620465
162	0x3cc7ecf5	0.024404982
163	0x3d68547b	0.05672119
164	0x3e066e25	0.13127954
165	0xbcfb4e66	-0.030677032
166	0x3d5e2c54	0.054241493
167	0xbd17d520	-0.037068486
168	0x3c87c1a7	0.016571833
169	0xbdc427ea	-0.095779255
170	0xbdd85f0c	-0.10565004
171	0x3e311a5d	0.17295213
172	0xbd030934	-0.0319912
173	0x3ccd706e	0.025078025
174	0x3cde7b88	0.027158514
175	0xbac79d1e	-0.001522932
176	0x3c131928	0.008978166
177	0xbbd91442	-0.0066247294
178	0x3e24adfa	0.16081992
179	0xbd7e9a81	-0.062159065
180	0xbd6534bd	-0.0559585
181	0xbd2dd85e	-0.042442672
182	0x3d12d6ff	0.035849568
183	0xbd6f121a	-0.058366872
184	0xbd69870d	-0.05701356
185	0xbded8dad	-0.11599288
186	0x3d93b6ad	0.07212577
187	0x3d1a733c	0.037707552
188	0x3daa5710	0.08317387
189	0xbd9728a3	-0.07380798
190	0xbd82f0b9	-0.063935705
191	0xbd604844	-0.054756418
192	0x3d58d92f	0.052941497
193	0xbd36e3e0	-0.044650912
194	0xbe037ad3	-0.12839822
195	0x3c9e348e	0.01931217
196	0xbdf13405	-0.117775
197	0x3d60d85b	0.054893833
198	0xbd544607	-0.051824596
199	0xbce48a69	-0.02789803
200	0xbd80c8c4	-0.06288293
201	0x3cb16ba6	0.021657776
202	0x3dd8d72f	0.10587918
203	0x3d1e2dc1	0.038617853
204	0xbd9995e3	-0.07499292
205	0x3c58c3f8	0.013230316
206	0xbd11adb0	-0.035566032
207	0xbbbd0020	-0.005767837
208	0xbd8fa4aa	-0.07013829
209	0xbe511e86	-0.204218
210	0x3d429946	0.047509454
211	0x3df7a4b5	0.12091962
212	0xbd5099a6	-0.05092778
213	0xbd253542	-0.040333994
214	0x3d977b9b	0.07396623
215	0x3ea09ac9	0.31368092
216	0x3d65f9b9	0.056146357
217	0x3d438210	0.04773146
218	0xbca8e023	-0.02061469
219	0xbd70bc04	-0.058773056
220	0x3d9330c5	0.071870364
221	0x3da39324	0.07987049
222	0xbe4e5ea6	-0.20153293
223	0xbda6cd17	-0.081445865
224	0x3c4c6a11	0.01247646
225	0x3e2dd10f	0.16974281
226	0xbc910ea5	-0.017707178
227	0x3d183b47	0.037165906
228	0xbdb1b592	-0.0867721
229	0x3cf6c02a	0.030120928
230	0x3cefd89f	0.029278098
231	0xbddd6a89	-0.108113356
232	0xbd2f4d0b	-0.042798083
233	0x3d0065dd	0.031347144
234	0x3bc9c29f	0.006157234
235	0xbdd277bf	-0.10276746
236	0xbca1b92f	-0.019741623
237	0x3acda42d	0.0015689187
238	0xbd2c5ea5	-0.042082448
239	0x3d105450	0.035236657
240	0xbd5a91de	-0.053361766
241	0xbc9d05b6	-0.019167762
242	0x3d5f3abf	0.054499384
243	0x3bf9f7f8	0.007628437
244	0xbd290cd2	-0.041271992
245	0xbe256190	-0.16150498
246	0xbc656cdd	-0.014003006
247	0x3d8d60f9	0.06903262
248	0xbe469020	-0.19390917
249	0xbd080010	-0.033203185
250	0xbc91f0d7	-0.017815037
251	0xbd841ff2	-0.064514056
252	0x3d0f9c14	0.035060957
253	0xbd5e5d0d	-0.05428796
254	0x3b7e707b	0.0038824368
255	0xbdd8c5b5	-0.105845846

network_body.linear_encoder.seq_layers.2.bias f4 [128]
0	0xba72f983	-0.00092687475
1	0xba7ef095	-0.00097251806
2	0xbb00cfa9	-0.0019655025
3	0xb990136b	-0.00027480288
4	0x3a2ffcfb	0.0006713417
5	0xbbebb036	-0.007192637
6	0xbb312467	-0.0027029754
7	0xbbc829c8	-0.0061084963
8	0x3c576ac1	0.013148011
9	0x3b027284	0.0019904682
10	0xbbfe917a	-0.007768807
11	0x3ab28c30	0.0013622101
12	0xbbb3f620	-0.005491987
13	0xbb368389	-0.0027849397
14	0xbb436488	-0.002981456
15	0xb87dcaef	-6.0508897e-05
16	0x3bef2378	0.0072979294
17	0x3b59ee70	0.0033253692
18	0xbb5d1d15	-0.0033739258
19	0xbb74842c	-0.0037310226
20	0x3ac369d6	0.0014908861
21	0xb93a5c8c	-0.00017772819
22	0xbacfcee8	-0.001585451
23	0x3a86a0aa	0.001027127
24	0xbb3c7544	-0.002875642
25	0xb959a2d0	-0.00020755385
26	0xbb863d68	-0.0040966757
27	0xbaf7a85c	-0.001889478
28	0x3bbfa12a	0.0058480697
29	0x39cd4feb	0.0003916019
30	0xb9fc531a	-0.000481271
31	0x3b3acc17	0.0028502995
32	0x3b53c7f9	0.0032315238
33	0xba6a05e8	-0.00089272717
34	0xbb344bef	-0.002751108
35	0x3cb6e99d	0.022328192
36	0xba8b287d	-0.0010616925
37	0xbbabdd12	-0.0052448595
38	0xbb02be39	-0.0019949807
39	0xbc7421bb	-0.01490062
40	0x3976dd9e	0.00023542947
41	0xbb429372	-0.0029689935
42	0xbc103385	-0.008801346
43	0x392d5704	0.00016530982
44	0xbb27d0fb	-0.002560674
45	0x3baff4e2	0.0053697685
46	0x3ab845c4	0.0014058878
47	0xba5ff6a4	-0.0008543527
48	0xbb36f279	-0.002791552
49	0xbadac3a7	-0.0016690389
50	0x3c2b7e01	0.010467053
51	0x3ab04e1f	0.0013451016
52	0x3ba05215	0.0048925974
53	0x3ba58df5	0.005052323
54	0x392f674c	0.00016727782
55	0xbb341162	-0.0027476181
56	0xbb433e11	-0.0029791633
57	0x3c2908ec	0.010317069
58	0xbc1830b3	-0.009288955
59	0xbb6a7846	-0.0035777255
60	0x3bec7cd8	0.007217031
61	0x3b8c6ce2	0.004285441
62	0x3b5aaaa6	0.0033365875
63	0x3c9c7f74	0.019103743
64	0xbb6786ed	-0.0035328225
65	0xbbbefc84	-0.005828442
66	0x3a3786a3	0.00070009584
67	0x3b9d04a2	0.004791812
68	0xbb0a839b	-0.0021135572
69	0xbb923abe	-0.004462569
70	0xbacadd5f	-0.0015477351
71	0x3ad8b923	0.0016534667
72	0xbc31e70e	-0.01085831
73	0x39d5a0ff	0.00040746477
74	0x3c11a5d1	0.008889631
75	0x3b92df0a	0.0044821547
76	0x3bcbd424	0.0062203575
77	0x3ab6177b	0.0013892496
78	0xbc2214bc	-0.009892639
79	0x3be7ac4d	0.0070701004
80	0x3b04027a	0.0020143078
81	0x3bfc5396	0.007700394
82	0xbb5a0219	-0.003326541
83	0xbbbe1467	-0.005800772
84	0x3b3b2bf3	0.0028560131
85	0x3b93113e	0.0044881394
86	0x3c31207c	0.010810968
87	0x3b6bb002	0.0035963063
88	0x3abdcc4f	0.0014480444
89	0xb967e275	-0.00022114239
90	0x3b5e57a2	0.0033926745
91	0x3b7a5468	0.0038197283
92	0xbbb4814a	-0.0055085765
93	0x3be5ff04	0.0070189256
94	0x3b9b93e7	0.004747856
95	0xbb78d9a7	-0.0037971528
96	0x3c0430c1	0.008068264
97	0xbb0d1fab	-0.0021533768
98	0x3bd639d7	0.0065376568
99	0x3aefa481	0.0018283279
100	0xbb893700	-0.0041874647
101	0xbbd892f8	-0.006609317
102	0xbb4f8a73	-0.0031668216
103	0x3b183eac	0.0023230715
104	0x3a1cd44c	0.00059825624
105	0x3be9f56a	0.0071398513
106	0xbb5da5e3	-0.00338208
107	0xbc46d64b	-0.012136052
108	0x3b166d87	0.0022953467
109	0xbaea4600	-0.0017873645
110	0x3b8f2b46	0.0043691723
111	0x3cb8aad1	0.02254239
112	0xba48ddbc	-0.00076624355
113	0x3b68b302	0.0035507088
114	0xba24e4ff	-0.00062902266
115	0x3a7f4afa	0.00097386504
116	0xbb8b1d65	-0.0042454475
117	0x3b9605ab	0.0045783124
118	0x3bb95278	0.005655583
119	0x3c136fb0	0.008998796
120	0x3aa818a8	0.0012824731
121	0xbb0e5212	-0.0021716398
122	0x3bbe4305	0.005806329
123	0xbb34d614	-0.002759342
124	0xbaba51aa	-0.0014215012
125	0xbb723435	-0.0036957387
126	0xb9ef2812	-0.00045615487
127	0xbb79fa28	-0.003814349

action_model._continuous_distribution.log_sigma f4 [1, 2]
0	0x3c1bd7e1	0.009511919
1	0x3b896624	0.0041930843

action_model._continuous_distribution.mu.weight f4 [2, 128]
0	0xbb2e68db	-0.0026612792
1	0x3c2c12fd	0.010502574
2	0x3b10f6f8	0.002211986
3	0x3c3edc80	0.011649251
4	0x3ca8334a	0.020532269
5	0x3cc111ea	0.023568112
6	0xb9dc2006	-0.0004198553
7	0x3be5a326	0.007007974
8	0xbd464a8a	-0.04841093
9	0xbb909a6c	-0.00441294
10	0x3cd02a10	0.025410682
11	0x3bec8e02	0.007219077
12	0x3c794bd3	0.015215832
13	0x3cf70e63	0.030158227
14	0x3a44350a	0.000748471
15	0x3d0b51f5	0.034013707
16	0x3ce71564	0.028208442
17	0xbc9bb410	-0.019006759
18	0x3b817d40	0.0039516985
19	0x3d2f981e	0.04286968
20	0xbc2fe7a8	-0.0107363835
21	0x3d02e531	0.031956855
22	0x3c713010	0.014720932
23	0x3cbd6a70	0.023122042
24	0xbb93a3ef	-0.0045056264
25	0x3bcfda60	0.006343171
26	0x3ca6782d	0.020320976
27	0xbb8ebdce	-0.0043561226
28	0xbd0e9b23	-0.03481592
29	0xbbfccf66	-0.0077151535
30	0x3c8a38c1	0.016872765
31	0x3ce28177	0.027649624
32	0xbc379d0e	-0.011206878
33	0xbbec34ab	-0.007208427
34	0xbc16daa1	-0.009207399
35	0xbce82acd	-0.028340722
36	0x3be9783a	0.007124928
37	0x3c2e42dd	0.010636059
38	0x3c322481	0.010872961
39	0x3b82042c	0.0039677825
40	0xba0ce20a	-0.00053742586
41	0x3c9bdcd6	0.019026201
42	0xbc7b5de1	-0.015342207
43	0xbc3bf012	-0.011470811
44	0xbc75a568	-0.014993049
45	0xbc8a235e	-0.016862568
46	0x3d25cb63	0.040477168
47	0x3c4dc829	0.012559929
48	0x3cf48f80	0.029853582
49	0x3bd1c2ab	0.00640138
50	0xbd00677d	-0.031348694
51	0x3c0cf054	0.008602221
52	0xba60215a	-0.00085498916
53	0x3d00dee4	0.031462565
54	0x3c086a04	0.008326057
55	0x3c849874	0.016185977
56	0x3cf86b23	0.030324524
57	0xbc1d7809	-0.009611138
58	0x3c41444e	0.01179607
59	0x3c7ea44a	0.015542099
60	0xbcb0cace	-0.02158108
61	0xbc8a1c9e	-0.016859349
62	0x3d253a84	0.040339008
63	0xbc02ee50	-0.007991388
64	0x3c246792	0.010034459
65	0x39f3f8de	0.00046533992
66	0xbc9efe0e	-0.019408252
67	0xbcd85968	-0.02640982
68	0x3c8ca398	0.017167851
69	0x3c8d3be7	0.017240478
70	0x3aad3250	0.0013213847
71	0x3bf1adf5	0.0073754736
72	0x3c89bfda	0.016815115
73	0xbb738a8e	-0.0037161442
74	0x3c5d5e28	0.013511218
75	0x3be4e37f	0.0069851275
76	0x3b8a46c1	0.0042198603
77	0xbade0e7f	-0.0016941576
78	0xbab4de28	-0.0013799118
79	0x3aa54252	0.0012608266
80	0xbc089e6b	-0.008338551
81	0xbcef41f1	-0.029206248
82	0x3b67965b	0.0035337422
83	0x3d1836f6	0.03716179
84	0xbc93ac74	-0.018026568
85	0x3ca9af48	0.020713463
86	0xbd23e5fd	-0.040014256
87	0x3b060022	0.0020446857
88	0xbc8108be	-0.015751239
89	0x3b1c1a98	0.0023819562
90	0xbbb47d31	-0.005508088
91	0xbcb1edfa	-0.021719921
92	0x3bc18311	0.005905517
93	0xbbddde97	-0.0067709195
94	0xbcaa3ca4	-0.020780869
95	0x3add51e6	0.001688537
96	0xbc974ddf	-0.018469749
97	0x39e5ff02	0.0004386828
98	0xbcb1d998	-0.021710202
99	0x3ad47862	0.0016210193
100	0x3ca14677	0.01968692
101	0x3cb4dd1c	0.02207809
102	0x3c0de735	0.008661081
103	0x3b99b752	0.004691043
104	0x3ccc6e56	0.024954956
105	0xbd0f181c	-0.034935102
106	0x3bfc49e3	0.0076992377
107	0x3ca6e989	0.02037503
108	0xbc1c944a	-0.009556839
109	0xbabdcced	-0.0014480628
110	0xbc7e3b65	-0.01551709
111	0x3c94013f	0.018067
112	0x3baf3dd4	0.0053479467
113	0xbc725b2a	-0.014792243
114	0x3bf947f5	0.007607455
115	0x3cf5fb72	0.030027125
116	0x3bc8c004	0.0061264057
117	0xbc9ab2dc	-0.018884115
118	0x3d00c157	0.031434383
119	0xbd0ed8b2	-0.034874626
120	0xbce099e6	-0.027417134
121	0x3c255178	0.010090224
122	0xbd03f917	-0.032219972
123	0x3d203f12	0.03912265
124	0xbc81df83	-0.015853649
125	0x3c840e0f	0.016119985
126	0xb90c822e	-0.00013399936
127	0x3d152af3	0.036417913
128	0xbbcc4347	-0.006233606
129	0x3cf20e9a	0.029547978
130	0x3d17e652	0.037084885
131	0x3ccfe7fa	0.02537917
132	0x3d0e0e46	0.03468158
133	0x3bbb9fa9	0.00572582
134	0x3c6c87d0	0.014436677
135	0xbb9b6ed8	-0.004743438
136	0xbb30013c	-0.0026856204
137	0xbcee6df5	-0.029105166
138	0xbc1d8178	-0.009613387
139	0x3c97c6b9	0.018527376
140	0x3c9bf45a	0.019037414
141	0xbbdbe3bc	-0.0067104977
142	0x3c0a1a79	0.008429163
143	0xbc76960a	-0.015050421
144	0x3c86b29a	0.016442586
145	0x3c66d88d	0.014089716
146	0x3b90476b	0.004403045
147	0x3cac4c6e	0.021032538
148	0xbb39e601	-0.0028365853
149	0x3a440234	0.0007477135
150	0x3be8e7d1	0.007107713
151	0xbc564d30	-0.013079926
152	0x3a598078	0.00082970364
153	0x3cb443d6	0.022005003
154	0xbc7ac478	-0.015305631
155	0x3c505ba0	0.012717158
156	0x3c30a7db	0.010782207
157	0x3c034342	0.008011641
158	0x3c96ace2	0.018392984
159	0xbb35e138	-0.002775265
160	0x3c67667e	0.014123557
161	0xbc0e310b	-0.008678685
162	0x3c9d731f	0.019219933
163	0x3cad9a68	0.02119179
164	0xbc343cf7	-0.011000863
165	0x3bc40a5e	0.005982681
166	0x3c6e42dc	0.014542308
167	0xbbb1aa84	-0.0054219384
168	0xbc3d7981	-0.011564613
169	0x3c6e94ed	0.014561874
170	0x3bd371f8	0.006452795
171	0x3c416cc1	0.011805714
172	0xbc9e65d7	-0.01933567
173	0xbcafb5d4	-0.021449007
174	0x3c8b3bab	0.016996225
175	0x3c8dfc1c	0.01733213
176	0x3cfb5900	0.030682087
177	0xbc9d05e4	-0.019167848
178	0x3d19ca89	0.03754667
179	0x3cfbde4d	0.03074565
180	0x3c3ad3e0	0.011403054
181	0x3c39f93d	0.011350927
182	0xbc89ba5f	-0.016812501
183	0x3cfcc48c	0.03085544
184	0x3c4282d6	0.011872014
185	0x3c971784	0.01844383
186	0xbc382dc6	-0.011241382
187	0xba357493	-0.0006921973
188	0x3cd9b87c	0.026577227
189	0x39ddc15c	0.0004229647
190	0x3b57cc43	0.0032928146
191	0x3d33ecd9	0.043927047
192	0x3ca1e750	0.019763619
193	0xbd01c8ae	-0.031685524
194	0xbcb4bb53	-0.02206198
195	0xbbb4d0f9	-0.0055180755
196	0xbcd00805	-0.025394449
197	0x3c232818	0.00995829
198	0xbcb1823c	-0.021668546
199	0x3c89637d	0.016771073
200	0xbbbbee53	-0.0057351976
201	0xbb49cb9e	-0.0030791531
202	0x3aff276e	0.0019466707
203	0x3cbe497d	0.023228401
204	0x3c9e32c3	0.019311314
205	0x3d370536	0.044682704
206	0x3bb1d9e5	0.0054275864
207	0xbca0c187	-0.019623531
208	0xbc5a9132	-0.013340281
209	0x3d03b356	0.03215345
210	0xbc8909d1	-0.016728314
211	0xbba54371	-0.00504344
212	0xbba86770	-0.005139284
213	0xbd1c7232	-0.038194843
214	0x3cd13769	0.025539117
215	0xbc944b86	-0.018102419
216	0xbc714e72	-0.0147281755
217	0x3ce21358	0.027597114
218	0xbcb1d51b	-0.021708062
219	0xbb514b42	-0.0031935726
220	0x3b8d9951	0.0043212553
221	0xbc416799	-0.011804485
222	0x3c0da37b	0.008644934
223	0xbbb63c0b	-0.005561357
224	0x3be5233b	0.006992725
225	0x3c80fa5b	0.015744379
226	0x3c96cc0a	0.01840784
227	0xbc48c32e	-0.012253566
228	0x3ac2ce5e	0.0014862528
229	0x3ad3a892	0.001614826
230	0x39d37ae4	0.00040336617
231	0x3d23258e	0.039830737
232	0x3c0786b3	0.008271861
233	0x3c931260	0.017953098
234	0x3d2feffd	0.04295348
235	0xbc8da143	-0.01728881
236	0x3c92b287	0.017907394
237	0xbbf1efe1	-0.007383332
238	0xbbf0203c	-0.0073280614
239	0x3c34efc3	0.011043492
240	0xbce3c204	-0.027802475
241	0xbb42496b	-0.0029645811
242	0xbcf3c1c4	-0.02975548
243	0xbced5450	-0.028970867
244	0x3c9becd6	0.01903383
245	0x3d111e6b	0.0354294
246	0xbc51fffe	-0.012817381
247	0xbbdfc1d9	-0.0068285284
248	0xbc83c8e9	-0.016087012
249	0x3c86bd87	0.016447796
250	0x3beb41f4	0.007179493
251	0xba2ec6de	-0.0006667207
252	0xbce8ba48	-0.028409138
253	0x3cb59945	0.022167811
254	0x3c9e28fc	0.019306652
255	0xbcbedaae	-0.023297634

action_model._continuous_distribution.mu.bias f4 [2]
0	0xbb8ca7e8	-0.004292477
1	0xbaa7d51e	-0.0012804603
