UnityMLTutorial_complete/results/Test3/MoveToGoal/MoveToGoal-60951.pt (torch, 438623 bytes, 36 tensors)

network_body.linear_encoder.seq_layers.0.weight f4 [128, 6]
00000000: 90f2 483e cf5a fcbd ac8a 3b3d 7438 23bc
00000010: 01a2 e03e f98e 2ebf b714 97bd ca38 f0be
00000020: fba5 45be a072 273e fb10 453e 1b2f 0c3f
00000030: 90c5 0b3f e412 07be 2541 5cbf eb46 cdbe
00000040: 6357 ba3d 34b7 783e c989 5e3c 4c20 b7be
00000050: ed25 a73e 2cb3 873b 7fe6 8dbe bf3f e5bd
00000060: 4140 56be b62b efbe be61 aebe bdad fdbd
00000070: f6cd c43e e5bd a4bd bb99 73bd 42ac 083e
00000080: 8f1c f3bd a6b9 6d3e 2cbb 8fbe 408e 21bf
00000090: 8383 d93e 53a8 09bf a6a8 483e ba64 a4bd
000000a0: 447c e7be 1aeb e13d 3ff8 b8be a03d c7bd
000000b0: 0cbc 8e3e 0144 d43e 0f67 c0be 5bcc 5a3e
000000c0: 707f 8c3e fd81 5bbf 26c3 41be 98fe d1be
000000d0: 7139 b2be 667f 9d3e bfa0 2cbf a649 80be
000000e0: c633 90be 202b 9bbe e361 a2be ce7e c03d
000000f0: fccc 5ebe 635c c23d 2535 633e a4bc e2be
00000100: 2334 4e3e 0b3c 703e 3b8f 3abe 876d 12be
00000110: 8056 f2bc 4bc3 1abe ecac 65be f884 883f
00000120: b8f3 193e e0c8 6abe d4aa 763e aa30 bf3e
00000130: 9419 9c3e 4f84 db3d dc04 37bd d39b a43e
00000140: 44d5 b0be f264 2fbf 0a52 a63e fedf 183f
00000150: 4267 0a3f c52d 9fbd 773f ff3e 4ec8 2abf
00000160: 510e 42be 3b5e 1dbd 89e8 083f 1651 e83c
00000170: fad3 20bd 2cbf 73bf 4540 973d 98b3 d6bd
00000180: 5f79 463e 7b0c a9be 39bb 10bc c2b0 5dbf
00000190: c1a0 edbe a7a4 4fbe fa13 a5be c33c c8be
000001a0: 176d 40be cc6e 28bf 396a ce3d 7056 a6be
000001b0: 498c 3ebe 3d17 813e 34d5 29bf 2a6c dc3e
000001c0: 0383 a63e d65c 253e 5a8b b0bc f143 cfbe
000001d0: 3884 11bf 97f9 b73d 5683 b5be 7a0b 413d
000001e0: 7267 bc3e 67a1 4fbe a506 c4be 910d 833c
000001f0: 0dac 253f a78f c1bb fa65 56be 78a8 753e
00000200: 52ac 123f 8964 a4be 84a4 14bf 7145 1abe
00000210: 0062 44bd 0bb6 af3e 5c0c 043f a889 12be
00000220: bfbf d7bd dac5 67bf 7b92 293f f5ba d33c
00000230: baee 1abf e665 6a3c b347 173e c765 cabe
00000240: 5aaf d839 ad0c 7e3f a7f8 dabc 6a83 7c3e
00000250: 0847 aa3d 06a4 b2be 9966 9a3e fc50 23bd
00000260: 662e a9bd 54d3 7a3e 63f9 c6bd ac50 a2be
00000270: 368c 0dbe 5e0f f53c 8d89 1abd 82b9 e4be
00000280: 0a7c 86be daee b03d b6e5 103f 5453 173f
00000290: 08e3 e43e e704 293f 22c1 523f 7d44 853e
000002a0: 1861 66be fa2a 163f 15b9 263e caf6 c03d
000002b0: 4435 66be af8f f2bd 04f1 413e a51a 8c3c
000002c0: 9178 e93e b429 bd3e 09c8 52bb 6e73 b13d
000002d0: b7f1 4abe 3938 e63d 0871 3b3f 8f5f 853e
000002e0: 8022 6c3f 5493 c43d ac2b 173f 72ac 34be
000002f0: 0e00 7b3e a19e 22be 382c f03c e76d 213f
00000300: e99b 0abe 4212 923e 988d 13be 564d bebe
00000310: 09db 993e a13e c1bd 84e2 28bf b313 bb3e
00000320: 411e 0bbf 71b7 413e 9484 243e d3aa a1be
00000330: e251 363e 5408 0abe 6aef 24bf 8663 9dbe
00000340: d269 0b3f 6343 1d3e ed77 7abe 2eba d73e
00000350: 96e5 453f cd45 8ebd c4c1 19bb 10ab eb3b
00000360: ea6e 3dbe 4f29 c23e fe93 d03e 0bd5 2bbf
00000370: c341 0f3e 3491 30bf 7031 fabc adf8 68be
00000380: bb2b 063e 5585 153e 39ce 083e 7547 303e
00000390: 2ef0 82be 5711 993e c410 30be fc9c 553f
000003a0: 4291 393e f62a e0bd 14ac 9b3e 578b a83c
000003b0: 829a 083f 88e1 023f ad1f 28be 56d4 6dbe
000003c0: b044 bebe 4da0 e23e 7128 ad3e 790b 953f
000003d0: 5225 bcbe 5544 e3be c51d ef3e 89f0 503e
000003e0: 2e49 b6be 47db 2b3f eca3 b7be d394 133f
000003f0: f878 bc3c b70d 403f 97df 8f3e da6e 41be
0.1962378 -0.12322008 0.045786545 -0.00996219 0.438736 -0.6818691 -0.07376998 -0.46918327
-0.19301598 0.1635232 0.19244759 0.5475938 0.5459833 -0.131908 -0.860369 -0.4009317
0.09098699 0.24288636 0.013582655 -0.35766828 0.32646123 0.004141232 -0.27714917 -0.11193799
-0.20922948 -0.46713036 -0.34058946 -0.123866536 0.38438386 -0.08044032 -0.05947278 0.13346961
-0.118706815 0.2321535 -0.28072488 -0.6310768 0.42483148 -0.5377247 0.19595584 -0.080270246
-0.45211995 0.1103117 -0.36126897 -0.09728551 0.27877843 0.41458133 -0.37578627 0.21367018
0.27440977 -0.8574522 -0.189221 -0.41014552 -0.3480945 0.3076126 -0.6743278 -0.2505619
-0.281645 -0.3030634 -0.31715307 0.09399186 -0.21757883 0.094902776 0.22188242 -0.44284546
0.20137076 0.23460405 -0.182187 -0.14299594 -0.029582262 -0.15113561 -0.22429246 1.0665579
0.15034378 -0.2292819 0.24088603 0.37341815 0.30488265 0.10718595 -0.04468237 0.32150134
-0.3453771 -0.68513405 0.32484466 0.59716785 0.5406381 -0.07772402 0.49853107 -0.6671189
-0.18950774 -0.038419943 0.5347982 0.028358977 -0.039264657 -0.9521358 0.07385305 -0.104834735
0.19382237 -0.33017334 -0.0088337 -0.86597836 -0.46411708 -0.20277654 -0.32241803 -0.39108858
-0.18791614 -0.6579406 0.10078854 -0.32487822 -0.18608202 0.25213042 -0.6634095 0.43051273
0.3252183 0.16148695 -0.021550823 -0.40481523 -0.56842375 0.08983152 -0.35451764 0.047130086
0.36797673 -0.20276414 -0.3828632 0.01599768 0.64715654 -0.0059070173 -0.20937338 0.23990047
0.5729419 -0.32107952 -0.5806353 -0.15065552 -0.047945023 0.34318575 0.5158136 -0.14310324
-0.105346195 -0.9053627 0.66239136 0.025845984 -0.6052052 0.014306521 0.14773445 -0.39530775
0.00041329378 0.9923809 -0.026729895 0.24659505 0.083143294 -0.34890765 0.301564 -0.039872155
-0.08260803 0.24494678 -0.097155355 -0.31702173 -0.13823017 0.029914554 -0.037728835 -0.4467278
-0.2626651 0.08639307 0.5660051 0.59111524 0.4470446 0.66023105 0.8232595 0.26028815
-0.22497976 0.5865933 0.1628154 0.09422071 -0.22481257 -0.11843812 0.18939596 0.017102549
0.45599797 0.3694588 -0.0032162687 0.086645946 -0.1981877 0.11241192 0.73219347 0.26049468
0.9224014 0.09598413 0.59051013 -0.17643908 0.2451174 -0.15880825 0.02931796 0.6305832
-0.13536038 0.28529555 -0.14409482 -0.37168378 0.30049923 -0.09435774 -0.65970635 0.36538467
-0.5434304 0.18917634 0.160662 -0.3157564 0.17804673 -0.1347974 -0.64427817 -0.30739993
0.54458344 0.15357737 -0.2445981 0.4213423 0.77303445 -0.06946907 -0.002346144 0.007192023
-0.18499342 0.3792214 0.4073791 -0.6712195 0.1398993 -0.6897156 -0.030541152 -0.22751112
0.1310262 0.14601643 0.13359918 0.17214759 -0.25573868 0.29896042 -0.17193896 0.83442664
0.18121818 -0.10945694 0.30404723 0.020574255 0.5336076 0.51125383 -0.16418333 -0.23225531
-0.3716178 0.44262925 0.33819917 1.1644126 -0.36747223 -0.4438807 0.467024 0.20404257
-0.35602707 0.67131466 -0.3586725 0.5764896 0.023006901 0.7502093 0.28100273 -0.18889943

network_body.linear_encoder.seq_layers.0.bias f4 [128]
00000000: 15dd d13b 4049 013c 3d1b 56bc f1e0 0bbc
00000010: 8564 c33a 5e1b dbb9 a40c 94ba 66c2 dab8
00000020: 3105 703c f196 13bb ecc3 1a3c a6ee ef3b
00000030: 42c6 ca3b c3c3 e5bb e13f e33b 9222 7bbb
00000040: c8ee 9c3a c654 363a d637 1ebb d7b4 c83b
00000050: 597b 293c 3a2b f53b 7c06 1a3b c703 b2bb
00000060: aeab 853b e62b f8bb fca2 1cbc e34b 00bc
00000070: 27d9 51ba fa27 033c e37e 6b3a 03dc 89bb
00000080: f937 0b3c cc47 cf3a 3d28 a13c 31b1 363c
00000090: 4042 60bc 2e05 ce3b 9f70 3f3b 38e5 06bc
000000a0: 47a2 19bc b39f e3ba bbee 013c 3e01 c23b
000000b0: 372a b73b ae15 ae3b 7747 f4ba 1828 0fbc
000000c0: 6053 4c3a 5628 17b9 70c3 b93b 7e0a 253b
000000d0: 8593 ad3b 1315 1ebc 11ae eb3b b187 9fbb
000000e0: 15bf 253a 0ed5 053c bf9e 2ebc 312d b23b
000000f0: 2cac c23b dab3 c03b 7e39 c23b c3cd d83b
00000100: 2cca fabb e6a5 d33a a58f f53b 611b 873b
00000110: 1fab 313b 8432 e9bb a17d cabb f0f1 f33a
00000120: 2377 153c 1c7c 9e3b 7761 783b b0cf d33a
00000130: 1bcb 05bc f520 9fbb 06a9 32bc 3359 f2bb
00000140: 9e4d 233c d821 9fbb 2c92 c53b 81e8 f7bb
00000150: 6537 583c ea17 c83b 8a5b 4b3b 59a0 fa3b
00000160: eaf5 483a 105f 02bc 0c1f 11bc 4c12 1b3c
00000170: cf16 f73a 736b 173c 856a f6bb 2923 a93a
00000180: 9d98 27bc 4007 193c 478a 5cba 6704 cf3b
00000190: 5f63 8339 2868 f1bb 6abd 29bc c47d fa3b
000001a0: 4839 eabb 147d c53b 3513 2b3c aa44 453c
000001b0: 53a3 2fbb 1938 89bb db11 44ba 6546 e53b
000001c0: 09af e53b bab2 0fbc 599c 7c3a 8157 3f3c
000001d0: 7db2 86bb 512b 68bb 4e54 e83b 30e1 93bb
000001e0: fa43 db3b 2aff cdbb a61f cbbb 93a9 263c
000001f0: 4630 a63b 5ec6 f6bb 68b6 253c 6bd3 8437
0.006404529 0.007890999 -0.013068018 -0.008537517 0.0014907276 -0.00041791325 -0.0011295271 -0.000104312596
0.014649675 -0.0022520388 0.0094461255 0.0073221503 0.006188185 -0.007011862 0.006935105 -0.0038320166
0.0011973018 0.0006955381 -0.0024142168 0.0061250734 0.01034435 0.0074819596 0.00235024 -0.005432579
0.0040793037 -0.0075735925 -0.009560343 -0.007830593 -0.00080050755 0.008005137 0.0008983446 -0.0042071356
0.008497232 0.0015814244 0.019672507 0.011150644 -0.01368767 0.0062872386 0.0029211415 -0.008233361
-0.009377069 -0.001736632 0.007930453 0.0059205582 0.005589749 0.005312643 -0.0018637021 -0.008737586
0.0007794406 -0.00014415508 0.00566905 0.0025183256 0.0052971267 -0.009648579 0.007192381 -0.0048684706
0.0006322724 0.008168472 -0.010657965 0.005437516 0.0059409346 0.005880815 0.0059272638 0.0066163256
-0.0076534953 0.0016147464 0.0074939304 0.004123137 0.0027110053 -0.0071166176 -0.006179527 0.0018611532
0.009122643 0.0048365723 0.003789989 0.0016159918 -0.0081661 -0.0048562237 -0.010904556 -0.0073958873
0.009967236 -0.0048563294 0.006029388 -0.0075655584 0.013196801 0.0061063664 0.0031029903 0.0076485095
0.00076660386 -0.007957235 -0.0088575 0.0094648115 0.0018851402 0.0092419265 -0.0075200223 0.0012904155
-0.010229257 0.009340107 -0.0008412939 0.0063176635 0.00025060304 -0.0073671527 -0.010360101 0.007644387
-0.0071479417 0.0060268734 0.010441591 0.012040297 -0.002680023 -0.0041875956 -0.00074794673 0.006996917
0.007009391 -0.008770639 0.0009636335 0.011678577 -0.004110633 -0.003542621 0.007090128 -0.0045129284
0.006691453 -0.0062865214 -0.006198841 0.010172266 0.0050716726 -0.0075309714 0.01011429 1.5834075e-05

network_body.linear_encoder.seq_layers.2.weight f4 [128, 128]
00000000: 2acb 43be c4a8 203c 3094 98bd 67c2 7eba
00000010: 4134 a7bd 982c 73bc c926 673d b669 793d
00000020: 288c 763d 4cce fd3d 4fc9 ad3d 676d d83d
00000030: 45ed 84bd e1a9 8ebc a936 5d3d 287d 83bd
00000040: 0953 ce3d 0aa1 2d3d 780e 1abd 7040 553d
00000050: d2f4 1d3d c61d 89bd 3844 ae3d 3e35 4ebd
00000060: 8a8c 81bd 3347 aa3c 347d 27bd 7fec 42bd
00000070: 1079 4ebd a0da cd3d f0ad c83d 9cb2 503d
00000080: 1fd9 61bd d477 fe3d 24d4 c93d ea2e 15be
00000090: c86f 2bbd 83f3 cb3d b311 b2bc 6ef6 2dbe
000000a0: 2f50 f53d 7e84 a93d 50f6 dbbc 0d3b 3a3e
000000b0: 94b9 e2bd 2ae8 013e 302e c9b6 428b 63bc
000000c0: 376d 4f3d 7fed 21bd 8f27 57be c425 afbd
000000d0: d8ce e0bc f8bd e5bd 267b 853d 4ff3 b53c
000000e0: 7a6e dcbd 1058 4b3c 7ae1 8ebd 7737 8dbc
000000f0: 61b9 2e3e cfe2 0abd 9673 b23d 9878 093e
00000100: 9184 913d e16b f5bd 3bdd 1e3e bb8f fc3d
00000110: 5c67 5dbd 91f0 c1bc f156 fb3b cef6 debd
00000120: 8cf3 8bbd 1f37 0abb b616 b2bd baa4 a4bd
00000130: 9a29 49bc 7203 213e bf18 043e 468a bebc
00000140: af27 063e 6370 8bbd 2995 cf3d be58 7f3b
00000150: ea48 eebc b411 94bd ed45 4c3d 562c fabc
00000160: d842 5a3d e81d a43c e103 123e 637f b93c
00000170: 613b c2bc 82e5 5e3d 30b3 1abe 7eb6 7e3c
00000180: 4378 3b3c 5b25 bc3d da13 bfbd 9ef2 00bd
00000190: 3678 3b3e f16c 2a3e 6ecb 00bd 6099 803c
000001a0: f0de 8b3d bcc4 41bd 74b3 a03b 3a9c fbbd
000001b0: dd9b 1a3e 59af d53c 9335 83bc b447 903d
000001c0: 9425 99bd 5570 15bd d56e eabd 5426 57bd
000001d0: fe79 51bc 267c bcbd 3a0b afbd 2244 84bd
000001e0: 4c73 cf3d b531 4a3d 81cf 3f3e 5aea c93b
000001f0: b216 4bbd 1533 15bc dc2d 2cbd 45ae f93c
00000200: e576 103d 4006 283d ac8e 163e 956f 9ebd
00000210: 965a 5fbd e713 593d 661b d83d 6735 99bc
00000220: 6269 75be 10f1 dabc b0c6 063d a0ae 5cbd
00000230: bb0c c3bd 3b27 e33d 1e9f 2dbd 0cb0 1fbe
00000240: 46e7 ccbd 71dc 18be b406 cebc 27fb 0dbc
00000250: 1c83 973d a7fd 1cbe a6e4 2a3d d43d 4cbc
00000260: 7278 39bd 49fd 0e3c 0ed3 a63c a000 94bb
00000270: 2e07 953d dd1b 0ebd 28b3 2a3e 0c97 7d3d
00000280: 3ea2 003e c0cc aa3d 9bb6 723e 6532 13bd
00000290: 6e73 403c ddb8 f9bd 7c50 bf3d 780f 96bd
000002a0: 6f1d 843d 2df5 cc3c 6c4f c93d 4c41 24bd
000002b0: ef4e 4ab9 a4a1 cdbc 0a99 1f3c 887a 1c3d
000002c0: 5480 ebbd 5bed 933d f878 b13c 07c5 5a3c
000002d0: 1b9f bebd 5cd9 193d 0cc7 833d 167d 78bd
000002e0: 70a0 763d 7171 bfbd 9fa6 e1bd 0d89 b03c
000002f0: d6f2 bcbd 00c7 02bd eb66 cabd 6380 b6bd
00000300: 3ee5 b0bc 0aa0 953d e904 f63d f203 083e
00000310: 4cce 213e 2271 14be 012b b4bd 786b 853d
00000320: c006 193d 782f ca3d 887e 94bc 0a76 1c3d
00000330: b70c bd3d e982 d1bc 79d8 23be 2ac1 63bd
00000340: 5452 7f3c bfa4 203d 28bb b03c 3e58 36bd
00000350: e3b0 e83d 6e40 ea3d aed3 7fbc 9203 36be
00000360: 35f6 30bd 509c 013e a9ab 92bd 643b 023e
00000370: 3b51 9d3d 905e e03d 56de 333e 39b8 1abe
00000380: 652c 0f3c 44df 073e 9936 aa3d 5eea 17bd
00000390: 9e05 94bd 07ac 71bd 8d06 74bd 0bab 7dbd
000003a0: dbcb 143c 6954 8a3d 618f b23c 6bb6 0b3d
000003b0: f42f 2c3d 8c48 adbc 67c9 1e3e cd46 413e
000003c0: e3a1 a9bc a338 d3bd 1f36 133e c651 3abd
000003d0: d7fe 2e3e 1f21 b3bc c40f 16bc eee5 2ebe
000003e0: 4801 f2bd 40a7 803d 3bc6 fd3d c1ea 95bd
000003f0: 8e09 acbd 5551 883c e348 8e3d 4048 fabc
-0.1912047 0.009805862 -0.074501395 -0.0009718299 -0.081642635 -0.014842175 0.056433473 0.06089183
0.060192257 0.12392864 0.08485662 0.10567742 -0.06490568 -0.017414989 0.054007206 -0.06420356
0.100744314 0.042389907 -0.037611455 0.052063406 0.038563557 -0.06695132 0.085091054 -0.050343744
-0.06325634 0.020785904 -0.040890887 -0.04758882 -0.050408423 0.10051465 0.09798801 0.050951585
-0.055138703 0.12425199 0.09854916 -0.14568678 -0.04185465 0.099585555 -0.021736955 -0.16988537
0.119781844 0.08277224 -0.02685085 0.18186589 -0.110705525 0.1268622 -5.9956437e-06 -0.013888182
0.050641265 -0.039533135 -0.21011184 -0.08552125 -0.02744238 -0.11217874 0.06517629 0.022210745
-0.10763259 0.012411132 -0.069766 -0.017238362 0.17062904 -0.033907708 0.087134525 0.13424909
0.07105363 -0.11983467 0.1551408 0.12332102 -0.05405365 -0.023674281 0.0076702763 -0.10886918
-0.06833562 -0.0021089984 -0.08695738 -0.080392316 -0.012277985 0.1572397 0.12900065 -0.023259293
0.13101076 -0.068085454 0.10135872 0.0038962807 -0.029087503 -0.07229939 0.049871374 -0.03053872
0.053286403 0.020033792 0.14259292 0.02264375 -0.023709955 0.054418094 -0.15107417 0.015546439
0.011442247 0.091868125 -0.09329958 -0.031481378 0.18307576 0.1664312 -0.031444006 0.015698135
0.06829631 -0.04730676 0.004904205 -0.12285657 0.1509852 0.026084589 -0.016016757 0.07044926
-0.074778706 -0.03648408 -0.11446921 -0.052526787 -0.012785433 -0.09203367 -0.08547063 -0.06458308
0.10129413 0.04936381 0.187315 0.00616197 -0.04958219 -0.009106417 -0.042035922 0.030478606
0.035269637 0.041021585 0.14702863 -0.07736126 -0.05452975 0.052997496 0.10552101 -0.018702222
-0.23965982 -0.026726276 0.032904327 -0.053877473 -0.095239125 0.11091467 -0.042388074 -0.155945
-0.100050494 -0.14927842 -0.02514968 -0.008665836 0.07398054 -0.15331136 0.041721962 -0.012465913
-0.04528088 0.00872738 0.02036431 -0.004516676 0.0727676 -0.03469454 0.16669905 0.061911628
0.1256189 0.08339834 0.23702471 -0.03593673 0.011746271 -0.12193463 0.09341523 -0.07327169
0.064509265 0.025019253 0.09829602 -0.040101334 -0.00019293626 -0.02510149 0.009741077 0.038202792
-0.11499086 0.07223006 0.021664128 0.013352639 -0.09307691 0.037560806 0.064344496 -0.060666166
0.0602116 -0.09347809 -0.110181086 0.021549726 -0.09226005 -0.031928062 -0.09882911 -0.089112066
-0.021593686 0.07305916 0.12012655 0.13282755 0.15801352 -0.14496282 -0.08797265 0.06514639
0.037359953 0.09872335 -0.018126741 0.03819851 0.09230941 -0.025575118 -0.16000547 -0.055604137
0.015583593 0.039219614 0.021573618 -0.044517748 0.113618635 0.1143807 -0.015614433 -0.177748
-0.04320355 0.12657285 -0.07161648 0.12717968 0.07681509 0.10955536 0.17565283 -0.15109338
0.008738612 0.13268763 0.08311195 -0.037088744 -0.07227634 -0.05900195 -0.05957656 -0.061930697
0.009081806 0.06754381 0.021796884 0.034109514 0.04203792 -0.021152757 0.15506516 0.18874665
-0.020707076 -0.10313537 0.14376114 -0.04548814 0.17089401 -0.02186638 -0.009159032 -0.17079899
-0.11816651 0.062819004 0.12391325 -0.073201664 -0.0840026 0.016640345 0.06947496 -0.03055203

network_body.linear_encoder.seq_layers.2.bias f4 [128]
00000000: bda5 ab3b d74a a0bb 86a6 ebbb dc4c bd3b
00000010: 9e11 f53b c817 d3bb e66f 33bc 53bd 673b
00000020: 6056 b13b 1713 f2bb af14 49bb a1fb ccba
00000030: 4c01 be3a 0a56 99bb 9235 863b 498c 9b3b
00000040: 11de b13b 5cf8 19bc 26d6 e9b9 88df d6bb
00000050: 613f c83b a1cc d03b 354d 063c dfae df3b
00000060: dafb b939 989e 14bb e523 463c 7183 59bb
00000070: 900a dd3b d6d3 d6b9 f64a 013a eaef e93b
00000080: e5a9 353c d9fb c3ba 92d8 97bb bf4f ca3b
00000090: 1433 98bb 6254 8dbb 87e9 1cbc 7e25 663b
000000a0: 2481 1bbc 021d ecbb 111f a63b fcf4 0dbc
000000b0: ccfc a93b 8051 e9bb d25f 1a3c a137 c63b
000000c0: 3fc5 5e3a 79b3 703b e821 9d3a e328 983a
000000d0: 9183 ad3b 4d0a 4e3b af3a 21bb fb20 d73b
000000e0: 6224 293b 4870 05bc e133 0d3c b93c eabb
000000f0: 69bb c83b 0f98 df3b bd63 2cbc 170c f43b
00000100: d457 1b3b 44bf a8bb 1303 ee3b c6a6 edbb
00000110: cdc3 93bb 239b fbbb fc8d cf3b 9401 223a
00000120: f066 3ebb 729a 07bb 4f4b 023c 4f5d 80ba
00000130: d892 e13b a6a6 cd3b fe1b 9e3b 6e9d f9bb
00000140: d91b f9bb a13c 1abb 2638 f2bb 0aeb 563b
00000150: 87f3 ef3a 9b2e 93bb b049 1abc 012f 0c3b
00000160: 2da6 f5bb 5c6e 33b8 6c32 a93b 7c44 033b
00000170: 3b85 fbbb 9d43 a33b 2585 d53b 27a5 e53b
00000180: ccf6 b7bb b654 3a39 f1f1 b3ba 6ee4 de3b
00000190: d5ad 0ebc e94d 62bb 4de2 75bb 51fb 213c
000001a0: 22e9 073c 07ff bc3b 102d a3bb 5a8b ffbb
000001b0: b632 203c 5db6 8bbb ab72 dbbb 7dae 9ebb
000001c0: 0a33 813c a909 dbba 2478 b6bb 4c3f db3b
000001d0: a2aa aabb 15c5 67bb 6363 d53b 4810 b8bb
000001e0: 867c 1abc 140f 1f3c e7be c0bb c939 91ba
000001f0: 6ad2 da3b a4c3 163c cd4b 00bc 81f9 c73b
0.0052382634 -0.004891734 -0.007191482 0.0057769846 0.007478907 -0.006442044 -0.010951972 0.0035360649
0.005411908 -0.0073875296 -0.0030682494 -0.0015638956 0.0014496236 -0.004679446 0.0040957415 0.004746948
0.0054280837 -0.009397592 -0.00044600776 -0.0065574087 0.006111071 0.00637205 0.0081971185 0.006826266
0.00035473594 -0.0022677537 0.012093519 -0.0033189917 0.006745644 -0.0004097509 0.00049321295 0.0071391957
0.011087869 -0.0014952376 -0.0046339715 0.0061740573 -0.004644761 -0.0043130377 -0.009577162 0.0035117562
-0.009491239 -0.0072056064 0.0050696214 -0.008664366 0.0051876064 -0.0071203113 0.009422259 0.006049112
0.000849802 0.0036728068 0.0011988254 0.0011608865 0.005295225 0.0031439245 -0.0024601629 0.006565211
0.002580904 -0.008144446 0.008618326 -0.007148352 0.0061258567 0.0068235467 -0.010521826 0.0074477303
0.0023703473 -0.0051497538 0.00726355 -0.007252547 -0.0045094253 -0.007678406 0.0063340645 0.0006180045
-0.0029053055 -0.0020691422 0.007952525 -0.0009793433 0.00688396 0.0062759696 0.0048251143 -0.007617644
-0.0076021967 -0.0023534673 -0.0073919473 0.0032793903 0.001830683 -0.00449164 -0.0094169825 0.0021390321
-0.0074966163 -4.2779706e-05 0.0051634815 0.0020029834 -0.0076757944 0.0049824254 0.006516116 0.007008213
-0.0056141373 0.000177699 -0.001372872 0.0068021333 -0.008708437 -0.0034531301 -0.003751892 0.009886579
0.008295329 0.0057677063 -0.004979737 -0.0077985944 0.009777715 -0.0042636828 -0.006697019 -0.004842578
0.015771408 -0.0016711253 -0.005568521 0.006690895 -0.0052083293 -0.0035365273 0.006512092 -0.0056171753
-0.009429103 0.009708185 -0.0058821323 -0.0011079843 0.0066779153 0.009201918 -0.007830572 0.006102741

action_model._continuous_distribution.log_sigma f4 [1, 2]
00000000: d0fa 68bc 347e 4cbc
-0.014219955 -0.012481261

action_model._continuous_distribution.mu.weight f4 [2, 128]
00000000: ae98 ad3b e156 d6b9 3f54 13bd 85d0 2f3d
00000010: 2f09 21bc c442 2a3b 9f7c 863b 380e 553c
00000020: a24e a63c 90c0 f0bc f098 bab9 2b27 9fbc
00000030: d34a 51bc fb97 79bc 04a1 133c 3dfd c8bc
00000040: 5f6a 453c 2228 67bc 9678 7dbc 3b70 88bc
00000050: 271a a53c 67e8 5e3c 3ed7 21bd 0c87 de3c
00000060: 14f9 bfba 0881 dc3a d80e b0bc a61e bbbc
00000070: 169d baba de66 92bc c2c0 dbbc 5563 1e3d
00000080: 43bc de3b 8bab ae3c 7567 87bc fe53 883c
00000090: cca1 1d39 b43c 013b af23 cabc 2098 b4bb
000000a0: 370f 2fbc 513f 7ebc 2820 2b3d 1784 01bd
000000b0: bba8 f0ba ea3c c3bc a971 bd3b 78d8 aa3c
000000c0: a7ea a5bb 95c2 28bc 5303 983c 3d22 983c
000000d0: 634a 0d3c 5938 b7bb a885 2038 9dc8 c93c
000000e0: bc62 7d3b 88b0 bbbc b9ef 4cbb ed70 97bc
000000f0: 19d0 8a3c c56e c53c fa37 c6bb 1366 1f3c
00000100: 0fc5 6ebc 6a36 fb3a 13c9 1b3d b3ad 41bc
00000110: 51ea 383b bde0 05bc 2320 953c fd2e aabc
00000120: 5f19 4fbb ef11 90bb 754b 213d 0397 73bc
00000130: 2624 d43c 2680 a53c 0bbf 87bb 6a53 c4bc
00000140: a30e 8fbc d9a9 bebc b6c9 60bd fe33 13bb
00000150: 784a a3bc 9f83 f0bb eb9b 19bd c884 ed39
00000160: a240 ccba c225 87bb a963 e93b 8eee 9f3b
00000170: f5b9 ccbc 8de8 413c 3396 d63c 0ce0 bd3c
00000180: 62a4 aabc f550 823c 27a1 82bc c4d0 7c3c
00000190: ae1b 31bd 0060 9abc 75e5 53bc b57f 8f3a
000001a0: 655c 833c 33b2 3e3c f389 e0bb ef22 4fba
000001b0: 8f70 8a3c 0403 77bd 6e5a 20bd d9f7 a2bb
000001c0: d354 a8bb 91df 413c edbc 0abc 3777 ab3b
000001d0: c276 f63b 3a13 9cbc 61e6 c33b f51f 06bc
000001e0: a35e c83c 50a5 6e39 c909 84bb c5fd 9c3c
000001f0: f117 083d 48db bf3b 59ee f1bc 41bb a33b
00000200: 52b3 69bd 5f9d b93b 92a6 383d 4624 4dbd
00000210: 4340 ae3c 29a4 063d 9740 313b 865c 703c
00000220: a804 9f3b ea60 ff3a a3cc 163d 6657 ac3b
00000230: 35ee 9d3c b7ea e1bc d79e 8abc e2b6 4cbd
00000240: 9a92 92bc 2574 913c 4ed6 573d eee5 bfbc
00000250: 40ed 71bc a8a2 8ebb 5ce8 23bd 75f5 0dbc
00000260: 3754 f3bc b930 2bbc 6eab 0dba 18f0 95bc
00000270: 7092 f2bc 2c8c 703c 3e57 f1bc 9439 86bc
00000280: 15da 59bd 5120 1a3d 8337 be3c 4e7d c1bc
00000290: 6cc1 f83c 5fa7 eabb 3f6a 77ba 5906 3a3d
000002a0: f1f3 863c 4aa5 ef3c eab8 1cbb eb57 d53b
000002b0: e7b3 593b af02 a23b 6e2a ed3c 3bef 83bc
000002c0: 0ce4 b53c 8c0f cebc bd24 e53c ed20 463d
000002d0: 5892 8bbc e3b2 6dbd bf8b 6bbc 3d59 d23b
000002e0: 7777 833c 9524 8dbc 16a3 11bd 9868 6dbc
000002f0: 08ca cfbc d52c 16bc 3aab aebb 9576 2ebd
00000300: c11c cd3c b234 d0bc 2e2e c73a 50fa b33c
00000310: d515 c53c d362 073c 104f 263c de00 a33b
00000320: a663 1e3c dd70 1fbc c8fc 3d3b 5484 7e3c
00000330: 38e3 2abc 5464 77bc 50c9 02bd d2c9 1a3b
00000340: 5704 f83a 44f5 5bbc 59ea 923c 26e7 8abc
00000350: 47ad babc 39f0 c33c e10c 9e3a bbc6 1f3a
00000360: a86d 863c c6fc ccbc 75ea 1e3d 42ad b6bb
00000370: e926 823c 77a9 74bc b6e9 82bc b258 c5bc
00000380: f696 073c 5b67 c73a 4ea7 f0bc e604 95ba
00000390: dfbe a23b b3d2 153c 9620 a93c 93e0 0f3d
000003a0: a433 f9bc 0e07 32bb a9cb 8fbc f17c ed3b
000003b0: eb1a 0f3d 5f7a 183c 4628 893c e0cd 993b
000003c0: 5c0b 8c3c 52d9 173c 49dc 6b3c 2ec4 2ebc
000003d0: e719 313c 1dcd 33bd 6701 c0bc 7978 493c
000003e0: a7df af3c c2bc ad3c 0586 4d3c 2d46 6a3c
000003f0: 252c 3fbc f6e4 a5bc 3ca7 a03c 018f 9cbc
0.005297742 -0.0004088199 -0.035969015 0.04292347 -0.00982885 0.0025979737 0.0041042115 0.013003878
0.020301167 -0.029388696 -0.00035590632 -0.019427856 -0.012774187 -0.015233989 0.009010557 -0.024534816
0.012049287 -0.0141086895 -0.015470644 -0.016655078 0.020154072 0.013605214 -0.03951191 0.027164005
-0.0014646375 0.0016823122 -0.021491453 -0.022841763 -0.0014237489 -0.017871317 -0.026825313 0.03866895
0.006797345 0.021322032 -0.016528824 0.016641613 0.00015032961 0.001972002 -0.024675218 -0.005511299
-0.01068478 -0.0155180255 0.041778713 -0.03162011 -0.0018360832 -0.023832757 0.0057813716 0.020855173
-0.005063373 -0.010300298 0.018556273 0.018571014 0.008623692 -0.005591434 3.827145e-05 0.024631793
0.0038663587 -0.022911325 -0.0031270816 -0.018486464 0.016944932 0.02410067 -0.0060491534 0.009728926
-0.01457335 0.0019165997 0.038033556 -0.011821198 0.0028215835 -0.008171258 0.0182038 -0.020774359
-0.0031600816 -0.004396669 0.039378602 -0.014867547 0.025896143 0.020202707 -0.004142647 -0.023965556
-0.017463034 -0.023274349 -0.054879867 -0.002246141 -0.01993297 -0.007339909 -0.03750221 0.00045303092
-0.0015583227 -0.004124374 0.007122476 0.004880733 -0.024991015 0.01183523 0.026194667 0.023178123
-0.020830337 0.015907744 -0.015945984 0.015430633 -0.043239288 -0.018844604 -0.012933125 0.0010948094
0.016035268 0.011639166 -0.0068523823 -0.0007901629 0.016899375 -0.06030561 -0.03914874 -0.0049733934
-0.005137065 0.011833088 -0.008467895 0.0052327174 0.0075214813 -0.019052137 0.005978391 -0.00818633
0.024459189 0.00022759032 -0.004029487 0.019163975 0.033225957 0.005854998 -0.029532598 0.0049966876
-0.05705578 0.005664512 0.04508073 -0.05008342 0.021270877 0.0328714 0.0027046555 0.014670497
0.00485285 0.0019483839 0.03681625 0.005259442 0.019278625 -0.027577741 -0.016921444 -0.0499791
-0.01789217 0.017755577 0.05269461 -0.023425069 -0.014766037 -0.004352886 -0.040016517 -0.008664479
-0.029703243 -0.010448628 -0.0005404268 -0.018302962 -0.029610842 0.014681857 -0.029460546 -0.016384877
-0.053186495 0.037628476 0.02321983 -0.02361932 0.030365668 -0.0071610655 -0.0009438134 0.04541621
0.016473742 0.02925362 -0.0023913928 0.006510725 0.0033218802 0.0049441676 0.028950896 -0.016105285
0.022203468 -0.025153898 0.02797162 0.048371244 -0.017037556 -0.058031928 -0.01437658 0.0064193294
0.016048176 -0.017229358 -0.03555592 -0.014490269 -0.02536489 -0.009165962 -0.0053304704 -0.042593557
0.025038125 -0.025415752 0.0015196258 0.021969944 0.024058262 0.008263308 0.010150686 0.0049744686
0.009667313 -0.009731499 0.002898978 0.015534479 -0.01043015 -0.015099604 -0.031930268 0.002361883
0.0018922192 -0.013425175 0.017934011 -0.016955923 -0.022787703 0.023918258 0.0012058282 0.0006094982
0.01640971 -0.025022876 0.038797814 -0.005574853 0.015887694 -0.014932982 -0.015980583 -0.024090145
0.008275738 0.0015213297 -0.029376652 -0.0011369258 0.0049666013 0.009144473 0.020645421 0.03512628
-0.030420132 -0.002716485 -0.017553167 0.00724756 0.03493778 0.009306519 0.016742837 0.0046937317
0.01709526 0.009268122 0.014395782 -0.01066689 0.010809398 -0.043896783 -0.023438169 0.012296789
0.02146895 0.02120817 0.01254416 0.014298958 -0.01166824 -0.020250779 0.019610994 -0.019111158

action_model._continuous_distribution.mu.bias f4 [2]
00000000: 5022 fe3b 6f5d 5dbb
0.007755555 -0.0033777615

exp_avg f4 [128, 6]
00000000: 4825 1bb8 7cdf 8e2b daec fbb7 0fc2 91b8
00000010: 0000 0000 0000 0000 04ea 03b8 6de7 ed2b
00000020: fba2 30b8 c37a 1cb9 0000 0000 0000 0000
00000030: 3962 5638 6803 f1a8 c01a 1137 72f2 d738
00000040: 0000 0000 0000 0000 d03f ba38 2d0d a3ab
00000050: fc2b 27b6 0e7c 9e39 0000 0000 0000 0000
00000060: 0549 a4b7 a4fd 43ab 2f99 4d37 2e7b 7ab7
00000070: 0000 0000 0000 0000 4c47 89b8 aea7 362a
00000080: d5f3 9437 2050 8bb9 0000 0000 0000 0000
00000090: b410 b238 7c1e 60a9 aecc cdb7 dc59 7039
000000a0: 0000 0000 0000 0000 d7c8 9138 f47b 622b
000000b0: 6a0f 74b8 5f32 aa39 0000 0000 0000 0000
000000c0: 88d8 fa35 9611 00a9 1abd e836 aa01 e6b6
000000d0: 0000 0000 0000 0000 ae3d 4eb7 7317 2729
000000e0: 12ed 1b36 57cb 6db7 0000 0000 0000 0000
000000f0: 020e 8fb7 0070 aa29 e7ed a036 da84 81b8
00000100: 0000 0000 0000 0000 a834 40b6 1b33 5929
00000110: 80f0 0534 0044 33b5 0000 0000 0000 0000
00000120: 6ac2 07b9 7607 522c f245 88b8 a265 d5b9
00000130: 0000 0000 0000 0000 aeea 6637 3c23 fca9
00000140: c202 5ab6 9ecb 6938 0000 0000 0000 0000
00000150: 0f6f 9237 b8cf 6e2a e43c 11b6 f453 c637
00000160: 0000 0000 0000 0000 3e79 1eb7 90a5 5fa9
00000170: 6de6 8536 a08c 08b8 0000 0000 0000 0000
00000180: d4c8 57b7 dc8f 64aa 8d0e 3437 3e2d 6db8
00000190: 0000 0000 0000 0000 4a9d a5b7 50ad ec28
000001a0: 353d e436 288b afb8 0000 0000 0000 0000
000001b0: 39ca e6b8 0aca 57ab 2c48 2838 9ffe ebb9
000001c0: 0000 0000 0000 0000 50f7 bbb8 957e 13ab
000001d0: 19f1 e337 147c a7b9 0000 0000 0000 0000
000001e0: 1490 9bb7 7a17 eeab 5b55 9738 a772 37b9
000001f0: 0000 0000 0000 0000 fc6c e6b6 8c26 2129
00000200: 4314 96b5 cf85 7bb7 0000 0000 0000 0000
00000210: 353c 0136 1ab3 7a28 c56a cab5 930a 3637
00000220: 0000 0000 0000 0000 301a 00b7 5df0 38ac
00000230: eb31 de38 4f03 2bb9 0000 0000 0000 0000
00000240: f15f d2b8 9625 182c ae3b 52b8 c033 72b9
00000250: 0000 0000 0000 0000 16f1 f838 904c 3dac
00000260: fd07 5b38 099e 9c39 0000 0000 0000 0000
00000270: 1208 5836 98b3 0fa9 bcca 69b5 1ab6 7d37
00000280: 0000 0000 0000 0000 280a 8935 4b10 c12b
00000290: 2930 73b8 61bf 3c38 0000 0000 0000 0000
000002a0: fc18 7236 6942 092b e3f8 c1b7 2e39 a038
000002b0: 0000 0000 0000 0000 667d 05b9 f9e6 312c
000002c0: 1efb 05b8 749b ebb9 0000 0000 0000 0000
000002d0: 01c3 9038 9ddf c92b 61be c6b8 fcf8 d439
000002e0: 0000 0000 0000 0000 4eff 5738 5529 fbaa
000002f0: a310 2d37 b6c5 eb38 0000 0000 0000 0000
00000300: b252 adb6 12d3 8729 ebf2 a0b6 f574 adb6
00000310: 0000 0000 0000 0000 c25b 03b8 c251 dbaa
00000320: 4254 4d37 d4a0 49b9 0000 0000 0000 0000
00000330: a1fa 0eb8 08ac 6caa 2ae3 9037 6135 c8b8
00000340: 0000 0000 0000 0000 7b7f 0ab8 7a6a 2e2b
00000350: 3c88 6cb7 f301 75b8 0000 0000 0000 0000
00000360: 22ae 1237 8c95 d428 d586 6db6 0dbe 1538
00000370: 0000 0000 0000 0000 1a6e edb8 6649 012c
00000380: dca8 4eb7 8d0e ceb9 0000 0000 0000 0000
00000390: 01db 99b9 5a49 7fab 92b9 1739 a88a a5ba
000003a0: 0000 0000 0000 0000 4e46 1939 54d5 ccaa
000003b0: a090 37b8 0ab3 073a 0000 0000 0000 0000
000003c0: 8e85 4cb7 f07b 2e2b 69fa ecb7 bfe9 6eb8
000003d0: 0000 0000 0000 0000 9d04 a3b8 3af5 a02b
000003e0: 8409 ab36 d58c c3b9 0000 0000 0000 0000
000003f0: 407d 8a37 85e3 3c2a 98b3 b0b7 5de6 d238
-3.69896e-05 1.0151736e-12 -3.0031824e-05 -6.950285e-05 0.0 0.0 -3.1450778e-05 1.6904096e-12
-4.2113457e-05 -0.00014923052 0.0 0.0 5.1113053e-05 -2.6757852e-14 8.648902e-06 0.00010297158
0.0 0.0 8.881057e-05 -1.1585504e-12 -2.4910541e-06 0.00030228536 0.0 0.0
-1.9584326e-05 -6.9629914e-13 1.2254618e-05 -1.4929841e-05 0.0 0.0 -6.545949e-05 1.6223023e-13
1.7756518e-05 -0.00026571844 0.0 0.0 8.4908126e-05 -4.9764432e-14 -2.4533216e-05 0.00022921659
0.0 0.0 6.951548e-05 8.046335e-13 -5.818849e-05 0.00032462456 0.0 0.0
1.868947e-06 -2.8436963e-14 6.936153e-06 -6.854728e-06 0.0 0.0 -1.2292918e-05 3.7101788e-14
2.3234793e-06 -1.4173645e-05 0.0 0.0 -1.7053451e-05 7.5689455e-14 4.796067e-06 -6.175945e-05
0.0 0.0 -2.864088e-06 4.8228006e-14 1.2474084e-07 -6.678165e-07 0.0 0.0
-0.00012947028 2.9846937e-12 -6.498014e-05 -0.00040702248 0.0 0.0 1.3763709e-05 -1.119716e-13
-3.2486137e-06 5.5741162e-05 0.0 0.0 1.7456272e-05 2.1210713e-13 -2.1642127e-06 2.3642533e-05
0.0 0.0 -9.445763e-06 -4.965955e-14 3.990534e-06 -3.2555894e-05 0.0 0.0
-1.2861758e-05 -2.0300379e-13 1.0732224e-05 -5.654734e-05 0.0 0.0 -1.9742776e-05 2.6276426e-14
6.802055e-06 -8.37057e-05 0.0 0.0 -0.000110049215 -7.666373e-13 4.0121537e-05 -0.000450124
0.0 0.0 -8.9629204e-05 -5.240056e-13 2.7172779e-05 -0.00031945168 0.0 0.0
-1.8544531e-05 -1.6917433e-12 7.21614e-05 -0.00017494951 0.0 0.0 -6.8672216e-06 3.5782615e-14
-1.1181768e-06 -1.4991921e-05 0.0 0.0 1.9257543e-06 1.3916624e-14 -1.5081247e-06 1.0850507e-05
0.0 0.0 -7.635492e-06 -2.6281401e-12 0.00010595083 -0.00016309063 0.0 0.0
-0.00010031451 2.1621364e-12 -5.0123483e-05 -0.00023098197 0.0 0.0 0.00011870467 -2.6901016e-12
5.222111e-05 0.00029872384 0.0 0.0 3.2191206e-06 -3.190815e-14 -8.709428e-07 1.5122374e-05
0.0 0.0 1.0210251e-06 1.3717997e-12 -5.7980567e-05 4.500093e-05 0.0 0.0
3.6075353e-06 4.876434e-13 -2.312329e-05 7.640045e-05 0.0 0.0 -0.00012730583 2.5281428e-12
-3.1943542e-05 -0.00044938514 0.0 0.0 6.9027774e-05 1.4343974e-12 -9.4768366e-05 0.000406213
0.0 0.0 5.1497766e-05 -4.4615237e-13 1.0315477e-05 0.000112425 0.0 0.0
-5.165429e-06 6.031819e-14 -4.796651e-06 -5.1694174e-06 0.0 0.0 -3.131829e-05 -3.8958946e-13
1.223857e-05 -0.00019228767 0.0 0.0 -3.4088855e-05 -2.1020696e-13 1.727192e-05 -9.546686e-05
0.0 0.0 -3.302049e-05 6.1964984e-13 -1.4098416e-05 -5.8414367e-05 0.0 0.0
8.742822e-06 2.3601584e-14 -3.5394235e-06 3.5701367e-05 0.0 0.0 -0.00011321549 1.8372747e-12
-1.23178725e-05 -0.00039302223 0.0 0.0 -0.00029345605 -9.0695995e-13 0.00014469613 -0.0012629824
0.0 0.0 0.00014617408 -3.6385706e-13 -4.3765293e-05 0.000517652 0.0 0.0
-1.2190443e-05 6.1989216e-13 -2.8249999e-05 -5.6961315e-05 0.0 0.0 -7.773305e-05 1.1436748e-12
5.097305e-06 -0.00037298226 0.0 0.0 1.6509206e-05 1.6776691e-13 -2.1064465e-05 0.00010056489

exp_avg_sq f4 [128, 6]
00000000: 05b4 3233 c08e a717 a880 5532 a5a6 6834
00000010: 0000 0000 0000 0000 a36a 7833 fd86 2b18
00000020: 75e1 7c32 d994 f734 0000 0000 0000 0000
00000030: c1f7 b233 45eb e917 6217 dc32 1147 9934
00000040: 0000 0000 0000 0000 e9ce 1934 af5b 8b18
00000050: de9f c632 f2ac 8535 0000 0000 0000 0000
00000060: 4f48 d532 a488 1e17 ca2a 5832 4ee9 e333
00000070: 0000 0000 0000 0000 a79f a233 1a14 e717
00000080: 64ab 0032 cdf1 e434 0000 0000 0000 0000
00000090: 9729 9a33 dca9 b117 83c1 2232 6057 8d34
000000a0: 0000 0000 0000 0000 114b 4333 9de3 b617
000000b0: fe8b 0032 67e6 9734 0000 0000 0000 0000
000000c0: 8e2f 3631 878d 0915 0671 0530 ae3e ca31
000000d0: 0000 0000 0000 0000 8e4b cf32 33c5 6e16
000000e0: 287a 5b31 0615 0b33 0000 0000 0000 0000
000000f0: 9d9c 8a31 6882 b615 cd03 0030 13de ac32
00000100: 0000 0000 0000 0000 57a6 0331 2861 4b15
00000110: 2295 1430 7da7 5c32 0000 0000 0000 0000
00000120: 3228 e834 e4a4 5119 f4b8 9c33 7084 2836
00000130: 0000 0000 0000 0000 51f0 3931 a7a2 9415
00000140: 8f63 912f 6354 9232 0000 0000 0000 0000
00000150: 7554 1830 b1fa f414 d9f2 a92f 8e94 a931
00000160: 0000 0000 0000 0000 dea1 7630 9f44 b614
00000170: 0fa6 f62e 1117 a931 0000 0000 0000 0000
00000180: 078c 4131 4e7b 9e15 c6ee 5a30 5894 5032
00000190: 0000 0000 0000 0000 2618 af31 4c70 1516
000001a0: cd6f 3030 9219 1133 0000 0000 0000 0000
000001b0: 7242 c833 7dd1 3418 d844 8a32 dacd 2635
000001c0: 0000 0000 0000 0000 f6ea 8633 2453 b917
000001d0: 377b 2932 f624 9f34 0000 0000 0000 0000
000001e0: 5d2b 9733 b32b 0118 0e34 8c32 3a37 8b34
000001f0: 0000 0000 0000 0000 33cc d530 e8ed 0215
00000200: 4fe1 5730 3cfb c331 0000 0000 0000 0000
00000210: 774f 9230 f097 d314 2adc 1f30 93ed df31
00000220: 0000 0000 0000 0000 bb7d 3434 5065 9718
00000230: 78e9 0c33 3561 3435 0000 0000 0000 0000
00000240: ebff a934 084c eb18 6cf8 6d33 128e ba35
00000250: 0000 0000 0000 0000 f128 a134 cb79 0d19
00000260: 75c3 5b33 ad80 e635 0000 0000 0000 0000
00000270: 5b7b f92e 7a71 8113 9395 ec2d 260f 6030
00000280: 0000 0000 0000 0000 59b2 cd33 5227 2618
00000290: 4dd9 ab32 7d9e f734 0000 0000 0000 0000
000002a0: 75d0 9932 c8a5 8916 ba0b 3431 5f81 6e33
000002b0: 0000 0000 0000 0000 483a 8b34 0350 0719
000002c0: 37bc f732 6058 ed35 0000 0000 0000 0000
000002d0: d5b4 a633 e6c2 1c18 ff6d 6d32 872a e534
000002e0: 0000 0000 0000 0000 c91e f532 65b3 2017
000002f0: 3e7c 2231 d070 1134 0000 0000 0000 0000
00000300: df50 d830 9965 8614 0ae2 b42f 61dc 3a31
00000310: 0000 0000 0000 0000 1d66 ed32 d275 2917
00000320: 608c d331 1f2d 0e34 0000 0000 0000 0000
00000330: c5bc ea31 c2ab 0316 8b6a fc30 f86a bf32
00000340: 0000 0000 0000 0000 a79c 5232 3546 d216
00000350: a0b1 bd31 38bc bc33 0000 0000 0000 0000
00000360: fae5 0130 c325 7914 956b cb2e c8a1 5b31
00000370: 0000 0000 0000 0000 5be5 5534 5aa1 bf18
00000380: 3979 cc32 bb7c b035 0000 0000 0000 0000
00000390: 2886 8a35 74c0 ea19 cde5 4734 dc21 d936
000003a0: 0000 0000 0000 0000 ed60 9834 c324 eb18
000003b0: 58a9 3933 d61c e635 0000 0000 0000 0000
000003c0: 06d6 3b33 bec5 c317 9e8e 0632 f153 ad34
000003d0: 0000 0000 0000 0000 c932 3734 077e a918
000003e0: 18a3 4f33 fcfd 9135 0000 0000 0000 0000
000003f0: a1ab bd31 db1b 3216 26ff 7430 594c 2633
4.160758e-08 1.0828157e-24 1.2427485e-08 2.1667309e-07 0.0 0.0 5.7838985e-08 2.2169384e-24
1.47195935e-08 4.6115636e-07 0.0 0.0 8.333837e-08 1.5116662e-24 2.5622004e-08 2.8550178e-07
0.0 0.0 1.4324509e-07 3.6023235e-24 2.3122933e-08 9.959606e-07 0.0 0.0
2.4829346e-08 5.122502e-25 1.2582584e-08 1.0612949e-07 0.0 0.0 7.5727534e-08 1.4933099e-24
7.48955e-09 4.2644243e-07 0.0 0.0 7.178749e-08 1.1481235e-24 9.4736405e-09 2.632687e-07
0.0 0.0 4.5470248e-08 1.1818932e-24 7.482411e-09 2.8293582e-07 0.0 0.0
2.6511517e-09 2.7778575e-26 4.8545734e-10 5.8860996e-09 0.0 0.0 2.413233e-08 1.9287712e-25
3.1938132e-09 3.238258e-08 0.0 0.0 4.0341335e-09 7.371496e-26 4.657153e-10 2.0124423e-08
0.0 0.0 1.9157562e-09 4.1072166e-26 5.4054017e-10 1.2843768e-08 0.0 0.0
4.3242613e-07 1.0838346e-23 7.297959e-08 2.511104e-06 0.0 0.0 2.7057647e-09 6.0033344e-26
2.6446087e-10 1.7035012e-08 0.0 0.0 5.54173e-10 2.4736584e-26 3.0913475e-10 4.935436e-09
0.0 0.0 8.9724306e-10 1.840437e-26 1.1216283e-10 4.9211697e-09 0.0 0.0
2.8164793e-09 6.401023e-26 7.9647255e-10 1.2140923e-08 0.0 0.0 5.0959157e-09 1.2071559e-25
6.4187305e-10 3.37837e-08 0.0 0.0 9.325312e-08 2.337022e-24 1.6096621e-08 6.213937e-07
0.0 0.0 6.2826004e-08 1.1976332e-24 9.8651105e-09 2.964295e-07 0.0 0.0
7.039373e-08 1.6694922e-24 1.6321817e-08 2.593095e-07 0.0 0.0 1.5555827e-09 2.6440966e-26
7.8536727e-10 5.703809e-09 0.0 0.0 1.0645483e-09 2.1365484e-26 5.8156735e-10 6.5171633e-09
0.0 0.0 1.6809547e-07 3.9134885e-24 3.280863e-08 6.719668e-07 0.0 0.0
3.1664908e-07 6.082285e-24 5.54068e-08 1.3899428e-06 0.0 0.0 3.0018376e-07 7.314125e-24
5.1167678e-08 1.7173785e-06 0.0 0.0 1.13451214e-10 3.2676075e-27 2.6896518e-11 8.151225e-10
0.0 0.0 9.5784976e-08 2.1474849e-24 2.0005837e-08 4.612265e-07 0.0 0.0
1.790634e-08 2.2238166e-25 2.6200113e-09 5.5531356e-08 0.0 0.0 2.5933173e-07 6.995495e-24
2.8840175e-08 1.7683597e-06 0.0 0.0 7.7628705e-08 2.0260926e-24 1.3820226e-08 4.2685517e-07
0.0 0.0 2.8535753e-08 5.1925216e-25 2.3644726e-09 1.3545218e-07 0.0 0.0
1.5739053e-09 1.3570615e-26 3.290242e-10 2.7191833e-09 0.0 0.0 2.7636867e-08 5.4755555e-25
6.156867e-09 1.3241196e-07 0.0 0.0 6.831757e-09 1.0636293e-25 1.8365695e-09 2.228397e-08
0.0 0.0 1.2259227e-08 3.3971637e-25 5.5208176e-09 8.788669e-08 0.0 0.0
4.7256743e-10 1.25787346e-26 9.2504816e-11 3.1960656e-09 0.0 0.0 1.992061e-07 4.9535266e-24
2.3803851e-08 1.3149323e-06 0.0 0.0 1.0320846e-06 2.4272764e-23 1.861692e-07 6.4710457e-06
0.0 0.0 2.838273e-07 6.0783196e-24 4.3227686e-08 1.7144728e-06 0.0 0.0
4.3733984e-08 1.2651497e-24 7.832254e-09 3.2284836e-07 0.0 0.0 1.7061679e-07 4.381273e-24
4.8344276e-08 1.0877261e-06 0.0 0.0 5.520136e-09 1.4387515e-25 8.912927e-10 3.8719325e-08

exp_avg f4 [128]
00000000: addb a2b7 68d6 2eb8 2748 f137 e213 b138
00000010: efee 8bb6 2ca8 9bb8 3846 8638 fe29 be38
00000020: c87e 00b6 97d8 84b6 c5b6 90b7 104c 48b4
00000030: bd6e eeb8 a99c 8237 7698 dd36 ab91 18b7
00000040: 3e80 84b7 5e23 c4b7 2ed7 03b9 3d22 bbb8
00000050: 44f8 4cb8 f683 8cb6 0066 4b36 6813 3fb8
00000060: fc4e 87b8 d0fd ae38 fabc 8d36 17e4 5237
00000070: 4005 b337 c89f 03b9 50f5 ed38 5bb7 0338
00000080: 6ace c1b5 7148 61b8 5cb2 dfb7 30e0 88b7
00000090: 594f 2737 2a3b e6b8 77f6 b8b9 909e 1739
000000a0: b078 85b7 e87d dab8 74a4 eb37 6e13 8d37
000000b0: 5507 deb6 e8e6 45b6 5e9f 38b8 d271 b738
000000c0: 8c35 9fb6 b258 f934 06bb 9435 1a23 d936
000000d0: a78e ad38 be02 d937 3dea 49b9 109a ad35
000000e0: e82b 4337 1bc5 d2b8 9bd7 cf36 91ea eeb7
000000f0: 04fd 97b8 7452 cab8 1c1a e7b8 1e96 ed35
00000100: b67b 35b7 39f8 0636 1644 37b9 b651 af36
00000110: 6ad2 f937 c800 8638 3ee3 a037 2299 b9b8
00000120: 9c3a 11b8 e234 51b6 13fa 6137 1ec0 11b5
00000130: d7ae 1437 778c 82b7 49da b838 be02 1eb8
00000140: 8244 b1b7 9841 03b9 9c70 a8b5 87cb 0837
00000150: 9ca2 89b8 30bd 30b8 26b9 32b6 6f59 ef37
00000160: 7a3d 3ab7 b649 6938 3725 8239 c468 b5b7
00000170: 00fe a9b5 74ec 9538 0386 aa37 5da1 7cb8
00000180: 9cba 6337 2647 4fb7 a409 66b9 c5a4 8435
00000190: 4ed9 d237 a48e 6c39 8016 6837 2ac1 98b8
000001a0: 50f6 94b8 67a1 5f37 55fb c737 ed4a 13b9
000001b0: ad2b a2b4 e005 1638 cad5 e9b4 27d5 9db7
000001c0: a9fb d8b8 7938 8ab8 0a41 96b6 01c0 ecb8
000001d0: 3b0c 8fb8 00ac 78b8 99a3 a5b8 8c28 fc37
000001e0: 8e15 19b7 0fe7 bf38 82d3 d138 4d63 15b8
000001f0: 1611 58b8 7e15 8f38 564c 95b7 4f92 d2b6
-1.94142e-05 -4.1684514e-05 2.8763037e-05 8.443721e-05 -4.1703383e-06 -7.4223004e-05 6.402697e-05 9.067728e-05
-1.9147283e-06 -3.959121e-06 -1.7251246e-05 -1.8654123e-07 -0.00011369351 1.5570158e-05 6.604062e-06 -9.093822e-06
-1.5795344e-05 -2.338149e-05 -0.00012573294 -8.923232e-05 -4.8868606e-05 -4.1876874e-06 3.030873e-06 -4.5556022e-05
-6.4520136e-05 8.344243e-05 4.224127e-06 1.2570082e-05 2.1340908e-05 -0.00012552657 0.00011346734 3.1403597e-05
-1.4439695e-06 -5.3711647e-05 -2.6666727e-05 -1.6316859e-05 9.97245e-06 -0.00010978275 -0.00035278845 0.00014459551
-1.5911035e-05 -0.00010418502 2.8090762e-05 1.6817557e-05 -6.616969e-06 -2.9489693e-06 -4.401744e-05 8.747321e-05
-4.744803e-06 4.6444399e-07 1.108129e-06 6.4711903e-06 8.275854e-05 2.5869693e-05 -0.00019256114 1.2934343e-06
1.1633128e-05 -0.00010050294 6.1941805e-06 -2.848104e-05 -7.247369e-05 -9.647469e-05 -0.000110198016 1.7701566e-06
-1.0817244e-05 2.011204e-06 -0.00017477604 5.224919e-06 2.9781095e-05 6.3897634e-05 1.9179304e-05 -8.8500106e-05
-3.462528e-05 -3.1174209e-06 1.346927e-05 -5.4296277e-07 8.8621955e-06 -1.5562617e-05 8.8144625e-05 -3.767269e-05
-2.1131946e-05 -0.00012517569 -1.2549749e-06 8.153619e-06 -6.5629574e-05 -4.2137865e-05 -2.6631837e-06 2.8532666e-05
-1.1100778e-05 5.5620178e-05 0.0002482326 -2.1625667e-05 -1.2665405e-06 7.1489165e-05 2.0327983e-05 -6.0231763e-05
1.3573703e-05 -1.2354727e-05 -0.000219381 9.882721e-07 2.5135141e-05 0.00022559852 1.3833516e-05 -7.2839044e-05
-7.103069e-05 1.3329415e-05 2.3839684e-05 -0.00014046924 -3.020663e-07 3.576826e-05 -4.3555184e-07 -1.8815115e-05
-0.00010346558 -6.5908716e-05 -4.47792e-06 -0.000112891204 -6.8210495e-05 -5.9287995e-05 -7.8982855e-05 3.0059622e-05
-9.124529e-06 9.150628e-05 0.00010005293 -3.561685e-05 -5.1514326e-05 6.8227746e-05 -1.779773e-05 -6.2755203e-06

exp_avg_sq f4 [128]
00000000: 8038 9132 548a 1a33 0e5a bf32 77e1 a633
00000010: 2343 0e32 41e8 0e33 5873 b032 cea1 bd32
00000020: 837b fc2f 56a1 2d31 cece d730 79bb 8930
00000030: 8860 5234 91ad b630 3db4 d32f 9617 d32f
00000040: 0132 8230 9224 3531 013d 5033 0ead c632
00000050: 06cc ad32 c7a9 f42f a0c6 0b30 a22f 6133
00000060: 34e5 e833 3be1 0f34 9adb 8b2e 5c90 1a33
00000070: 0ae0 9431 a626 1434 aa0b 0f33 7a91 3532
00000080: 0447 692f 307e 3132 5bf7 ee30 f59d eb31
00000090: 2918 892f a253 dc33 b988 0735 e7a2 0f34
000000a0: f561 d832 b241 b633 589b 4f31 9fde a732
000000b0: 0922 3431 8563 8e32 2c48 0833 3a9e 8d33
000000c0: 679f 8b31 f8de d32f ec48 a030 3fb1 972e
000000d0: 3779 b032 8f9a 9c31 8a57 3334 f9ba 8831
000000e0: 6c8b a930 3445 1233 6143 632f a19b eb31
000000f0: 9b60 4433 edfe a033 12b9 7c33 4b27 a530
00000100: d55e ef2f 7849 462f b998 ad34 1d96 c030
00000110: c45e be31 a620 ec32 59d1 fe31 51af 1333
00000120: 93e8 ab32 96e7 162f b2c6 2a33 7c53 4f2e
00000130: 057a f130 d719 1331 0ee0 ae33 48a0 5733
00000140: d246 f930 93ad 6633 756e 4a2d 0457 aa32
00000150: afb3 4532 3ee5 c232 097a f331 32fd fd31
00000160: aaa2 5732 2233 a032 2362 3134 45ab f530
00000170: cc34 d730 dea6 6732 9f55 5832 cd68 6b32
00000180: 1caf da31 0b36 5e33 0241 7e34 9a2d d62e
00000190: 115a da31 af91 b934 1c88 0b30 e2ee 9c33
000001a0: 14fa 0733 13b9 5d30 0012 df32 ed7c 3e33
000001b0: daed 9330 f57e 1033 b734 f630 8a69 bc33
000001c0: a389 0834 e9d0 ec32 1b1e 4830 749d ee32
000001d0: ec26 0c33 9d60 2f34 e523 5f32 5c00 3e32
000001e0: 081c 4533 1b41 6433 21ff 3233 9ff0 9c33
000001f0: 55e6 5d33 2f07 9833 5a81 2f31 ba9c ed31
1.6905915e-08 3.5981728e-08 2.2276279e-08 7.770989e-08 8.280753e-09 3.3273185e-08 2.0541549e-08 2.2076076e-08
4.5926293e-10 2.5266522e-09 1.5702086e-09 1.0021345e-09 1.9592892e-07 1.3291573e-09 3.8508743e-10 3.8397435e-10
9.472957e-10 2.6359754e-09 4.8484257e-08 2.312893e-08 2.023263e-08 4.4503976e-10 5.085017e-10 5.2430217e-08
1.0845034e-07 1.3399851e-07 6.359997e-11 3.5987213e-08 4.332837e-09 1.3797634e-07 3.330539e-08 1.0568664e-08
2.1216456e-10 1.0331448e-08 1.7387082e-09 6.857358e-09 2.4937322e-10 1.0259761e-07 5.0490377e-07 1.3377176e-07
2.5190255e-08 8.486985e-08 3.0210767e-09 1.9542595e-08 2.6212794e-09 1.6576232e-08 3.1730607e-08 6.5946054e-08
4.0635544e-09 3.8539105e-10 1.1662258e-09 6.89817e-11 2.0544219e-08 4.557769e-09 1.670252e-07 3.9793773e-09
1.2335994e-09 3.4056214e-08 2.0669468e-10 6.857093e-09 4.572267e-08 7.496951e-08 5.8841643e-08 1.2016498e-09
4.354123e-10 1.8034096e-10 3.2334881e-07 1.4012503e-09 5.5405014e-09 2.7488863e-08 7.416173e-09 3.4385554e-08
2.0012783e-08 1.3724696e-10 3.976192e-08 4.71405e-11 1.7569738e-09 2.1406004e-09 8.143262e-08 5.0204363e-08
1.8137263e-09 5.3708913e-08 1.1506897e-11 1.9830175e-08 1.15077645e-08 2.268882e-08 7.0861046e-09 7.392054e-09
1.2551633e-08 1.8649704e-08 1.6520112e-07 1.7874774e-09 1.5658315e-09 1.3483911e-08 1.2592323e-08 1.3702629e-08
6.3645427e-09 5.1737555e-08 2.3679243e-07 9.739694e-11 6.3548744e-09 3.4564934e-07 5.076133e-10 7.3077686e-08
3.165958e-08 8.066234e-10 2.5968802e-08 4.435144e-08 1.0763259e-09 3.364308e-08 1.7913838e-09 8.77363e-08
1.2716059e-07 2.7569017e-08 7.280236e-10 2.7778448e-08 3.263169e-08 1.6333293e-07 1.298847e-08 1.1059537e-08
4.589313e-08 5.31446e-08 4.1675893e-08 7.308085e-08 5.1665058e-08 7.079358e-08 2.553938e-09 6.9154256e-09
