UnityMLTutorial_complete/results/Test3/MoveToGoal/MoveToGoal-3456.pt (torch, 149327 bytes, 12 tensors)

network_body.linear_encoder.seq_layers.0.weight f4 [128, 6]
000000 e9 77 9c 3d 74 27 8d be ac e0 3a 3e 52 60 13 bc
       0.076400585 -0.27569163 0.18249768 -0.0089951325
000010 c5 46 50 bd 6e 0b 0a 3f 2f de 91 3c a7 bf bc 3e
       -0.05084874 0.5392369 0.01780614 0.3686497
000020 6a f9 f2 3e 60 16 db 3e 8a be ab be 4b 69 0b bf
       0.47455913 0.42790508 -0.33543807 -0.5445754
000030 e4 83 d2 be 4e ba 1c be 17 ab 1e bd 9e 3f 5f 3c
       -0.4111625 -0.15305445 -0.038737383 0.013626007
000040 28 cd 6b be 82 cc d9 bd aa a7 8b 3e 4b a3 47 bc
       -0.2302748 -0.1063471 0.27276355 -0.012184928
000050 58 67 cd 3e 86 fb 8d be 4e 89 ce 3e 1b 5c 58 3e
       0.40117908 -0.2773096 0.4033913 0.21128885
000060 86 2b ac 3d 51 28 61 be 66 a1 04 3e 02 e7 bd be
       0.08406739 -0.21988036 0.12952194 -0.37090307
000070 b0 f3 e3 3d 5f df d1 38 60 74 07 bd 2e f3 a2 3e
       0.11130464 0.00010007503 -0.03306997 0.31826156
000080 82 01 da be 39 99 13 3f db 5d 04 3f 18 32 2f be
       -0.42579275 0.57655674 0.5170571 -0.17108953
000090 fa b8 2c bc f6 b3 1b bf 7c 84 d6 bc b4 dc 74 3e
       -0.010542149 -0.60821474 -0.02618622 0.23912317
0000a0 b1 8c 09 3f 5f 8c e9 bc e1 7a 15 bf e7 0f cc bc
       0.53730303 -0.028509317 -0.58390623 -0.024909927
0000b0 f2 31 52 3e 2f 7d 86 3e de 85 89 3e 0f 58 bb 3e
       0.20526865 0.26267383 0.26859945 0.3659062
0000c0 85 52 47 3d 0c ed d6 3e b5 46 67 3e bc 0a d9 be
       0.04866268 0.41977727 0.22585566 -0.42391002
0000d0 52 80 33 3b 89 26 10 bd 4d e0 f8 3e 89 c6 1b bf
       0.0027389717 -0.035193 0.48608628 -0.60849816
0000e0 36 c4 86 3e fe cb 3c bd b7 73 dc bc a7 ec 38 3b
       0.26321572 -0.04609298 -0.026910646 0.0028217228
0000f0 49 8e 69 3e 87 e3 d9 3e be 92 a6 be b7 d5 61 be
       0.22808184 0.42556402 -0.3253383 -0.22054182
000100 0d f0 95 be 85 f3 ae be 3f 71 85 be 13 63 fa 3e
       -0.29284707 -0.34170166 -0.26062962 0.48903713
000110 be 96 75 be 45 be e8 bc af d8 af 3e f8 55 d8 3e
       -0.23983285 -0.02841104 0.34345004 0.4225309
000120 ec 8e b7 3e 76 a7 3d 3e 40 6e ec be 75 40 2a bf
       0.35851228 0.18520913 -0.46177864 -0.66504604
000130 57 40 45 be 3c 63 cc be 06 11 0d 3f a5 0a 10 bf
       -0.19262825 -0.3991946 0.551041 -0.5626624
000140 ef 18 7c 3e a6 76 54 3f 5d c8 1b 3c 3c 01 99 3e
       0.24618886 0.82993543 0.00950822 0.29883754
000150 e6 f7 2e bf db 53 a5 be 22 7c a5 bf 27 79 f9 bd
       -0.68347013 -0.3229054 -1.2928507 -0.12181311
000160 4e fc 88 3e 33 da 05 bf b4 bd 8f be cb ed 08 3f
       0.26754993 -0.5228607 -0.2807442 0.53487843
000170 1f 55 e2 be a2 24 9b 3e 91 6a 98 3e f7 3a e9 3e
       -0.44205567 0.30301386 0.29768804 0.455528
000180 ad 6e c5 3e 66 9c b4 bd 46 1e c1 be 28 1e 68 bf
       0.38561 -0.08818893 -0.3771841 -0.90671015
000190 41 91 43 3d 9c dc 10 3d 03 e9 de 3e 10 e7 28 bf
       0.047745947 0.03536664 0.4353715 -0.65977573
0001a0 49 0a 15 be b9 b3 bc bb 66 e9 fa 3e 90 21 37 3e
       -0.14554705 -0.0057587293 0.49006194 0.17883897
0001b0 60 78 6b 3d f3 0c 09 3f 3a 09 1e bf 72 39 6a be
       0.057487845 0.53535384 -0.6173283 -0.22873476
0001c0 72 5e e0 3e bd e0 95 bf 18 db 97 3e e5 74 11 bf
       0.43822056 -1.170921 0.29659343 -0.5681899
0001d0 d1 dc 16 3f dc f9 f4 3d 9c e7 b2 3e f8 8f b9 3e
       0.5893069 0.119617194 0.3494233 0.36242652
0001e0 b7 00 9f 3d 12 c7 8a 3d a6 f9 11 be c5 91 94 3e
       0.07763808 0.06776251 -0.1425539 0.29017463
0001f0 8c 54 97 3b 8e 52 0e 3e 8e 6e f8 be 4c 12 ef be
       0.004618233 0.1389868 -0.48521847 -0.46693647
000200 75 4e d5 be 2b bf 7e 3e 45 5a 0c be 6b e2 86 be
       -0.4166142 0.24877612 -0.1370631 -0.26344618
000210 c6 07 10 3f 6b 66 b1 be be b2 1f 3f 81 bd 13 3c
       0.5626186 -0.3464845 0.62382114 0.009017349
000220 af 9b 3d 3f a3 4d 25 3e ef c2 fb 3c 7e 72 13 bd
       0.7406568 0.16142897 0.0307326 -0.03599786
000230 c0 74 27 3e 51 14 79 bd e4 dc 08 bf 0f 59 e1 be
       0.1635313 -0.06081039 -0.5346205 -0.4401326
000240 fe a4 24 be 0b 7c f2 be 2b 68 ce 3c cd dd d1 3d
       -0.16078565 -0.47360262 0.025196156 0.10247383
000250 b5 ee de 3e b9 20 76 3e fb 01 06 3f d5 04 9d bd
       0.43541494 0.2403592 0.5234677 -0.07666937
000260 99 f9 22 be 60 8f 1e 3f 90 4c a7 be 9e e6 c8 be
       -0.15915526 0.6193752 -0.326756 -0.39238447
000270 cc 41 3c 3f 09 1c 99 3e bc dd b7 be 79 71 c1 bd
       0.735379 0.29904202 -0.35911357 -0.09445471
000280 74 fd 52 bc f3 c7 c8 be e0 f2 2c bf 5f 4c 86 bd
       -0.012877811 -0.3921505 -0.675581 -0.065575354
000290 7b 55 5a 3e 64 7c 0f 3e 03 ca 84 bb 9a cf 1f 3d
       0.2132167 0.14012295 -0.004052402 0.039016344
0002a0 19 68 6d 3e 78 e4 31 3f 1e 92 ae be 71 bc 1c 3e
       0.23184241 0.6948924 -0.34095854 0.1530626
0002b0 41 3b b8 be bf 98 42 3e ae 77 f6 be e5 ea 31 3f
       -0.35982707 0.1900358 -0.48138183 0.69499046
0002c0 04 82 86 be 80 b9 24 3f c0 07 70 3d 39 08 97 be
       -0.2627107 0.6434555 0.05860114 -0.2949846
0002d0 57 76 69 be 0b 4d 5e bf b5 9c 55 bf 2f 38 cf bd
       -0.2279905 -0.8683631 -0.8344224 -0.10118138
0002e0 5e 18 24 3f ff 8a aa be 08 28 0f bd c8 b8 03 bf
       0.6409968 -0.3330917 -0.034950286 -0.5145383
0002f0 e4 5b 7c 3e e2 7b c5 3d 72 19 26 3e fb 22 82 3e
       0.24644428 0.096427694 0.16220644 0.25417313
000300 a3 9d af be 2c d2 df 3e dc 9c ca bd 4b b4 c1 be
       -0.34299955 0.43715036 -0.098932 -0.37832865
000310 0c 63 84 3e d1 a6 9e bd e6 ec a6 3d bd bb 46 3e
       0.25856817 -0.077466615 0.081506535 0.19407554
000320 ce 8e 12 bf b1 1e 3a bd b6 90 69 be 77 23 3c be
       -0.5724915 -0.045439426 -0.22809109 -0.18372904
000330 85 6b 44 bf 7e 13 33 be 40 18 4c bd a9 eb 09 be
       -0.7672656 -0.17487904 -0.049827814 -0.13468803
000340 36 dd cd be 43 63 47 3f 22 d4 fa 3e 4f a4 a1 3e
       -0.40207833 0.77885836 0.4898997 0.3157067
000350 22 6a 01 bf 6d 76 99 3f 1d 48 9c 3e 16 95 1c be
       -0.5055257 1.1989266 0.30523768 -0.15291247
000360 14 30 fb bd 92 f2 18 bf 55 64 14 be 92 74 b5 bc
       -0.122650295 -0.5974513 -0.14491399 -0.022150312
000370 de cd b0 be 73 82 62 3d 2a 05 60 bd 46 fb 46 bd
       -0.34532064 0.055300187 -0.054692425 -0.048579477
000380 6a 80 64 be 43 fc e1 3e 95 1c 1a 3f 0b 29 4a be
       -0.22314611 0.44137773 0.6019986 -0.19742219
000390 1d e0 2c bf 5f 1d ca 3e 95 34 10 3f ec 38 14 3f
       -0.6752947 0.39475533 0.56330234 0.57899356
0003a0 b2 b6 4a be 67 24 0e 3f b7 b2 be be a4 2a 38 3f
       -0.19796255 0.55524296 -0.37245724 0.71940064
0003b0 f9 a2 0c 3e df b0 45 bf c9 50 a5 be 5c 63 6f bd
       0.13734044 -0.7722301 -0.32288197 -0.058444366
0003c0 87 f7 aa be 6e 3f 5e 3e 57 0d a2 3e ff b0 7d 3c
       -0.33391973 0.21703884 0.31650802 0.015484094
0003d0 fc 72 ec be 10 02 3f 3e df b2 e2 3d 62 0c 0a 3e
       -0.46181476 0.1865313 0.11069273 0.13481286
0003e0 96 1e 83 3e b9 86 02 bf 66 d9 86 be 06 89 64 be
       0.25609273 -0.5098682 -0.26337737 -0.22317895
0003f0 62 ac f7 3e ac da c2 3d 2c a4 13 be 60 17 a5 3e
       0.48373705 0.095143646 -0.14418095 0.32244396

network_body.linear_encoder.seq_layers.0.bias f4 [128]
000000 00 00 00 00 00 00 00 00 00 00 00 00 00 00 00 00
       0.0 0.0 0.0 0.0
000010 00 00 00 00 00 00 00 00 00 00 00 00 00 00 00 00
       0.0 0.0 0.0 0.0
000020 00 00 00 00 00 00 00 00 00 00 00 00 00 00 00 00
       0.0 0.0 0.0 0.0
000030 00 00 00 00 00 00 00 00 00 00 00 00 00 00 00 00
       0.0 0.0 0.0 0.0
000040 00 00 00 00 00 00 00 00 00 00 00 00 00 00 00 00
       0.0 0.0 0.0 0.0
000050 00 00 00 00 00 00 00 00 00 00 00 00 00 00 00 00
       0.0 0.0 0.0 0.0
000060 00 00 00 00 00 00 00 00 00 00 00 00 00 00 00 00
       0.0 0.0 0.0 0.0
000070 00 00 00 00 00 00 00 00 00 00 00 00 00 00 00 00
       0.0 0.0 0.0 0.0
000080 00 00 00 00 00 00 00 00 00 00 00 00 00 00 00 00
       0.0 0.0 0.0 0.0
000090 00 00 00 00 00 00 00 00 00 00 00 00 00 00 00 00
       0.0 0.0 0.0 0.0
0000a0 00 00 00 00 00 00 00 00 00 00 00 00 00 00 00 00
       0.0 0.0 0.0 0.0
0000b0 00 00 00 00 00 00 00 00 00 00 00 00 00 00 00 00
       0.0 0.0 0.0 0.0
0000c0 00 00 00 00 00 00 00 00 00 00 00 00 00 00 00 00
       0.0 0.0 0.0 0.0
0000d0 00 00 00 00 00 00 00 00 00 00 00 00 00 00 00 00
       0.0 0.0 0.0 0.0
0000e0 00 00 00 00 00 00 00 00 00 00 00 00 00 00 00 00
       0.0 0.0 0.0 0.0
0000f0 00 00 00 00 00 00 00 00 00 00 00 00 00 00 00 00
       0.0 0.0 0.0 0.0
000100 00 00 00 00 00 00 00 00 00 00 00 00 00 00 00 00
       0.0 0.0 0.0 0.0
000110 00 00 00 00 00 00 00 00 00 00 00 00 00 00 00 00
       0.0 0.0 0.0 0.0
000120 00 00 00 00 00 00 00 00 00 00 00 00 00 00 00 00
       0.0 0.0 0.0 0.0
000130 00 00 00 00 00 00 00 00 00 00 00 00 00 00 00 00
       0.0 0.0 0.0 0.0
000140 00 00 00 00 00 00 00 00 00 00 00 00 00 00 00 00
       0.0 0.0 0.0 0.0
000150 00 00 00 00 00 00 00 00 00 00 00 00 00 00 00 00
       0.0 0.0 0.0 0.0
000160 00 00 00 00 00 00 00 00 00 00 00 00 00 00 00 00
       0.0 0.0 0.0 0.0
000170 00 00 00 00 00 00 00 00 00 00 00 00 00 00 00 00
       0.0 0.0 0.0 0.0
000180 00 00 00 00 00 00 00 00 00 00 00 00 00 00 00 00
       0.0 0.0 0.0 0.0
000190 00 00 00 00 00 00 00 00 00 00 00 00 00 00 00 00
       0.0 0.0 0.0 0.0
0001a0 00 00 00 00 00 00 00 00 00 00 00 00 00 00 00 00
       0.0 0.0 0.0 0.0
0001b0 00 00 00 00 00 00 00 00 00 00 00 00 00 00 00 00
       0.0 0.0 0.0 0.0
0001c0 00 00 00 00 00 00 00 00 00 00 00 00 00 00 00 00
       0.0 0.0 0.0 0.0
0001d0 00 00 00 00 00 00 00 00 00 00 00 00 00 00 00 00
       0.0 0.0 0.0 0.0
0001e0 00 00 00 00 00 00 00 00 00 00 00 00 00 00 00 00
       0.0 0.0 0.0 0.0
0001f0 00 00 00 00 00 00 00 00 00 00 00 00 00 00 00 00
       0.0 0.0 0.0 0.0

network_body.linear_encoder.seq_layers.2.weight f4 [128, 128]
000000 ff 4a 93 3a 78 34 c7 3d 25 ab 85 3d 54 dd de bd
       0.001123756 0.097268045 0.06526784 -0.10882059
000010 c0 24 a6 3d 17 d5 a7 bd 78 00 11 3d c8 42 05 bd
       0.08112478 -0.081949405 0.035400838 -0.03253439
000020 88 29 1a 3e 66 e8 eb bd b2 25 c2 bd 02 c3 21 bd
       0.15054905 -0.11518936 -0.09479846 -0.039492615
000030 89 7e 56 bd 49 61 20 3d 50 dd 92 bc 12 8e 6a 3d
       -0.052366767 0.03915528 -0.017927796 0.057264395
000040 b4 f2 ad 3d 8c 5b 7f 3b 4c f9 33 3d 20 44 d9 3c
       0.084935576 0.0038964478 0.04393892 0.026521742
000050 40 25 92 bd 46 90 8f 3d af df 3d 3d ae 1a c2 3d
       -0.07136011 0.0700994 0.0463559 0.09477745
000060 ac f7 62 3d 90 d8 a2 3d 65 25 ad 3d f9 69 80 bd
       0.05541198 0.07951462 0.08454398 -0.06270213
000070 ea c0 15 3e a9 48 d0 bd 37 ec 40 3e ef f1 b6 3c
       0.14624372 -0.10170109 0.18840109 0.02233216
000080 32 3d 3f be 1a 90 66 bd 94 c5 8f bd c3 aa e9 3d
       -0.18675688 -0.05628977 -0.07020107 0.11409523
000090 a6 df f0 3c da 91 b2 bc d4 85 15 3c 7e 8c e9 bc
       0.029403519 -0.021798063 0.009126145 -0.028509375
0000a0 80 16 93 3c 50 aa 11 3d 50 90 13 3e 33 d1 86 bd
       0.017955065 0.035562813 0.1441052 -0.0658287
0000b0 06 01 2a 3d e8 0f f7 3d 2c 09 ac bd 55 c7 bd bc
       0.041504882 0.12063581 -0.08400187 -0.023166338
0000c0 99 5b cb bb 03 eb eb 3d c5 1a 59 bd 03 0d d5 bb
       -0.0062059877 0.11519434 -0.053004045 -0.0065017953
0000d0 c9 32 ca bd c4 83 0a bd a5 67 c3 bc 13 e4 b7 bd
       -0.09872968 -0.033817068 -0.023853133 -0.089790486
0000e0 bc 50 90 bd 96 ca 1e 3c 77 14 2e 3d f5 93 b4 bd
       -0.07046649 0.009691855 0.042499986 -0.08817283
0000f0 1b bf 75 bd 91 2e 80 3d d1 8b d5 bd 6e ad 0d be
       -0.059996706 0.06258882 -0.104270585 -0.1383569
000100 f3 ee 00 bd 87 70 43 3e 8e 02 bf 3d 69 76 fa 3d
       -0.03147788 0.19085895 0.09326659 0.12229616
000110 58 cb de bd b5 a3 38 3d 38 13 ba 3d 8c de 07 3d
       -0.108786285 0.045078 0.09085697 0.03317122
000120 f5 96 3c 3e c7 f1 15 bc 9a a2 8b 3c 68 d7 60 bc
       0.1841696 -0.0091518825 0.017045308 -0.013723232
000130 79 4a 39 bd f6 a8 98 bd de 36 b9 bd 30 99 9a 3d
       -0.04523704 -0.07454102 -0.09043668 0.075487494
000140 4e 9d 3e bc 78 3f 91 3d f2 18 c3 bc 6e 4c 4d 3e
       -0.011634184 0.07092184 -0.023815606 0.20048687
000150 d7 9c 6e bd 2a 44 48 bd 61 81 9d 3c d1 26 68 bd
       -0.058255043 -0.04889313 0.019226732 -0.056677643
000160 a6 e1 8f 3d 31 ab 2c 3d 3a bc aa 3d ec 7c 55 bd
       0.07025461 0.04215545 0.083366826 -0.052121088
000170 92 2d bd 3b 14 09 e5 3d e2 14 0a bd 55 ac 8e bc
       0.0057732547 0.11183372 -0.03371132 -0.017416159
000180 15 62 40 bc d6 ba 9d bd c3 a5 b9 3d 5b a4 71 be
       -0.011742135 -0.07701652 0.0906482 -0.23597853
000190 41 a0 36 3d 18 8c 74 bd 9d cf ba 3c b3 a8 b7 bd
       0.044586424 -0.059703916 0.022804076 -0.08967724
0001a0 28 83 2b 3e aa fd 89 bd b5 8a c7 bd 07 f4 4b 3c
       0.16749251 -0.06737836 -0.09743253 0.012448317
0001b0 ae e6 d5 bd c1 38 6d bc cb 93 e5 bd e5 13 be 3c
       -0.10444389 -0.014478863 -0.1120983 0.023202846
0001c0 a7 4f 43 bd f2 27 c7 3d 9b 32 5d 3d c0 47 e8 bd
       -0.047683384 0.09724416 0.05400334 -0.1134181
0001d0 64 5a 26 be 8c cd ac 3d 9b e6 5b 3d 6c a3 2d bd
       -0.16245419 0.084376425 0.05368672 -0.04239218
0001e0 c4 47 00 be c0 a6 c6 3b a6 01 bf bc ce 25 76 3d
       -0.12527376 0.0060623586 -0.023316216 0.060094647
0001f0 b9 85 7c 3e 2f a0 d3 3c 3c 3f 4b be 6a 31 5c 3d
       0.24660386 0.025833217 -0.19848341 0.053758062
000200 9a 4b b7 3c a3 bd de 3d c5 4f cd 3d ed a2 58 bd
       0.022374917 0.10876014 0.100249805 -0.052889753
000210 9c 5a 75 3e 0d 98 ce bd 11 fa 87 bd f7 56 e3 bd
       0.23960346 -0.10087595 -0.06639493 -0.111005716
000220 4b 3c b6 3d 88 12 31 be 77 6f 76 bd a7 d9 b0 bd
       0.08898219 -0.17292225 -0.060164895 -0.08635264
000230 76 21 a8 3c 56 47 24 3c 79 60 42 bd 21 0d d2 3d
       0.020523768 0.010026773 -0.047455285 0.102564104
000240 a8 bf 1a bd 8a ec 4d 3c aa 33 7c bd de a1 00 3d
       -0.037780434 0.012568602 -0.06157271 0.03140437
000250 23 1c c3 bd 66 56 c4 bd 30 bd 7d 3c 74 18 a8 bc
       -0.09526851 -0.09586792 0.015487 -0.020519473
000260 cd d3 9f 3d 4b ba ff 3c d2 05 a8 3d 4b 68 4e bd
       0.0780407 0.031216761 0.08204235 -0.05039243
000270 2e 57 e6 bd 6d e7 e6 3d 5d de 16 3e 62 83 e0 3b
       -0.11247097 0.1127461 0.14733262 0.0068515996
000280 bc 7c 06 3d 6b a6 44 bd 69 c3 0e bd a4 9c f7 bd
       0.0328338 -0.04801027 -0.034854326 -0.12090424
000290 17 a1 b9 3d 77 c4 90 bd cf 96 b2 3d 4e 79 e8 3d
       0.090639286 -0.07068723 0.08720171 0.11351262
0002a0 b5 b5 22 be 73 67 18 3d e3 87 dc bc 77 b9 22 bc
       -0.15889628 0.037208032 -0.026920265 -0.009931914
0002b0 27 9d be bd 77 d4 00 3e 3e 11 54 3d 7e 9e dd 3c
       -0.09307318 0.12581049 0.051774256 0.027053114
0002c0 c8 91 55 bc 36 e9 13 3d 53 02 c7 3c 7b ac e0 3c
       -0.013035245 0.03611108 0.0242931 0.027425995
0002d0 e6 6b b5 3c 49 07 23 bd 8d 5b ea 3d f6 1d 1e 3e
       0.022146177 -0.03980187 0.11443243 0.15441117
0002e0 37 19 27 3e 2c bf b6 bd 7a 99 63 bd 62 61 3a 3c
       0.16318212 -0.08923182 -0.05556629 0.011375757
0002f0 90 c1 c4 3c 8c 64 f1 3d af 84 3a 3d 80 e0 a6 bc
       0.024018079 0.11786756 0.045536693 -0.020370722
000300 2e da e9 3d 35 43 40 be d1 85 41 3e 66 85 90 bd
       0.114185676 -0.18775637 0.18898703 -0.07056694
000310 b3 49 71 3d 5f 98 67 bc c0 c9 7a 3d 01 d0 1a bd
       0.058908176 -0.014135449 0.06122756 -0.037796024
000320 43 9d cd bd 6a bd 91 3d f6 43 b3 3d 99 02 97 3c
       -0.10039761 0.07116206 0.08753197 0.018433856
000330 2e c9 b2 bd b1 81 0c 3e a2 f4 bf 3d a0 6d 4c 3d
       -0.08729778 0.13721348 0.09372832 0.049909234
000340 01 9d 89 3d 85 d8 85 3e 55 09 4c bb fd c3 1c 3c
       0.06719399 0.26141754 -0.0031133492 0.009568212
000350 8a b2 1f 3d 74 bc c8 3d 14 e3 3b be 34 d4 d7 3d
       0.038988627 0.098015696 -0.18348342 0.105385214
000360 1f b1 be 3d 4b 7f 90 bd f8 7c fe 3c 9a 43 81 bd
       0.09311127 -0.07055529 0.03106545 -0.06311722
000370 6d 57 ac 3d c4 d7 d7 3c 26 2f c9 bd 1f 25 a9 3d
       0.08415113 0.026348002 -0.09823446 0.082590334
000380 4f f1 b2 3d c8 5d 01 3e ce 84 ac bc 5e bf 7d bd
       0.08737432 0.12633431 -0.02105942 -0.06195008
000390 70 92 23 3d b9 83 b2 bd 0a a1 aa bd 4b e8 27 3d
       0.039934576 -0.0871653 -0.08331497 0.040993016
0003a0 6b 41 3b be 85 d0 e8 3d 9b 1c e4 bd 2a 6d 6b 3e
       -0.18286674 0.11367897 -0.111382686 0.22990862
0003b0 27 33 8a 3c f1 0f 02 3e 14 da 03 3d ae 27 38 3e
       0.016870094 0.12701394 0.032190397 0.17983887
0003c0 bf 77 ee bd 60 84 0c 3b 42 6d d4 3c d2 2c 4f 3e
       -0.116439335 0.0021441206 0.025931004 0.20231941
0003d0 79 f8 2f bd 9e dd 11 3d f4 25 ac bd d2 15 91 3d
       -0.04296157 0.03561174 -0.084056765 0.0708424
0003e0 6f 39 e6 3b 8b 48 68 be 65 8b b0 bd 37 96 35 3e
       0.0070258896 -0.22683923 -0.086203374 0.17733084
0003f0 7f 9e aa bd 82 8e 84 3d 89 ae d3 bd 67 4e 0b 3d
       -0.08331012 0.06472494 -0.10336024 0.034010317

network_body.linear_encoder.seq_layers.2.bias f4 [128]
000000 00 00 00 00 00 00 00 00 00 00 00 00 00 00 00 00
       0.0 0.0 0.0 0.0
000010 00 00 00 00 00 00 00 00 00 00 00 00 00 00 00 00
       0.0 0.0 0.0 0.0
000020 00 00 00 00 00 00 00 00 00 00 00 00 00 00 00 00
       0.0 0.0 0.0 0.0
000030 00 00 00 00 00 00 00 00 00 00 00 00 00 00 00 00
       0.0 0.0 0.0 0.0
000040 00 00 00 00 00 00 00 00 00 00 00 00 00 00 00 00
       0.0 0.0 0.0 0.0
000050 00 00 00 00 00 00 00 00 00 00 00 00 00 00 00 00
       0.0 0.0 0.0 0.0
000060 00 00 00 00 00 00 00 00 00 00 00 00 00 00 00 00
       0.0 0.0 0.0 0.0
000070 00 00 00 00 00 00 00 00 00 00 00 00 00 00 00 00
       0.0 0.0 0.0 0.0
000080 00 00 00 00 00 00 00 00 00 00 00 00 00 00 00 00
       0.0 0.0 0.0 0.0
000090 00 00 00 00 00 00 00 00 00 00 00 00 00 00 00 00
       0.0 0.0 0.0 0.0
0000a0 00 00 00 00 00 00 00 00 00 00 00 00 00 00 00 00
       0.0 0.0 0.0 0.0
0000b0 00 00 00 00 00 00 00 00 00 00 00 00 00 00 00 00
       0.0 0.0 0.0 0.0
0000c0 00 00 00 00 00 00 00 00 00 00 00 00 00 00 00 00
       0.0 0.0 0.0 0.0
0000d0 00 00 00 00 00 00 00 00 00 00 00 00 00 00 00 00
       0.0 0.0 0.0 0.0
0000e0 00 00 00 00 00 00 00 00 00 00 00 00 00 00 00 00
       0.0 0.0 0.0 0.0
0000f0 00 00 00 00 00 00 00 00 00 00 00 00 00 00 00 00
       0.0 0.0 0.0 0.0
000100 00 00 00 00 00 00 00 00 00 00 00 00 00 00 00 00
       0.0 0.0 0.0 0.0
000110 00 00 00 00 00 00 00 00 00 00 00 00 00 00 00 00
       0.0 0.0 0.0 0.0
000120 00 00 00 00 00 00 00 00 00 00 00 00 00 00 00 00
       0.0 0.0 0.0 0.0
000130 00 00 00 00 00 00 00 00 00 00 00 00 00 00 00 00
       0.0 0.0 0.0 0.0
000140 00 00 00 00 00 00 00 00 00 00 00 00 00 00 00 00
       0.0 0.0 0.0 0.0
000150 00 00 00 00 00 00 00 00 00 00 00 00 00 00 00 00
       0.0 0.0 0.0 0.0
000160 00 00 00 00 00 00 00 00 00 00 00 00 00 00 00 00
       0.0 0.0 0.0 0.0
000170 00 00 00 00 00 00 00 00 00 00 00 00 00 00 00 00
       0.0 0.0 0.0 0.0
000180 00 00 00 00 00 00 00 00 00 00 00 00 00 00 00 00
       0.0 0.0 0.0 0.0
000190 00 00 00 00 00 00 00 00 00 00 00 00 00 00 00 00
       0.0 0.0 0.0 0.0
0001a0 00 00 00 00 00 00 00 00 00 00 00 00 00 00 00 00
       0.0 0.0 0.0 0.0
0001b0 00 00 00 00 00 00 00 00 00 00 00 00 00 00 00 00
       0.0 0.0 0.0 0.0
0001c0 00 00 00 00 00 00 00 00 00 00 00 00 00 00 00 00
       0.0 0.0 0.0 0.0
0001d0 00 00 00 00 00 00 00 00 00 00 00 00 00 00 00 00
       0.0 0.0 0.0 0.0
0001e0 00 00 00 00 00 00 00 00 00 00 00 00 00 00 00 00
       0.0 0.0 0.0 0.0
0001f0 00 00 00 00 00 00 00 00 00 00 00 00 00 00 00 00
       0.0 0.0 0.0 0.0

action_model._continuous_distribution.log_sigma f4 [1, 2]
000000 00 00 00 00 00 00 00 00
       0.0 0.0

action_model._continuous_distribution.mu.weight f4 [2, 128]
000000 9a 03 74 bc 18 97 e4 bc 3b ea 6e 3c 45 50 37 b8
       -0.014893437 -0.027904078 0.014582212 -4.3705357e-05
000010 df a5 55 3c 75 10 5e bc be d8 bf 3a 23 37 33 bc
       0.013040035 -0.013553728 0.0014636738 -0.010938439
000020 1a c6 c0 3b 20 5f 87 3c b1 44 19 3c 51 2f aa bc
       0.0058829905 0.016524851 0.009354756 -0.020774515
000030 32 29 dc 3b a1 ec 0f bc 53 9f 32 bb 24 ca 42 3b
       0.006718778 -0.008784444 -0.002725561 0.0029722536
000040 07 e6 fd bc f8 7b e6 bc 8c cc 85 bc 85 f9 fb bb
       -0.030993475 -0.028135285 -0.016332887 -0.007689657
000050 47 24 83 bc aa 9e fc bb a8 b8 5c bc d0 4e 42 bb
       -0.01600851 -0.007709344 -0.01347176 -0.0029649027
000060 39 4e 27 3b 87 e4 15 bc 1a b2 d8 3c 8d 72 74 bc
       0.0025528802 -0.009148723 0.026452113 -0.014919889
000070 75 2d df 3c 17 34 46 3c 92 ce 9e 3c 69 d6 24 3c
       0.027243355 0.01209738 0.01938561 0.010060885
000080 93 de 5b bc c5 51 e4 bc 93 80 b9 3c 4b d3 e3 bc
       -0.013419765 -0.027871022 0.022644317 -0.027810713
000090 a7 44 77 bb 4e d1 04 bd 8a 1a cf ba 4f 01 44 bc
       -0.003773013 -0.03242617 -0.0015800756 -0.011963203
0000a0 37 cd 3b bb 2f bc 85 3c a2 12 c6 bc f0 2c a2 3b
       -0.0028656253 0.016325084 -0.024178807 0.0049492046
0000b0 e6 f4 2a bc e0 81 7c bc 72 93 85 3c df 6a f4 3c
       -0.010434365 -0.015411824 0.016305659 0.029836116
0000c0 ab a8 37 bb 13 5f 6a 3b 50 6a d2 3c cf a1 5a bb
       -0.0028024118 0.0035762235 0.02568546 -0.0033360606
0000d0 1d 15 80 3a 7e e5 ac bc d7 fa ca 3c 57 24 37 3c
       0.0009771917 -0.021105524 0.024777813 0.011178098
0000e0 6c 41 85 3c 33 1b 95 bc 55 a1 b8 bb d0 ab d8 bc
       0.016266547 -0.018201446 -0.0056344667 -0.026449114
0000f0 25 ba 21 bc d2 09 54 3c d6 95 0d bc dd dc 28 bd
       -0.0098710405 0.0129417945 -0.008641681 -0.041226257
000100 ab 16 5f bc 3b d5 d9 3c bb e6 6b 3c b9 28 3d 3d
       -0.013616244 0.026590934 0.014398272 0.046181414
000110 4e 7e c5 3b 62 55 ff 3b 4b af 36 3c ea c8 eb 3c
       0.0060270196 0.007792161 0.011150192 0.028782327
000120 10 c4 a0 b9 ba 01 46 3c 20 89 7d bc 7b 1b a8 3b
       -0.00030663656 0.012085373 -0.015474588 0.005130229
000130 4e 0d bf bc 78 82 d4 bb ea 9b 6b 3b 1e 8b a9 3c
       -0.023321774 -0.0064852796 0.0035951086 0.020696219
000140 1d cd d0 bc df 54 f9 bc 6a 7b b0 3c 2f 23 81 3c
       -0.02548843 -0.030435978 0.021543223 0.015763847
000150 62 a9 91 ba af 43 10 3b a7 ad 67 bc 07 9d f7 38
       -0.0011113102 0.0022012999 -0.014140523 0.000118071264
000160 b3 23 39 3c a3 10 d2 bb bb 0d 0b 3d 70 a1 63 bc
       0.011300015 -0.0064106747 0.03394864 -0.01389347
000170 d3 89 23 3b e5 52 69 bb 8c 80 40 3c 58 e2 52 bc
       0.0024953976 -0.0035602388 0.011749398 -0.012871347
000180 07 8e f9 3c e0 48 82 bc 99 37 0c bc 64 4b b3 3c
       0.030463232 -0.01590389 -0.008558177 0.021886535
000190 ad 4b dd 3c c5 49 c4 bc ec 67 9a bc bf a4 6d bc
       0.027013624 -0.023960957 -0.018848382 -0.014504611
0001a0 16 4d 13 bc ba b9 0a ba 00 67 15 3c f5 e5 02 3c
       -0.008990547 -0.00052919576 0.009118795 0.007989396
0001b0 5f a2 d6 3b 06 f0 16 3a bd 2d 3c 3c 80 60 e4 bc
       0.006550118 0.0005757812 0.011485514 -0.027878046
0001c0 25 41 7c 3b 6b 71 e4 3c 73 aa 7d 3c d3 a1 29 3c
       0.0038490978 0.027886113 0.015482533 0.010353523
0001d0 f7 b8 52 3c 10 c9 ea 3b 4b c3 24 3c 83 6e 12 3d
       0.012861482 0.007165082 0.010056327 0.035749923
0001e0 1f 0f c0 3a 94 1e 08 bc 0b 87 fc 3a 1b 42 83 3b
       0.0014652944 -0.008308072 0.001926632 0.004005683
0001f0 0b 3c 36 3c fb 0f aa 3c d3 31 74 bc 27 bd 8a bb
       0.011122714 0.020759573 -0.014904457 -0.0042339745
000200 59 72 c6 3b 0d e7 ad bc 1b 42 b3 3c 9f 9c 98 bb
       0.006056112 -0.021228338 0.021882107 -0.0046573426
000210 b7 b4 90 3c 03 a8 3a 3c 2f 4f ee bc b5 2a 74 3c
       0.017664297 0.011392596 -0.029090492 0.01490276
000220 f7 36 11 bb 24 bc 29 3c f7 54 fd bc e5 b3 1d bd
       -0.0022158006 0.010359798 -0.030924303 -0.03850164
000230 e0 33 1a bc 4a 5f ae bc 23 cf e9 bc 46 4d 8d ba
       -0.009411782 -0.021285672 -0.028541153 -0.0010780476
000240 ba 50 e4 3c 12 8e a3 3b dc 0c 02 bd bb 20 e3 bc
       0.027870525 0.0049913013 -0.031750545 -0.027725568
000250 35 d7 42 bb 34 9a 14 3b 28 98 e0 3c 16 78 8d 3b
       -0.0029730324 0.002267492 0.027416304 0.004317294
000260 8a cc 04 ba 1f a7 5d bc b3 57 1f bb ab ba 42 3c
       -0.0005065879 -0.013528614 -0.0024313747 0.011885325
000270 b8 0c 88 bc 65 bd 2b bc 87 89 73 3b ef 9a 46 3c
       -0.016607627 -0.010482167 0.003716083 0.0121219
000280 08 b0 78 bc 53 6f b1 3c 9d 1f 03 3d 64 78 89 bc
       -0.015178688 0.021659529 0.03201257 -0.01678104
000290 38 ed e0 bb ed 4c e7 b9 e1 fd 1e 3c de 96 06 3d
       -0.006864216 -0.00044117068 0.009704084 0.032858722
0002a0 43 be 64 3c 6e bc a2 bc f5 e5 e8 3b 79 0a 06 3c
       0.013961378 -0.01986524 0.007107491 0.008181208
0002b0 e7 e8 dc 3c 6d 80 7f 3c 48 b6 64 bc 65 aa 85 bb
       0.026966525 0.015594584 -0.013959475 -0.0040791505
0002c0 b7 8f 98 bb aa 11 74 bc 67 3d 2b 3c 67 be ee bc
       -0.004655804 -0.01489679 0.010451651 -0.029143525
0002d0 63 23 b8 ba f7 77 86 3b fb 03 0a 3c a0 86 db 3c
       -0.0014048632 0.0041036564 0.008423801 0.026797593
0002e0 f4 4e 40 bc fb 59 51 3c df 2b b9 bc 47 1c f2 3c
       -0.011737574 0.012777801 -0.022603927 0.0295545
0002f0 85 59 42 bc ee a4 20 bc d0 fb 25 3c bb c6 26 3c
       -0.011862163 -0.009804947 0.010130838 0.010179217
000300 81 cf a0 bc 7b a2 9d 3c 1b a9 21 bc ef 0f 98 bc
       -0.019630196 0.019242516 -0.009866978 -0.018562285
000310 2a 5f fc bc f5 56 91 3c 35 7b db 3b 47 94 d8 bc
       -0.030807097 0.01774166 0.006698037 -0.026437892
000320 10 aa 1c bd 83 a7 a5 3c b5 04 dc 3b 77 85 fd ba
       -0.03824812 0.020221477 0.0067144283 -0.0019342144
000330 4d c9 d3 bc f6 ee 11 3c 67 47 85 3b 30 ef ea 3b
       -0.025852824 0.00890707 0.0040673497 0.0071696267
000340 22 97 9b 3c 80 71 1f bb fb 9c 3b 3d bf 82 e7 bc
       0.018992964 -0.0024329126 0.045804005 -0.028260587
000350 e3 59 fa bb fd 45 ee 3c 52 33 72 bc 30 da 61 bc
       -0.00764011 0.029086107 -0.0147827435 -0.01378493
000360 ad 14 e1 3b 82 92 eb 3b 9a fa 67 3b 0f 2a 80 3c
       0.00686892 0.007189096 0.0035397173 0.015645055
000370 e3 0f 67 3c e8 47 c7 3c b5 6e c3 3b f7 14 42 bc
       0.014102909 0.02432628 0.005964125 -0.011845819
000380 8d d5 e7 3c 1a 2e 94 3c 96 57 4b ba b1 b6 2f 3c
       0.028300071 0.01808839 -0.0007756887 0.010724709
000390 97 d2 c5 bb ab ec 6b 3c f8 98 31 3c bf 6f e2 3b
       -0.006037067 0.014399688 0.010839693 0.006910294
0003a0 47 f3 58 3c 07 9c a3 3c 8f ab a1 3c 73 25 d1 3c
       0.013241596 0.01997186 0.019735126 0.025530552
0003b0 ee a1 b9 bb 73 06 2b 3b b6 5b c2 bc fd b5 7a bb
       -0.0056650555 0.0026096373 -0.023725372 -0.0038255446
0003c0 fa 43 70 bc 91 cf 86 3c 62 b7 86 3b 3e 64 b6 bc
       -0.014664644 0.016456397 0.0041112164 -0.022264596
0003d0 73 23 45 3b ec fd a0 3a a8 0c 95 3c 8d 46 eb 39
       0.0030080944 0.0012282706 0.018194512 0.00044875257
0003e0 1c 3f 98 3c a3 27 5c 3c 18 02 a7 3c 8c 47 b5 3c
       0.01858478 0.0134371845 0.02038674 0.022128843
0003f0 de 9e 14 3d 49 f0 40 bb f4 a6 0c 3c 4a 89 7c 3c
       0.03628432 -0.0029440096 0.008584727 0.015413592

action_model._continuous_distribution.mu.bias f4 [2]
000000 00 00 00 00 00 00 00 00
       0.0 0.0

network_body.linear_encoder.seq_layers.0.weight f4 [128, 6]
000000 45 8a 29 be 41 9d 93 3e ed fc 43 be 59 aa e6 be
       -0.16556652 0.28830913 -0.19139452 -0.4505184
000010 35 fb 40 bd 3b b7 06 3f c4 6d 11 3e 26 cb 47 3f
       -0.04711457 0.5262334 0.14202029 0.78044355
000020 cd 93 14 bf b6 20 1e 3e cb 5b 18 be 94 39 51 3e
       -0.58038026 0.15442166 -0.14878766 0.2043212
000030 ab f2 05 bf 48 5b 1b 3e 86 d3 b2 be 72 47 78 be
       -0.52323407 0.1517154 -0.34927005 -0.24246004
000040 8c 33 ae be 36 c5 40 bf 57 5a 35 bf 99 3b 9e 3e
       -0.34023702 -0.7530092 -0.7084097 0.30904844
000050 ac 05 e4 3e b2 5c c0 3d ce 8a 9c 3e 2e 24 85 be
       0.44535577 0.0939268 0.3057465 -0.26004165
000060 70 65 3e bd 93 a7 49 be db e0 f9 bd 30 74 1c 3f
       -0.046483457 -0.1969283 -0.12201091 0.6111479
000070 f2 a4 98 3e ff cf 24 3e 18 d7 84 be b3 41 8a bc
       0.29813343 0.16094969 -0.25945354 -0.016877031
000080 58 51 0f 3e a4 60 20 bf f5 ca 28 3e 91 98 85 be
       0.13995874 -0.6264746 0.16483672 -0.2609296
000090 67 4a 39 3f 5b 0a bd bd 03 2d 42 3f 46 e8 10 3e
       0.72379154 -0.09230491 0.7584993 0.14151105
0000a0 dc a0 b7 be 78 f6 2f 3f c2 12 f1 3d a1 d1 9a 3d
       -0.35864913 0.68735456 0.11771156 0.07559515
0000b0 06 54 b9 be e1 ab a6 bf 1c b5 24 3e d0 41 53 be
       -0.36196917 -1.3021203 0.16084713 -0.20630574
0000c0 ab 80 3e 3f 65 6f b8 be b8 7b bd be ad 31 e1 3d
       0.7441508 -0.36022487 -0.37008452 0.10995803
0000d0 4a b4 1d 3f 61 5f 23 3f 96 b0 b5 3c 91 5d 21 3f
       0.61603224 0.6381741 0.02217893 0.63033396
0000e0 b3 c7 d1 be 60 41 22 bd c0 ee ca 3e 0d 62 a9 3e
       -0.4097267 -0.039613128 0.39635277 0.3308262
0000f0 f4 63 ca be 05 43 e1 3e dd 46 a8 bd 19 ff 52 3e
       -0.39529383 0.43996444 -0.08216641 0.20605125
000100 cc ee d8 3e f1 1a f7 be 23 e3 13 3d ae a9 a9 be
       0.42369688 -0.48262742 0.036105286 -0.33137268
000110 8d 1e 10 bd b7 7f 60 3e 21 07 53 3e a3 a7 0d bf
       -0.035185385 0.2192372 0.20608188 -0.5533392
000120 3b 1f 4f 3e d0 2b 3c bf 39 a5 78 3d d0 73 ee 3e
       0.20226757 -0.7350435 0.060704444 0.46572733
000130 3d 33 d8 3e ac ee 8c 3e 9a b9 85 3e 01 ef a8 3f
       0.42226592 0.27525842 0.26118165 1.3197938
000140 23 40 2d 3f 17 9c 89 be 6b 28 a6 3e 84 cb 8d 3e
       0.6767599 -0.268769 0.3245271 0.27694333
000150 43 96 5b bf 2c 4e 05 3f fd f9 9f be 68 5b 1a 3f
       -0.85776156 0.52072406 -0.31245413 0.60295725
000160 08 6a 31 3e a4 3f 95 be 66 c6 04 3d ee cf a1 be
       0.17325604 -0.29150116 0.03241577 -0.3160395
000170 71 53 b2 bc 0e e9 6a 3f 24 f6 04 be e5 be b0 bc
       -0.021768304 0.91761863 -0.1298452 -0.0215754
000180 cf a1 d3 be 79 eb c5 3e f9 55 7b bd 20 99 96 3e
       -0.41334388 0.38656214 -0.061361287 0.294137
000190 e1 9a be 3d 6f 12 87 3e 35 5e b0 bd 96 31 65 3e
       0.093068846 0.2638125 -0.086117186 0.22382197
0001a0 67 a6 16 3f 03 92 0b 3e f3 ec 08 bf 07 b4 cf 3e
       0.5884766 0.13629918 -0.53486556 0.40567037
0001b0 6c d9 ca bd 9a 4b bc bd 25 0e 76 be f5 6f 43 be
       -0.09904751 -0.09194107 -0.24028833 -0.19085677
0001c0 6c 33 90 bd 4d a2 48 3e 5e 09 1b bf 7e 13 05 bf
       -0.07041058 0.19593163 -0.6056117 -0.5198287
0001d0 fe ee 01 bf 68 86 ca 3d 2b c2 09 be b8 e8 aa be
       -0.507553 0.09888917 -0.13452975 -0.33380675
0001e0 a3 cb 92 3e 29 90 28 bd 91 36 3a bf 6d d6 74 3d
       0.28670987 -0.041153107 -0.7273951 0.059774805
0001f0 d2 03 a1 be 36 60 01 3f df a9 d6 be 3c a1 ac 3e
       -0.31448227 0.5053743 -0.41926476 0.33716762
000200 f4 f7 60 bd ad 38 82 3e 68 9f 9d 3e 61 6a c3 3e
       -0.054923967 0.25433865 0.3078568 0.38167098
000210 39 cf eb 3e fd ee 60 3e fe 85 b3 be 3e 9c ad 3e
       0.46056536 0.21966167 -0.35063165 0.33908266
000220 49 eb 40 3f cc b6 e0 bd e4 36 87 3e bd ea ef 3e
       0.75359017 -0.10972366 0.26409066 0.4685878
000230 99 23 3c be a9 eb 34 3d 23 95 0b be a0 61 af 3e
       -0.18372954 0.044170056 -0.1363111 0.3425417
000240 c5 7a 19 3e bd 7e 5e be be 4d ec bc 2b 12 4f 3e
       0.14988239 -0.21728034 -0.028845664 0.20221774
000250 c5 8b 3f be e8 49 c4 be ae db 65 bf 73 f8 33 3e
       -0.18705662 -0.38337636 -0.8978833 0.17575245
000260 b3 8b 12 3f 5c e4 05 be 76 de 6a 3e 10 38 03 bf
       0.57244414 -0.13075393 0.22936425 -0.5125742
000270 cc 1d 88 3e dc 28 19 bf db 6c af 3d ed 67 d2 be
       0.26585233 -0.5982797 0.085656844 -0.41094914
000280 9b 46 c7 3c 63 fc 16 be f1 b2 8e be fd c1 85 bf
       0.02432566 -0.14744715 -0.27870896 -1.0449826
000290 4d ad 7f be bb c1 80 be bd 5d 49 be 2f 14 5d bf
       -0.24968453 -0.25147805 -0.19664665 -0.8635892
0002a0 7f 83 8a 3d f1 55 c6 3c 48 46 33 3e e2 dd a9 be
       0.06763362 0.024210902 0.17507279 -0.33177096
0002b0 d0 c3 16 bf 94 bd 83 3d 5c e3 70 3e cc 47 46 bf
       -0.58892536 0.064326435 0.2352423 -0.77453303
0002c0 57 b4 5d be 0c a8 0b be ac 74 87 3e 52 ba 83 3e
       -0.21650825 -0.13638324 0.264562 0.2572809
0002d0 e7 81 0e 3f 79 fb 21 be 87 ab 2e be 14 c8 f3 3c
       0.55666965 -0.15818585 -0.1705762 0.02975849
0002e0 83 3a 60 3e c5 86 c9 3d 74 41 89 be 3c 43 da be
       0.2189732 0.098401584 -0.2680775 -0.4262942
0002f0 69 17 2a 3f a1 0f 90 be 70 b6 28 bf f9 7d fe be
       0.6644197 -0.28136924 -0.6590338 -0.49705485
000300 b9 15 35 3e d5 bd 2a bf 5f c7 02 3f 6f 74 c3 3e
       0.17684068 -0.6669591 0.51085466 0.3817477
000310 0f 83 99 3d e9 8e 1a 3f 17 78 92 3e 3e 0e 62 bf
       0.074957006 0.60374314 0.28607246 -0.8830298
000320 2d 40 f0 3e 9f b8 a2 be 4f 62 d1 3e ac 08 85 3e
       0.46923962 -0.3178148 0.40895316 0.2598318
000330 14 91 5a 3f 55 cb 4c 3e f0 4e dd 3e c6 ec 6f be
       0.8537762 0.1999944 0.43224287 -0.23430166
000340 9c 59 45 3e 0d bb 0c be 3b 34 95 3f 1e c2 15 bf
       0.19272465 -0.13743229 1.1656564 -0.58499324
000350 05 9d 87 bf 40 64 d6 3e 7f 1b 96 be 7a d6 8d 3e
       -1.0594794 0.4187336 -0.29317853 0.27702695
000360 b1 20 aa 3e b5 dc f7 be 48 06 cb be 4f 3a 95 3e
       0.33228067 -0.48410574 -0.3965323 0.29146048
000370 80 82 b0 be ed 55 01 3f fe 2f 79 3e d3 72 ba be
       -0.34474564 0.5052174 0.24334714 -0.3641573
000380 58 93 06 3f f5 80 2e 3f 41 c6 db 3d ce 6b c4 bd
       0.5256858 0.6816552 0.10731173 -0.095908746
000390 e6 29 a3 be ff 25 58 bf 54 46 5d be 3e cc ec be
       -0.31867903 -0.8443298 -0.2160886 -0.46249574
0003a0 4d dc 38 be 06 d0 81 3e a0 3b ed 3e 33 f5 86 bd
       -0.18052788 0.25354022 0.46334553 -0.06589737
0003b0 eb 1f ee bd 8e 4f c9 3d be e2 f7 3e a0 b8 6a be
       -0.116271816 0.09829627 0.48415178 -0.22921991
0003c0 ca a7 4d bf a1 a8 20 bf ae 59 8d 3f 57 24 39 be
       -0.8033415 -0.6275731 1.1042993 -0.18080269
0003d0 bc 86 46 3e 0e 25 46 3e 8e 2d 50 bf 77 a3 54 be
       0.19387335 0.19350073 -0.8131951 -0.20765482
0003e0 64 73 16 be 88 c9 7e be ab c1 0a be b8 3d 99 be
       -0.14692456 -0.24881566 -0.13550441 -0.299299
0003f0 90 c0 37 3d 68 a6 c2 3c 05 3e dc 3d 47 6e 44 3e
       0.044861376 0.02376099 0.10754017 0.19182692

network_body.linear_encoder.seq_layers.0.bias f4 [128]
000000 00 00 00 00 00 00 00 00 00 00 00 00 00 00 00 00
       0.0 0.0 0.0 0.0
000010 00 00 00 00 00 00 00 00 00 00 00 00 00 00 00 00
       0.0 0.0 0.0 0.0
000020 00 00 00 00 00 00 00 00 00 00 00 00 00 00 00 00
       0.0 0.0 0.0 0.0
000030 00 00 00 00 00 00 00 00 00 00 00 00 00 00 00 00
       0.0 0.0 0.0 0.0
000040 00 00 00 00 00 00 00 00 00 00 00 00 00 00 00 00
       0.0 0.0 0.0 0.0
000050 00 00 00 00 00 00 00 00 00 00 00 00 00 00 00 00
       0.0 0.0 0.0 0.0
000060 00 00 00 00 00 00 00 00 00 00 00 00 00 00 00 00
       0.0 0.0 0.0 0.0
000070 00 00 00 00 00 00 00 00 00 00 00 00 00 00 00 00
       0.0 0.0 0.0 0.0
000080 00 00 00 00 00 00 00 00 00 00 00 00 00 00 00 00
       0.0 0.0 0.0 0.0
000090 00 00 00 00 00 00 00 00 00 00 00 00 00 00 00 00
       0.0 0.0 0.0 0.0
0000a0 00 00 00 00 00 00 00 00 00 00 00 00 00 00 00 00
       0.0 0.0 0.0 0.0
0000b0 00 00 00 00 00 00 00 00 00 00 00 00 00 00 00 00
       0.0 0.0 0.0 0.0
0000c0 00 00 00 00 00 00 00 00 00 00 00 00 00 00 00 00
       0.0 0.0 0.0 0.0
0000d0 00 00 00 00 00 00 00 00 00 00 00 00 00 00 00 00
       0.0 0.0 0.0 0.0
0000e0 00 00 00 00 00 00 00 00 00 00 00 00 00 00 00 00
       0.0 0.0 0.0 0.0
0000f0 00 00 00 00 00 00 00 00 00 00 00 00 00 00 00 00
       0.0 0.0 0.0 0.0
000100 00 00 00 00 00 00 00 00 00 00 00 00 00 00 00 00
       0.0 0.0 0.0 0.0
000110 00 00 00 00 00 00 00 00 00 00 00 00 00 00 00 00
       0.0 0.0 0.0 0.0
000120 00 00 00 00 00 00 00 00 00 00 00 00 00 00 00 00
       0.0 0.0 0.0 0.0
000130 00 00 00 00 00 00 00 00 00 00 00 00 00 00 00 00
       0.0 0.0 0.0 0.0
000140 00 00 00 00 00 00 00 00 00 00 00 00 00 00 00 00
       0.0 0.0 0.0 0.0
000150 00 00 00 00 00 00 00 00 00 00 00 00 00 00 00 00
       0.0 0.0 0.0 0.0
000160 00 00 00 00 00 00 00 00 00 00 00 00 00 00 00 00
       0.0 0.0 0.0 0.0
000170 00 00 00 00 00 00 00 00 00 00 00 00 00 00 00 00
       0.0 0.0 0.0 0.0
000180 00 00 00 00 00 00 00 00 00 00 00 00 00 00 00 00
       0.0 0.0 0.0 0.0
000190 00 00 00 00 00 00 00 00 00 00 00 00 00 00 00 00
       0.0 0.0 0.0 0.0
0001a0 00 00 00 00 00 00 00 00 00 00 00 00 00 00 00 00
       0.0 0.0 0.0 0.0
0001b0 00 00 00 00 00 00 00 00 00 00 00 00 00 00 00 00
       0.0 0.0 0.0 0.0
0001c0 00 00 00 00 00 00 00 00 00 00 00 00 00 00 00 00
       0.0 0.0 0.0 0.0
0001d0 00 00 00 00 00 00 00 00 00 00 00 00 00 00 00 00
       0.0 0.0 0.0 0.0
0001e0 00 00 00 00 00 00 00 00 00 00 00 00 00 00 00 00
       0.0 0.0 0.0 0.0
0001f0 00 00 00 00 00 00 00 00 00 00 00 00 00 00 00 00
       0.0 0.0 0.0 0.0

network_body.linear_encoder.seq_layers.2.weight f4 [128, 128]
000000 4f 67 9a 3d f7 19 b5 3d ef da 89 be f6 51 94 3d
       0.07539236 0.08842843 -0.26924846 0.07242195
000010 b2 5c bd bd f2 09 e1 3d 1d 13 74 3d 52 27 e9 bb
       -0.09246196 0.10988225 0.05958854 -0.007115283
000020 4a d2 85 38 a9 65 1e bd 5d e5 17 3d f5 93 fb bd
       6.3811036e-05 -0.03867117 0.037083972 -0.1228408
000030 42 cb a9 3d d1 a6 ae 3d ef 3e 40 bd 67 af 8f 3d
       0.082907215 0.085279115 -0.04693502 0.07015877
000040 a4 65 5d 3d 30 72 0d 3e 7b 3f 02 3d cc 2e e2 3d
       0.05405201 0.1381309 0.03179882 0.11044082
000050 cc d0 e8 3d 9f 21 04 bd d1 4d 11 3d 43 bb 26 be
       0.1136795 -0.032258626 0.035474602 -0.16282372
000060 bb 4c 35 be a1 d3 d0 bd 28 0d 13 bd 4d e6 c6 3c
       -0.17705052 -0.10196615 -0.03590122 0.024279738
000070 2f b8 6e bd ab 04 ee 3d eb 55 e9 3c df fa b1 3d
       -0.05828112 0.11621984 0.028483352 0.08690428
000080 0f 29 7f 3c 8e 50 11 3e 24 c1 16 3d 59 f4 42 bd
       0.015573754 0.14190885 0.036805287 -0.04759631
000090 45 90 ec bd fd 26 5c 3d 48 cc 20 bd 51 50 de bd
       -0.11550955 0.05374812 -0.039257318 -0.10855163
0000a0 82 84 fe 3d 1f af bd b9 28 ae 8c 3d d2 a2 07 bd
       0.124276176 -0.00036179365 0.06869155 -0.033114262
0000b0 6f f1 96 3c ea 4a 11 be 83 18 2f bd 9d b9 ca bd
       0.018425671 -0.14188734 -0.042747986 -0.09898684
0000c0 d6 09 a5 3c 65 de 6f 3d dc c4 fa bd 44 71 e8 bc
       0.020146292 0.0585617 -0.12244579 -0.028374322
0000d0 fa 20 f5 3d 15 0b cf bc ca 1e ae 3c f0 e9 75 be
       0.119691804 -0.025273839 0.021254916 -0.24015021
0000e0 96 98 c5 bd cb 98 15 3d 07 2f c6 bd f3 c0 2d bd
       -0.09648244 0.036522668 -0.096769385 -0.04242034
0000f0 29 ac bd bd f4 6d 47 3e f7 e8 b6 bc 6b 6a 56 be
       -0.092613526 0.19475538 -0.022327883 -0.20939033
000100 6e 15 aa bd 04 76 50 3d c1 9c b1 bc 90 c9 80 3c
       -0.08304869 0.0508938 -0.021681191 0.015721112
000110 63 33 02 be a9 00 9e bd 15 58 47 3c 2c 2b 65 bc
       -0.12714915 -0.0771497 0.0121669965 -0.013987344
000120 30 a9 ba 3c 4f 16 29 bd cd de b5 bd c7 75 db bb
       0.022785753 -0.04128104 -0.088803865 -0.0066973898
000130 04 54 27 bd 62 31 fa bd f8 84 63 3c ef 46 37 bd
       -0.040851608 -0.1221645 0.013886683 -0.044745382
000140 1d c3 01 be 78 1d 31 3d 5b 96 8e 3d ed a1 6b 3d
       -0.12672086 0.043240994 0.06962272 0.05752747
000150 0a 2d 44 3b b2 be 7c 3c 08 68 35 3d d6 83 00 3d
       0.0029934072 0.015426325 0.044288665 0.03137573
000160 18 5a 92 bc c9 9d ab 3c 57 52 fb bd c7 e1 94 be
       -0.017865226 0.020949261 -0.122715645 -0.29078504
000170 fc ff 9e bd d4 ce cc bc 25 b1 58 bd 06 a7 51 bd
       -0.07763669 -0.025000967 -0.052903313 -0.051184677
000180 b8 49 e7 3d f6 80 00 bd cd 50 a1 bc 7c a7 78 be
       0.112933576 -0.031372987 -0.01969185 -0.2428264
000190 b3 5f b1 bb bf 13 91 3d 1d 2e 53 3e 60 31 04 bc
       -0.0054130196 0.070838444 0.2062306 -0.008068413
0001a0 4b ce b3 bc 9c 44 6b bd fe 02 0d 3e 8a 69 28 bd
       -0.021948954 -0.057438478 0.13770673 -0.041116275
0001b0 65 5a 3b 3d b9 c3 c6 bd b7 30 fa bd 4c ec 87 bd
       0.045740504 -0.097053 -0.12216323 -0.06636867
0001c0 3c ba 77 3b 53 05 1a bd 9b 25 3f bd c9 48 2b bc
       0.0037800213 -0.037602734 -0.046666723 -0.010454365
0001d0 be 3b 59 bd 13 b8 3b bc dc 71 18 3d 9d 57 0c 3d
       -0.05303549 -0.011457461 0.03721796 0.034263242
0001e0 33 a5 3a 3d 52 67 1b 3d 77 79 00 bd 4d e0 b6 bd
       0.045567703 0.03794033 -0.031365838 -0.08929501
0001f0 53 75 46 be 55 69 74 3d ff 67 01 be 4a c9 de bc
       -0.19380693 0.059670765 -0.12637328 -0.027195591
000200 43 d1 f6 3c 6c 39 0e 3e 90 56 18 3c 25 6a 9d bc
       0.03012908 0.13889092 0.009297982 -0.019215653
000210 54 96 a1 3d b4 1a 36 be 5c 25 99 3c 1c 3f 36 be
       0.07890001 -0.17783624 0.018694572 -0.17797512
000220 5d d1 eb bb 36 e6 d6 3d b2 9b 1b 3c 49 03 3f bc
       -0.007196589 0.10493128 0.00949757 -0.011658498
000230 32 10 ab bd b2 25 93 3d cd 48 2e bd 6a 54 7e 3d
       -0.083526984 0.07184924 -0.042549897 0.062092222
000240 f5 f8 53 3d d4 84 58 bb 08 d7 d7 bd f7 8c 06 be
       0.051751096 -0.0033038156 -0.10539061 -0.13139711
000250 a6 48 9f bc 31 d1 82 3c 7f 6d 71 bd b5 ef 01 bd
       -0.019443821 0.01596889 -0.058942314 -0.031722743
000260 96 db 17 be 99 28 9e bc cf 3c 89 bb 09 e2 2f bd
       -0.14829859 -0.019306468 -0.004188157 -0.042940173
000270 3a db 8f bd 73 14 a1 3d 06 4d 07 3e 22 28 a2 3c
       -0.07024236 0.078652285 0.13212976 0.019794527
000280 a2 5c 2b be 6c 79 32 be f0 20 40 bd 00 e7 3f 3d
       -0.16734555 -0.17429131 -0.04690641 0.04685116
000290 79 57 23 3e d3 fe ce 3d 88 4a b5 bb 28 52 3a bd
       0.15951337 0.101071976 -0.0055325665 -0.045488507
0002a0 8a 11 6d bd 63 a5 b2 bb 00 62 17 bd a9 c9 1d 3e
       -0.057878055 -0.0054518445 -0.036958694 0.15408958
0002b0 05 b0 08 be c6 f2 ab 3d 21 91 52 bd be 17 5f bd
       -0.13348396 0.08395915 -0.051407937 -0.054466
0002c0 27 f7 21 3e fa 43 64 bd 74 b2 0d 3e f6 f9 ee bd
       0.15816937 -0.05572889 0.13837606 -0.1166877
0002d0 a7 1b 6a 3b 90 06 28 be 5e 21 97 3d a4 7d 30 bd
       0.0035722048 -0.16408753 0.07379411 -0.04308857
0002e0 85 62 ef bc e1 3c ae bd 83 df 64 3d 3c 17 27 3d
       -0.029221782 -0.085077055 0.05587722 0.040793642
0002f0 8f ba ec 3c 53 f8 09 be cb cb 7a bd 9d ec 5e bd
       0.028897552 -0.13473634 -0.06122951 -0.05442487
000300 39 e8 e9 bd 83 6a de 3d e9 10 d1 3c 11 9a e5 3c
       -0.11421246 0.10860159 0.025520759 0.028027566
000310 8e db 49 3c e2 4f 06 3e c6 b3 c3 3c fc 95 f4 3c
       0.012320412 0.1311641 0.023889434 0.029856674
000320 76 3b e9 3a 6b 95 71 bd 27 c6 07 3e 4f bf c5 3c
       0.001779421 -0.058980387 0.13259183 0.024139075
000330 af 94 f2 bd 7b 54 8e bd 79 67 aa bd a8 cb f1 bd
       -0.118447654 -0.06949707 -0.08320517 -0.118064225
000340 d8 07 91 bd 0a 8c 12 be e6 4c cd 3c 30 8e d5 bd
       -0.07081574 -0.14311233 0.025061082 -0.10427511
000350 46 9d 3c bd c9 ac 33 bc 12 6a 0e 3e 29 49 00 be
       -0.046048425 -0.010966488 0.1390765 -0.12527908
000360 19 53 ff b9 63 93 f5 bc c4 ec d3 3c 97 a1 6b 3d
       -0.00048699303 -0.029977506 0.025869735 0.05752715
000370 1e 81 27 bc 1b b5 53 3d 4f e9 d5 3d e3 60 6b bc
       -0.010223655 0.051686388 0.10444891 -0.014366361
000380 41 b6 c0 bd a6 46 f5 bd 21 6f 1f 3e 89 32 3a 3e
       -0.09409762 -0.11976366 0.15569736 0.1818334
000390 41 f9 84 3d 61 70 42 3e 28 b3 18 bd 19 a2 b2 bd
       0.06492854 0.18988182 -0.03728023 -0.08722324
0003a0 b0 ac 0f 3e cb 35 a8 bc 6f 11 d9 bc 54 a4 d2 bc
       0.14030719 -0.020533463 -0.02649757 -0.025713123
0003b0 d9 10 d4 3b c9 e7 93 3c 76 91 51 bd 63 ad 69 3d
       0.006471735 0.01805486 -0.051164113 0.05705012
0003c0 cc a5 47 bd 82 0f a1 bc ee 78 ca ba 6f c9 99 bd
       -0.0487421 -0.019660715 -0.0015447417 -0.075091235
0003d0 b5 75 42 3d 0d 21 af 3c 05 23 64 3d 38 13 16 3e
       0.047475535 0.021378065 0.05569746 0.14655769
0003e0 f4 35 15 bb b3 d7 58 bd aa 77 1a 3d 6e bd 5b bd
       -0.0022767754 -0.05294008 0.037711777 -0.05364745
0003f0 77 d2 0d bd 0c 86 5a 3d f1 2e 15 3e 20 50 b4 bc
       -0.034624543 0.053350493 0.14568688 -0.022010863

network_body.linear_encoder.seq_layers.2.bias f4 [128]
000000 00 00 00 00 00 00 00 00 00 00 00 00 00 00 00 00
       0.0 0.0 0.0 0.0
000010 00 00 00 00 00 00 00 00 00 00 00 00 00 00 00 00
       0.0 0.0 0.0 0.0
000020 00 00 00 00 00 00 00 00 00 00 00 00 00 00 00 00
       0.0 0.0 0.0 0.0
000030 00 00 00 00 00 00 00 00 00 00 00 00 00 00 00 00
       0.0 0.0 0.0 0.0
000040 00 00 00 00 00 00 00 00 00 00 00 00 00 00 00 00
       0.0 0.0 0.0 0.0
000050 00 00 00 00 00 00 00 00 00 00 00 00 00 00 00 00
       0.0 0.0 0.0 0.0
000060 00 00 00 00 00 00 00 00 00 00 00 00 00 00 00 00
       0.0 0.0 0.0 0.0
000070 00 00 00 00 00 00 00 00 00 00 00 00 00 00 00 00
       0.0 0.0 0.0 0.0
000080 00 00 00 00 00 00 00 00 00 00 00 00 00 00 00 00
       0.0 0.0 0.0 0.0
000090 00 00 00 00 00 00 00 00 00 00 00 00 00 00 00 00
       0.0 0.0 0.0 0.0
0000a0 00 00 00 00 00 00 00 00 00 00 00 00 00 00 00 00
       0.0 0.0 0.0 0.0
0000b0 00 00 00 00 00 00 00 00 00 00 00 00 00 00 00 00
       0.0 0.0 0.0 0.0
0000c0 00 00 00 00 00 00 00 00 00 00 00 00 00 00 00 00
       0.0 0.0 0.0 0.0
0000d0 00 00 00 00 00 00 00 00 00 00 00 00 00 00 00 00
       0.0 0.0 0.0 0.0
0000e0 00 00 00 00 00 00 00 00 00 00 00 00 00 00 00 00
       0.0 0.0 0.0 0.0
0000f0 00 00 00 00 00 00 00 00 00 00 00 00 00 00 00 00
       0.0 0.0 0.0 0.0
000100 00 00 00 00 00 00 00 00 00 00 00 00 00 00 00 00
       0.0 0.0 0.0 0.0
000110 00 00 00 00 00 00 00 00 00 00 00 00 00 00 00 00
       0.0 0.0 0.0 0.0
000120 00 00 00 00 00 00 00 00 00 00 00 00 00 00 00 00
       0.0 0.0 0.0 0.0
000130 00 00 00 00 00 00 00 00 00 00 00 00 00 00 00 00
       0.0 0.0 0.0 0.0
000140 00 00 00 00 00 00 00 00 00 00 00 00 00 00 00 00
       0.0 0.0 0.0 0.0
000150 00 00 00 00 00 00 00 00 00 00 00 00 00 00 00 00
       0.0 0.0 0.0 0.0
000160 00 00 00 00 00 00 00 00 00 00 00 00 00 00 00 00
       0.0 0.0 0.0 0.0
000170 00 00 00 00 00 00 00 00 00 00 00 00 00 00 00 00
       0.0 0.0 0.0 0.0
000180 00 00 00 00 00 00 00 00 00 00 00 00 00 00 00 00
       0.0 0.0 0.0 0.0
000190 00 00 00 00 00 00 00 00 00 00 00 00 00 00 00 00
       0.0 0.0 0.0 0.0
0001a0 00 00 00 00 00 00 00 00 00 00 00 00 00 00 00 00
       0.0 0.0 0.0 0.0
0001b0 00 00 00 00 00 00 00 00 00 00 00 00 00 00 00 00
       0.0 0.0 0.0 0.0
0001c0 00 00 00 00 00 00 00 00 00 00 00 00 00 00 00 00
       0.0 0.0 0.0 0.0
0001d0 00 00 00 00 00 00 00 00 00 00 00 00 00 00 00 00
       0.0 0.0 0.0 0.0
0001e0 00 00 00 00 00 00 00 00 00 00 00 00 00 00 00 00
       0.0 0.0 0.0 0.0
0001f0 00 00 00 00 00 00 00 00 00 00 00 00 00 00 00 00
       0.0 0.0 0.0 0.0

value_heads.value_heads.extrinsic.weight f4 [1, 128]
000000 18 86 16 be 1c 52 44 bd cc f5 ed 3d 18 04 14 3d
       -0.1469959 -0.047929868 0.11619148 0.036136717
000010 5e 22 18 be c0 da 4f 3c 70 fb 5d bc e0 a5 fb bb
       -0.1485686 0.012686431 -0.013548717 -0.007679686
000020 30 a2 57 3d 4c fe 27 bd 28 a4 6e 3d ae 34 4c 3e
       0.05264491 -0.041014 0.05826202 0.1994197
000030 cd 98 ba bd e0 a2 b3 3d 06 11 2a 3e e0 07 2c 3c
       -0.09111176 0.087713 0.16608056 0.010499924
000040 e4 9d f5 3d 40 4b 5a bc 18 0a 1f 3e 08 f1 d2 bc
       0.11993006 -0.013323605 0.15531194 -0.025749698
000050 d8 33 84 bd 2c 4f b8 bd b8 50 27 3d 19 41 23 be
       -0.06455201 -0.08999476 0.040848464 -0.15942802
000060 e6 db 0a 3e e4 bd eb 3d a8 6d 39 bd e0 87 1a bc
       0.13560447 0.11510828 -0.045270592 -0.009431809
000070 68 bd d8 3c 7c 00 06 3e 9a 6a 20 be 16 93 18 be
       0.026457503 0.13086122 -0.15665665 -0.14899859
000080 90 df ce 3d 90 73 2d 3d 98 df e2 bd fc e3 25 3e
       0.10101235 0.042346537 -0.110778034 0.1620025
000090 f5 24 21 be 44 0c 5d bd 67 be 5a be 85 a4 49 be
       -0.15736754 -0.053966776 -0.21361695 -0.19691665
0000a0 ba e2 99 bd 24 02 1b 3e ac d1 4f 3e 6b a6 fd bd
       -0.07513948 0.15137535 0.20294827 -0.12385257
0000b0 22 2e 42 be 0e 4c 99 bd 64 5a 05 3e 1e a9 e1 bd
       -0.18962911 -0.074852094 0.13022763 -0.11018585
0000c0 d4 26 4b 3e c4 26 b0 3d 44 45 36 bd 06 d7 08 3e
       0.1983903 0.08601144 -0.04449965 0.13363275
0000d0 00 c8 4c be f8 30 28 3d 28 0d 6b 3d 40 8b b9 3c
       -0.19998169 0.041062325 0.057385594 0.022649407
0000e0 00 ab 3b 3d e0 cf 73 bc a9 e1 bc bd 84 33 21 bd
       0.045817375 -0.014881104 -0.09222729 -0.03935577
0000f0 0b d1 47 be 2e 26 15 be 00 00 59 3d c8 dc 95 3d
       -0.19513337 -0.14565346 0.052978516 0.07317501
000100 2c 07 3d bd c0 1c 22 3e c0 dc 55 bb 76 a7 38 3e
       -0.046149418 0.1583128 -0.0032632798 0.18032631
000110 6e 85 15 be 18 2c 24 be d0 fc 49 3e a0 b6 f5 3d
       -0.1460168 -0.16032445 0.19725347 0.119977236
000120 e8 91 1f be d0 42 75 3d 94 cb 9e bd 00 c7 0c ba
       -0.15583003 0.05987817 -0.07753673 -0.00053702295
000130 3a f2 12 3e 68 70 1e 3e 86 25 31 3e e0 17 8e bd
       0.14350215 0.15472567 0.1729947 -0.069381475
000140 cd a3 52 be 94 50 2e 3e e4 6d 89 3d 5c 17 2a bd
       -0.20570298 0.17022926 0.06710413 -0.041526183
000150 98 61 2a 3e d7 3f d7 bd 74 e6 dd bd 88 59 5a 3e
       0.16638792 -0.10510223 -0.10834971 0.21323216
000160 60 22 72 3c 12 98 9f bd 08 91 50 3d 00 99 9d bc
       0.014778703 -0.07792677 0.050919563 -0.019237995
000170 c6 6b 25 3e fc 02 32 be 49 60 43 be 1c 56 41 3e
       0.16154394 -0.17383951 -0.19079699 0.18880504
000180 50 44 39 3d 10 1b cf 3c e8 c1 32 be 48 ad 0f be
       0.045231164 0.02528146 -0.17456782 -0.14030945
000190 70 b9 c1 bd 88 ec 1d 3e 7d 48 1d be dc ff 0c 3e
       -0.094591975 0.15422261 -0.15359683 0.13769478
0001a0 9c 32 a6 bd 58 1a 1e 3d ec 03 64 bd 18 9e 04 3e
       -0.08115122 0.038599342 -0.055667803 0.12950933
0001b0 80 a4 06 3b 20 62 ef 3d ec 69 8a 3d 00 e1 f5 ba
       0.0020544827 0.11688638 0.06758484 -0.0018759072
0001c0 c0 29 e4 bb 2c 09 5b be 24 b1 13 3e 92 38 54 be
       -0.006962985 -0.21390218 0.14423043 -0.20724705
0001d0 0a de 21 3e cc 9a 13 3e 5c 51 e0 bd 0c 06 cf 3d
       0.15807357 0.14414519 -0.10953018 0.10108575
0001e0 7a 2b 1d be ad a8 35 be 0b 1d e4 bd c2 59 41 3e
       -0.15348616 -0.17740126 -0.11138352 0.18881896
0001f0 ee dc 1a be 60 29 9f 3c 32 42 2b 3e 16 e7 45 3e
       -0.1512334 0.019428909 0.1672447 0.19326434
