UnityMLTutorial_complete/results/Test3/MoveToGoal/MoveToGoal-54366.pt (torch, 438623 bytes, 36 tensors)

network_body.linear_encoder.seq_layers.0.weight f4 [128, 6]
00000000: ca2d e53d 2242 1cbf 20a8 2d3f 7b0d febe
00000010: bd15 0c3f f8c5 3f3e 841a c13e b7bd 9bbd
00000020: 22dc 89be 9c33 923e b9d5 c13e 8650 1d3f
00000030: bc03 37be 05d9 173d 38c8 f1bd 9494 54bf
00000040: 6ffe d9bc d242 00bf fbb2 863e d00b 47bf
00000050: a7ad bb3d 7d45 6e3d e52e 0f3f a992 1d3f
00000060: 12ea ed3d 374b 28bd eed1 0bbe 771d 553f
00000070: af21 113c 3904 83be e10b d43d 6d69 ebbd
00000080: d006 2b3d 98de bd3e 58b3 0a3f 8edd 04bf
00000090: 50b2 a2bd 5875 3e3e 1823 dc3e a435 dbbd
000000a0: ce97 093e 0677 643c d745 d63c 1d41 a3bd
000000b0: d1be dabe 41a0 0fbf b284 adbc 3f26 63be
000000c0: 1b5a 753e 94ee c8be 0b24 1d3e 9e0d cbbe
000000d0: c706 14be 932e 1c3f cbeb e3be 68f7 cbbe
000000e0: fdf4 70be 4043 bbbe 827c e4be f769 fdbe
000000f0: 2b34 05bf 362a 9a3e 6948 1ebf bc09 0f3e
00000100: 5e7e 613e d737 3c3e 7870 cabe c7f9 d33e
00000110: 432c 0d3f 4e88 7bbc d77b e4be 78e1 ef3d
00000120: 5f14 79be 379f b23e d96b 323e 8970 c73e
00000130: 5a05 46be b343 16be 6bab ca3c cd85 013f
00000140: 2cf7 023e aa9e 4bbe 0771 82be 6ad4 0b3f
00000150: 3223 c03d d95e be3e 68af ae3e b6ff bc3e
00000160: 618b 473d d819 e8bd 6bdc 8a3e 5d4e 2b3f
00000170: d154 f5be c528 17bf 8536 81be a75e f5be
00000180: 739b 06bf 6ea7 803f ef8e dd3e e988 e33e
00000190: 9d07 0f3e 6ef2 5f3f 9a7f fabd 2dc2 163f
000001a0: 3436 2c3e c663 de3e 6e71 8cbe 6253 19be
000001b0: a204 71be 95ca 80be e72c cb3e d4b5 a43e
000001c0: ea3d 2dbe 882b 543d f4de 7d3e 954b 0ebd
000001d0: 1cc1 c2be 22ee 3abd 48e6 413e db27 3f3e
000001e0: 8c9a 583e a3f7 3dbd 1d47 993e a967 283d
000001f0: f3d1 aabe a0f9 793e 77aa ab3e db42 603f
00000200: 28d5 593e afbe c9be 6745 71be 3792 3a3e
00000210: 7e34 6fbd d990 03bf a26c 3d3f d6d8 6f3e
00000220: 79a7 b2be 37fb 143f c52d cbbe 4103 af3e
00000230: 49f5 a6bd 23dc a43e 50a0 2dbf 5727 10bf
00000240: 9d65 43bd 5bb5 493e c139 7e3e e3b7 e6bd
00000250: 060e 1fbf 3ee0 e43e 8199 29bf 3bda 20bf
00000260: ccf7 93be 14f3 483f bd11 f03e 762e a73e
00000270: a25f d13e 8bb9 0ebe ac1f 6ebf fca4 d73e
00000280: f4c0 86bd 3c98 423e 8a32 b5be 90bc f43d
00000290: 4050 c03e 239f 8e3e e026 353e d853 3ebf
000002a0: 6d9c e4bd c539 15be e4e8 0c3f 5605 5b3e
000002b0: 8788 c03e 63d0 083f 122b 983e 76d1 ddbe
000002c0: 2989 2abe 2984 c23e c858 223e 3d5a 05be
000002d0: 80ce 693e a0ea 86bf 47f2 833d 36ae 433f
000002e0: 7e81 31bf cc04 d1be 2e32 7a3d 4f1c f3be
000002f0: f111 87bd 073d 0a3f 76f4 acbe 491b 223f
00000300: e34d 8bbe faaa 99be 62d8 973e 7257 243f
00000310: e6bc 023e 5fb3 9e3d a27e d7be cbb3 febd
00000320: 191c 5e3e dcce 56bd 8a81 8ebd 9271 0abe
00000330: 1b91 053f c862 3abe e87e 053f 2be6 b8be
00000340: 5a18 483f 14f9 fd3e 71c4 943e 2736 2e3e
00000350: baf1 9a3e e983 3a3e 72e9 17be d122 58bd
00000360: dcc6 e33e 2170 2d3e 5708 023e fe6c bcbe
00000370: 2720 613d d95c 96be f98c ad3e 3d8a a13e
00000380: 2c20 b9be 3943 863e ad71 fa3e 6035 02bf
00000390: a5ad 343e 5f71 013d ed9f 393e c650 983e
000003a0: c016 463d 56bb 16be 1f35 f6bd cbe8 12bf
000003b0: 5a58 803e d31b 32be 9762 a33d 1603 f53e
000003c0: ff0b 65bc 1cbf 8dbe eb84 adbe 2e28 1a3f
000003d0: fa26 e33e 1b21 063f c358 00bf 0f7b 1d3d
000003e0: 0714 b6bd fbcc 443e 03b6 fcbc 3ca5 34be
000003f0: 5033 303f e23f ba3d 7867 8b3d 7739 1cbf
0.11190374 -0.6103841 0.67834663 -0.4961966 0.5472067 0.18727863 0.37715542 -0.076045446
-0.2692576 0.28555 0.3785837 0.61450994 -0.17872518 0.0370722 -0.11805767 -0.8303921
-0.026610581 -0.5010196 0.26308426 -0.777524 0.09163981 0.058171738 0.5593093 0.6155191
0.11616911 -0.041087355 -0.136543 0.83248085 0.008858128 -0.2558916 0.10353828 -0.11494718
0.041754544 0.37083888 0.54179907 -0.51900566 -0.07944167 0.1859945 0.42995524 -0.107035905
0.13436815 0.013944393 0.02615635 -0.07971404 -0.42723706 -0.56103903 -0.021181438 -0.22182558
0.23960154 -0.3924452 0.1534578 -0.39658827 -0.1445571 0.61008567 -0.44515833 -0.39837193
-0.23530956 -0.36574745 -0.44626242 -0.49494907 -0.52032727 0.3011033 -0.6182924 0.13968557
0.22020862 0.18380676 -0.39538932 0.41401502 0.55145663 -0.015352322 -0.44625732 0.117129266
-0.24324177 0.34887096 0.17423953 0.38953045 -0.19337979 -0.14674263 0.024739942 0.5059479
0.12789601 -0.19884744 -0.25476858 0.54620993 0.09381713 0.37181738 0.341182 0.36913842
0.048716906 -0.11333054 0.2712129 0.6691645 -0.47916272 -0.59046584 -0.25236908 -0.47923777
-0.52580947 1.0051095 0.43273112 0.44440392 0.13967748 0.87479293 -0.12231369 0.5889004
0.16817552 0.43435496 -0.2743029 -0.14973214 -0.23536924 -0.25154558 0.39682695 0.32169974
-0.1691815 0.051799327 0.24792081 -0.03474005 -0.38037956 -0.045637257 0.18935502 0.18667547
0.21152705 -0.046378743 0.29937068 0.041114483 -0.33363304 0.2441163 0.33528492 0.87602013
0.21272719 -0.39403293 -0.23561631 0.18219839 -0.05839967 -0.51392895 0.73993886 0.2342256
-0.34893396 0.58195823 -0.39683357 0.3418217 -0.08152253 0.321992 -0.6782274 -0.5631003
-0.047704328 0.19698088 0.24826719 -0.11265542 -0.62130773 0.44702333 -0.66249853 -0.62832993
-0.28899992 0.7849591 0.46888533 0.32652634 0.40893275 -0.13937967 -0.9301708 0.4211806
-0.06579772 0.19003385 -0.3539012 0.11950028 0.37561226 0.27855787 0.17690611 -0.74346685
-0.11162648 -0.14572819 0.5504286 0.21388754 0.37604162 0.5344297 0.2972036 -0.4332387
-0.16653885 0.37991455 0.1585418 -0.13022704 0.2283268 -1.0540352 0.06442695 0.764377
-0.69338214 -0.40823972 0.06108301 -0.47482535 -0.06595219 0.5399937 -0.3378026 0.63322884
-0.2720786 -0.30013257 0.29657274 0.6419593 0.12767372 0.07749056 -0.420888 -0.124366365
0.21690406 -0.05244337 -0.06958301 -0.13519886 0.5217454 -0.18201745 0.5214677 -0.36113104
0.7816216 0.49604094 0.29056123 0.17012845 0.30262548 0.18214382 -0.14835146 -0.05276758
0.44487655 0.16937305 0.12698494 -0.36801904 0.054962303 -0.29367712 0.33896616 0.3155078
-0.36157358 0.26223162 0.48914853 -0.50862694 0.17644365 0.03160226 0.18127413 0.29749125
0.04836154 -0.147199 -0.12021851 -0.57386464 0.25067407 -0.17393427 0.07977789 0.47853917
-0.013979911 -0.27684867 -0.3389047 0.6021756 0.44365674 0.52394265 -0.5013544 0.038447436
-0.08890539 0.19218819 -0.030848509 -0.17641157 0.68828297 0.09094216 0.068068445 -0.61025184

network_body.linear_encoder.seq_layers.0.bias f4 [128]
00000000: 4f34 523b 55b4 85bb 2853 a4bb 840d bc3b
00000010: a548 0bbb 61a8 eb3a 5318 bdbb 2582 f13a
00000020: e4b9 e0bb 4f03 843c 8ad4 5a3c c661 94bb
00000030: b695 abbb 8085 963b 693e a8ba ff9c 3cbb
00000040: b738 82bb 4ce2 a03a 758c 7cbb e8a4 52bc
00000050: a72a 12bc 6bc1 2f39 0bb3 b2bb 0bcb fb3a
00000060: a06e db3b 9c65 efbb 5195 8a3c 7591 833b
00000070: bb28 03bb f03f 283b eaba a13a 98ae adbb
00000080: 56d6 513b 402f e4ba 8793 843b 02cf 963b
00000090: 726d e2b9 6fb2 03bc b34b d2bb 5402 1d3c
000000a0: 8772 fcbb e713 72bb bed7 34bb 2457 17bb
000000b0: 90e4 803b 30db a5bb d9e1 a43b af02 b0bb
000000c0: 8c3d a0bb f3ca d8bb 956c 453c 621f ca3b
000000d0: d667 38bb 5a1f cdbb a2df 33bc 451a de3a
000000e0: 5215 f8bb c498 0aba b6a8 8ebb 7c25 a5bb
000000f0: 4b8e 323b 4ef6 7639 a045 ae3b ee28 593b
00000100: 0d7c b33b 1ec4 d6bb ecef 423a e805 6cbc
00000110: 02dc 133c e83b 163b a67e 5bbc 3206 34bb
00000120: 428a b0bb 7db3 1cbb eafd 1e3c 2353 8dbb
00000130: df90 623c 225c dc3a bcde b93a d6cc efbb
00000140: c492 5c3b 8293 d8bb 8365 18bb 620f 393c
00000150: 30e0 883b 4325 e33b 113d 7f3b d931 323c
00000160: df01 9a3b f29a 1cbb 423f 90bc 83c2 a8bb
00000170: 3f07 fbbb 54b4 23bc 76e8 513c bee5 1abb
00000180: 7390 11bc 6cc4 383c 63d3 91bb fbe6 e63b
00000190: 2283 4fbb bc29 a13c bb3e e1bb a172 99bb
000001a0: 0f05 753b 82de efbb c59e 71bb 0c7e 0a3c
000001b0: 768f aa3b 82f5 36bb f926 703c 2e86 d0bb
000001c0: a20e 97bb 4d08 63bb 62dc 7c3b f8e6 ae3b
000001d0: 04bb b1bb 61a3 b4bb 19cb b43b a53a 88bb
000001e0: f1b6 e1b8 7d44 c4bb dc5b 8a3c 53d1 c03b
000001f0: 5e72 ad3c f376 903b d050 073c ccd9 9cbb
0.0032074635 -0.004080335 -0.005014796 0.005738916 -0.0021253016 0.0017979258 -0.005770722 0.0018425627
-0.0068580974 0.016114859 0.013356337 -0.004528257 -0.005236353 0.004593551 -0.0012835982 -0.00287801
-0.003974046 0.0012274473 -0.0038535867 -0.0128566995 -0.008921302 0.00016761354 -0.0054534725 0.0019210292
0.006696537 -0.007305814 0.016916903 0.0040151426 -0.002001329 0.0025672875 0.001233903 -0.005300354
0.0032018623 -0.0017409101 0.004045907 0.004602314 -0.00043187622 -0.008038147 -0.0064177155 0.009583075
-0.0077040824 -0.0036938132 -0.0027594413 -0.0023092711 0.003933497 -0.0050615296 0.005031806 -0.0053714137
-0.0048901495 -0.0066159903 0.012049814 0.006168292 -0.0028138063 -0.006259841 -0.010978611 0.0016945085
-0.007570901 -0.0005287046 -0.004353608 -0.005039869 0.0027245458 0.00023552144 0.0053183585 0.0033135968
0.0054774345 -0.0065541407 0.0007436264 -0.014405705 0.009024622 0.002292389 -0.013396895 -0.0027469513
-0.0053875754 -0.0023910694 0.0097040925 -0.004312889 0.013828485 0.0016812126 0.001418076 -0.0073181195
0.0033656815 -0.006609381 -0.0023253865 0.011295171 0.004177116 0.006931932 0.003894631 0.010876142
0.00469993 -0.0023896066 -0.017608289 -0.0051501407 -0.007660776 -0.009991724 0.012811771 -0.0023635472
-0.008884537 0.011277299 -0.004450248 0.007046578 -0.0031663855 0.01967322 -0.006873933 -0.0046828543
0.0037387048 -0.007320226 -0.0036868316 0.0084529035 0.00520509 -0.002791733 0.014657729 -0.0063636517
-0.0046098987 -0.0034642399 0.0038583507 0.005337592 -0.0054239053 -0.0055126403 0.005517375 -0.0041573816
-0.000107629116 -0.0059896098 0.016889505 0.0058843284 0.021172699 0.004408711 0.008259013 -0.0047867056

network_body.linear_encoder.seq_layers.2.weight f4 [128, 128]
00000000: 92d1 15bd 974f ba3d 15f9 09bd 78d2 b73c
00000010: 12d5 9b3d 9695 e5bc 9ac5 643d e3a3 833e
00000020: 15df ac3d 0e6e e83b a3b0 a8bd a7d4 b93c
00000030: ec39 2cbd d6de 893c ac2c 043d 20ec cabd
00000040: ce64 213d ffca bf3c 518f ba3c 8238 0a3d
00000050: ebac c6bd 155c 9dbc 2bc4 b3bd 8f7d be3d
00000060: eb0a ff3d 7ee8 0a3d 3f82 0dbd b735 da3d
00000070: 9fbf 87bd ccc8 df3d 89d0 543c b0f1 35bd
00000080: bf19 c9bd 18c6 c5bd 7f48 25be bd0f 36bd
00000090: 6cba 1bbc d250 bd3d 7593 b3bd b2f6 173d
000000a0: fa98 a8bc 633a 21be 7380 a1bd fa59 b53d
000000b0: 8918 9ebd d9d3 183d 5c78 c4bd f47c 4cbe
000000c0: 37b1 debd 944d 2fbe 41eb 073e 0362 59bc
000000d0: cb95 12be bd28 c0bd 0a8f 91bd 64af 11be
000000e0: ba2e 89bd ab94 6dbc c094 773d 4823 3c3d
000000f0: f660 933d 00f3 1f3e c0a4 f0bd cd18 27bd
00000100: a0fc 8d3d f854 15bd 0185 afbd d210 763c
00000110: 590e b23d 6a2b e73c 6797 eebc 8f26 8fbc
00000120: c383 823d 0dbf e63d a1a5 673c 5b58 e33d
00000130: 4042 dd3d 006e 9ebd 6ee8 d53d e7d2 a93d
00000140: c46b af3d 321b f43d 1e71 61bd 0135 8b3d
00000150: 3079 753d 657c 843d b1b5 d03d 1f8d 023e
00000160: 92cb 9dbc 0184 fa3d 5697 3f3b 6b21 dabb
00000170: ec8a 48be 6c0b 81bd 7d22 b1bd 9ed8 2e3e
00000180: adf2 9cbd 808d 94bc 8a62 31bb 2e9e 7f3c
00000190: 947a fbbd cb6b a3bd bb4f f33c 86cc 533a
000001a0: 83f0 5c3b ce32 7abd d36d bdbd a7b5 953d
000001b0: af2b 893d fa91 c0bd 80c5 483d 3859 3bbe
000001c0: c8bb 33bd a0b4 013d f5b4 f73d 8c8c 98bd
000001d0: 4a0a a93d 3c0d 07bd 2be6 643d 767b ee3d
000001e0: 66ad 32bd b678 193d be2d 223e 4280 09bd
000001f0: 56d0 eb3d 6e0d 203c c78f a2bd a9e1 2abe
00000200: 3df7 2bbe 9c61 c73d a9d8 ae3c d131 3ebe
00000210: 2370 8ebd db0e 0b3e 6f09 b33d 3a71 b13d
00000220: 0827 6e3d 9eea 8bbd 6858 babc 7a5c f9bc
00000230: 443c f53d 59de e33c 2973 413b 5338 d53c
00000240: 28f3 31be 3958 0fbc 9ed1 e0bd 4f46 d33d
00000250: bc90 cb3d e85c 7b3c 3cd1 143e c427 73bd
00000260: 0b05 f6bc a387 91bc e630 273a 8ee2 ddbd
00000270: c714 0ebb 1343 c4bc 20bc 453e 2113 753c
00000280: 678e 153e d53b 73bd a5e1 963d 5e5b d3bd
00000290: edce 4fbc b3ed 32bc 11f2 f13d 2cc8 13bd
000002a0: 6974 e53c 03c3 c2bb 3a92 b9bd 6eb5 113e
000002b0: 5b38 a7bd df1b 66bc 95c6 fa3d 96fc 863d
000002c0: 7937 6abd cf54 093e ead8 153c b0d5 a03c
000002d0: aac0 683d 08c4 91bd 6796 ddbd 4ebd 9e3c
000002e0: 0dfe 78bd 9933 993d 45b7 8cbd bbdc fdbd
000002f0: 1711 dabc b344 193d 7006 01bd aaba 89bd
00000300: 9d19 84bd b4c2 b8bd 6c06 023d fe0b 383c
00000310: ba76 343e 45bd 563d a6e7 93bd 183c fdbc
00000320: 6db2 653d d3a4 2a3c ccad 8ebb 61b7 773d
00000330: 23e0 143d 58aa 823c 0cf3 37bc fcc5 ad3d
00000340: 7778 e53d cf21 0fbd 8465 57bd b3e3 993d
00000350: aa37 d43d 72d8 593e bec4 fc3d 82f2 063e
00000360: 7499 15bc a0dc 22bd 857a 4e3a 0196 85bc
00000370: b43f 81bd 7e7b 8f3d b6c9 213d c62e 55bd
00000380: 0118 0e3a 31b6 1ebe 1a4e 71bb 83e2 14bd
00000390: 187d dfbc 3480 713d bf54 943d c521 893d
000003a0: aa65 3d3e 1ad3 febb fa3c d6bd 7686 d4bc
000003b0: 8c4f e13d c847 03be b5b4 cfbd 8cdf 25bd
000003c0: 01fb 453d 1a3c 05bd feec 6dbe 3ce7 82bd
000003d0: 0107 fa3d 89d1 1fbc bab3 c7bd 76fd 36be
000003e0: 41cf 0c3e b19c 673d fde3 913d 0c61 a93c
000003f0: 2529 503d 09ff 013e f61f 56be 06c6 1b3d
-0.036576815 0.09097212 -0.03368481 0.022439227 0.07608999 -0.02802543 0.05585251 0.25710973
0.08440987 0.0070931977 -0.08236816 0.022684408 -0.042047426 0.01682989 0.032269165 -0.099083185
0.039402775 0.023412226 0.022773417 0.033745296 -0.0970095 -0.019208947 -0.087776504 0.09301292
0.12453254 0.033913128 -0.03454804 0.106547765 -0.06628346 0.10926971 0.012989172 -0.044419944
-0.09819364 -0.09656924 -0.16140936 -0.044448603 -0.009504896 0.09243931 -0.087683596 0.0371005
-0.020580757 -0.15744929 -0.07885828 0.08855052 -0.077195235 0.03731141 -0.09593269 -0.19969541
-0.10873645 -0.17119437 0.13273336 -0.013267997 -0.14314954 -0.0938277 -0.07107361 -0.14227062
-0.066983655 -0.014500777 0.060444593 0.045932084 0.07196228 0.15620041 -0.117501736 -0.040795136
0.0693295 -0.036457986 -0.0857029 0.015018659 0.08694143 0.028218944 -0.029124929 -0.01747444
0.06372788 0.11266909 0.01413861 0.11100837 0.10803652 -0.077358246 0.10444723 0.082921796
0.085654765 0.119192496 -0.055039518 0.06797219 0.059930027 0.06469039 0.10190905 0.12749146
-0.019262109 0.12232209 0.002923449 -0.0066568158 -0.19584244 -0.06301007 -0.08649156 0.1707482
-0.07663474 -0.018133879 -0.002706679 0.015601678 -0.12279239 -0.07979544 0.029701104 0.00080794876
0.0033712692 -0.061083607 -0.09249463 0.07310038 0.06697785 -0.09402843 0.049016476 -0.18295753
-0.043880254 0.031666398 0.12095062 -0.07448682 0.082539156 -0.032971606 0.055883568 0.11644642
-0.043622397 0.037468635 0.15837762 -0.03356958 0.11514346 0.009768827 -0.079375796 -0.16687645
-0.16793533 0.097354144 0.021343546 -0.18573691 -0.06954982 0.13579886 0.08742034 0.086641744
0.05814269 -0.06831859 -0.022747234 -0.030439604 0.119743854 0.027815985 0.0029518104 0.026027834
-0.17377913 -0.008749061 -0.10977481 0.10316145 0.09939715 0.015341975 0.14532942 -0.059364095
-0.030031702 -0.017764872 0.0006377831 -0.108342275 -0.0021679865 -0.023957765 0.19310045 0.014958174
0.14605103 -0.059383232 0.07367257 -0.10320161 -0.012683612 -0.01092093 0.11813749 -0.03607957
0.02800961 -0.0059436574 -0.09061094 0.14229366 -0.08165046 -0.014044731 0.12244908 0.06591146
-0.05718181 0.13411258 0.009145955 0.019633144 0.056824364 -0.07117468 -0.108197026 0.019377377
-0.060789157 0.074805446 -0.068708934 -0.123956166 -0.026619477 0.037419032 -0.03150028 -0.067250565
-0.06450198 -0.09021512 0.031744406 0.011233328 0.17623416 0.052426595 -0.07221918 -0.030912444
0.056078363 0.010415274 -0.0043542143 0.060477618 0.036346566 0.015950367 -0.0112273805 0.08485028
0.112046175 -0.03494435 -0.052587047 0.07514133 0.103621796 0.21273974 0.12342213 0.13178447
-0.009130824 -0.039761186 0.0007876533 -0.016306879 -0.063109785 0.07005976 0.039499007 -0.05204656
0.0005420447 -0.15499188 -0.0036820234 -0.03634883 -0.027281329 0.058960155 0.072427265 0.06695894
0.18495813 -0.00777663 -0.10460849 -0.025943022 0.110015005 -0.12820351 -0.10141889 -0.040496394
0.04833508 -0.03252802 -0.23234937 -0.06391761 0.12208367 -0.009754547 -0.09751077 -0.17870125
0.13750936 0.056545917 0.071235634 0.020676158 0.05082049 0.12694944 -0.2091063 0.038030647

network_body.linear_encoder.seq_layers.2.bias f4 [128]
00000000: 7a4e 7c3a 2648 babb 3759 05bb 119d ff39
00000010: 65f1 833a d843 013c e230 8fbb 509a 033c
00000020: ffd3 093b 234f a53a c2d7 7939 1892 6339
00000030: 49f8 39ba 0cbf 81bb 93ed b93a 60dd d1ba
00000040: bc11 dd3a e7b1 953b 4613 b2bb 19db 933b
00000050: dd96 aebb 8588 873b 5a1f 97bb 2b4a afba
00000060: 2050 c53b f2ce 803b 5c65 85bb 0cce ac3b
00000070: cc4c 143b 98c9 9fbb dd09 38bb 3759 893b
00000080: 4a4d a1bb 6554 0dbb e455 663c 2337 1e3c
00000090: c13b 0abb 4238 513c c8e8 81bb dda6 3a3b
000000a0: be0e 513c 2abc 0b3b 11eb 77ba 41ed 34bb
000000b0: 6c68 1f3b 520e 063c 33fc 023b 9c98 d8b8
000000c0: 88cd a23b e622 8cbb f707 f53b 74fe 153c
000000d0: 4e58 413b b85e d0bb bfb4 c13b d23d 6ebb
000000e0: 29f3 6fba 0552 743b fc18 30bb e783 7e3b
000000f0: 983f a1bb 12f7 84bb df55 063c 0866 3cbc
00000100: 600a 5b3a 86d9 1cba de91 d4bb d6c6 bd3b
00000110: ace5 d6bb 1e9e 3eba cf06 dcbb 8679 1dba
00000120: 7307 633b b911 9e3b 5b15 9ebb 3b01 d0bb
00000130: 7549 a3bb 4900 8e3b f0fa 1e3c 4aa0 08bc
00000140: 7d11 e63a 1c08 36bb 2837 04bc 5d37 95bb
00000150: 0ebc 8e3a 5396 cebb 8f6d 28bb 4c68 86bb
00000160: 89cd 01bb 2f72 a8ba daab d6bb 7999 15ba
00000170: 1bcc 0c3b 6b94 bf3b 5953 df39 d144 97bb
00000180: a0e4 2bba ffc1 9b3b 1028 953b 406b 1bbc
00000190: 2b7d f5ba 0b5a bebb bbe9 b4bb 2c5c a1bb
000001a0: f5ed 433b 32d1 c53b 1cb3 9cba 53aa 0d3b
000001b0: 129d ecbb 958c 60bb c0a4 de3b e077 4ebb
000001c0: 4637 19bb 1c95 a83b 4529 893b 560d 09bc
000001d0: 52e7 ec3a 575b b3bb 72c8 dbba 0660 2f3b
000001e0: 498e 46bc 1848 ceba 7cf3 ecb7 93a5 51bb
000001f0: 2593 e33b 7b39 163b 9a0d 95bb 7ed1 00bb
0.0009624731 -0.0056848703 -0.0020347366 0.00048754414 0.0010066448 0.00788971 -0.004369841 0.008032396
0.00210309 0.0012612086 0.00023826867 0.00021702831 -0.00070941873 -0.003959542 0.0014185183 -0.001601141
0.0016866247 0.0045683268 -0.0054344265 0.0045122025 -0.005328043 0.0041361474 -0.0046118917 -0.0013373544
0.0060215145 0.00393092 -0.004070921 0.005273586 0.0022628782 -0.004876327 -0.002808205 0.0041915434
-0.0049225437 -0.0021565196 0.014058564 0.0096567 -0.0021092745 0.012769761 -0.0039645173 0.0028480806
0.0127598625 0.0021321871 -0.000945733 -0.0027607235 0.0024323715 0.008182125 0.0019986748 -0.00010328108
0.004968349 -0.004276621 0.007477756 0.009154905 0.0029502097 -0.0063589476 0.005911439 -0.0036352766
-0.000915336 0.0037280333 -0.002687036 0.0038835944 -0.004920911 -0.0040577734 0.008199184 -0.0114989355
0.0008355733 -0.0005983341 -0.0064871153 0.0057915254 -0.0065581407 -0.0007271486 -0.006714679 -0.0006007183
0.0034641891 0.00482389 -0.004824323 -0.006347803 -0.004983122 0.00433353 0.009703383 -0.008338997
0.0017552819 -0.002777583 -0.008069791 -0.004553719 0.0010889785 -0.006304541 -0.0025700068 -0.0041017886
-0.0019806346 -0.0012851412 -0.006551248 -0.0005706768 0.002148396 0.00584655 0.00042595973 -0.004616358
-0.00065572 0.0047533507 0.004551895 -0.00948602 -0.001872932 -0.005809074 -0.005521027 -0.004924318
0.0029896472 0.006036901 -0.0011955234 0.0021616414 -0.0072208727 -0.003426348 0.006794542 -0.0031504557
-0.0023378893 0.0051447283 0.004185828 -0.008364996 0.001807431 -0.005473535 -0.0016768111 0.0026760115
-0.012118884 -0.0015738038 -2.8246774e-05 -0.003198956 0.006945031 0.0022922445 -0.0045487406 -0.0019656117

action_model._continuous_distribution.log_sigma f4 [1, 2]
00000000: e4ed 7abb 2db0 1e3b
-0.0038288767 0.0024213896

action_model._continuous_distribution.mu.weight f4 [2, 128]
00000000: 28f4 b1bb 6acd 69bc 6ba1 66bc a089 9cbc
00000010: df62 25bb 19a5 00bd 76f8 86bb 80ce a8bc
00000020: dabd 343c b68d 083d 1455 e43c 4b8a 8ebc
00000030: 51f3 113b 38f7 d9bc 6e24 b93a 1488 133d
00000040: 22d5 5d3b 1e68 7d39 a966 8bbc 8e64 a63b
00000050: dc34 603c f4ee 0e3c f02f 243c c6f3 3cbc
00000060: bb63 91bb 81cd 1c3d 7b2b 44bb f22c a23c
00000070: c1da 8a3b c7eb 8b3c 742e 033c 3ef8 10bd
00000080: a733 223a ccda d4bb ae5f b0bb 872e 1ebb
00000090: 25a1 aa3c 83d2 aabc 0dd3 843c 3807 103c
000000a0: f809 e8bb c4fd 75bc 82bd 2c3c 0156 b8bb
000000b0: cc07 453a 6447 ef3b bcdd 9a3c 8ba2 233c
000000c0: d467 fb3b 43e3 6bbc 9789 febb 2979 16bc
000000d0: aa27 8aba 57a0 173a 3a20 fdbb 43d5 093c
000000e0: 2c87 08bc 63a2 a5bb 898d 35bc 7fd2 6c3c
000000f0: d4d5 a6ba b227 853b b910 15bc 3adb 10bc
00000100: 45a1 abbc 03a8 f2bc 323d 40bb 53e7 d4bb
00000110: e144 153c da16 b6bb 8e8d 0bbc f6f9 f03c
00000120: e0bc fe3b 6e42 783b 43c6 f13c 37ee 2bbb
00000130: 41c5 2c3c 654a bd3c 0ec1 b6bb 51f7 333c
00000140: 1094 0bbd ccef 433c 4a41 23bc e96d 753c
00000150: 62bc debc 0eea 8f3c afa5 68bc 5e8c 943b
00000160: 20bb 723c e414 85bb 2f75 2c3b 9d5f 81bc
00000170: 5d71 88bc 5486 893c b47a a4bb d990 373c
00000180: 01c7 0c3d 065c 603c f28f 98bc 35ad b1b9
00000190: bb7b 75bc 91dd 20bc fce3 363c 9412 b43c
000001a0: 454b 003c 8535 533a 1850 5ebc 0b5b 1bbd
000001b0: d911 0dbb 062c 99bc aa98 f3bc d4b4 e53b
000001c0: daf2 8b3b 00b1 073b b750 fd3b 5929 a63c
000001d0: 2453 e33a 5321 6c3c 9121 c83c 305c 1f3a
000001e0: fa75 8a3c 86bd a73c 0731 823c 5f5f 92bc
000001f0: 1b8d fd39 1701 463b af95 18bb c42f 20bb
00000200: 9d6b 2b3c 9040 813c 6ae3 9abb caea 383d
00000210: 6f15 74bc d67d cf3b ac25 fbba ab1d 64bc
00000220: dd9e 00bc 522f 943c 26c7 13bb 2d78 4bbc
00000230: 363e 4bbc 6c9f 323c cd4e cebb a640 093d
00000240: 0757 bebb 9677 3cbc 2dec 403c 69ec d63c
00000250: eae6 a93c a472 8abc b527 063c e1b1 933b
00000260: c57b 853a 51f7 d8bc d715 633c e4d5 a7bc
00000270: 2488 e53c 4600 d63c b51f 313c 854a fbbc
00000280: c05f 0abc b0d7 87bc 5a20 973c 27e4 113a
00000290: 7f27 bd3b 83b2 d53c d8b0 1f3d 205f b43c
000002a0: faf0 e43c ceca 1d3d 5c3d 73bb 514c 1b3c
000002b0: 91dc 8c3b f418 4e3c 7560 25bc c80c a53c
000002c0: 1ac6 53bc 68ab 2fbb 9688 9abc df9c b3bc
000002d0: fccb e53b 20e9 613c 9769 39bc 77ce 853c
000002e0: 4d52 febc b8d0 563c bf7e 16bb 704e acbc
000002f0: 35fb 793c aac4 bd3b f72c a6bc c8ed b5bc
00000300: 9df8 5a3a beaf 2fbc edd3 483c 834c b23a
00000310: 6dd1 e93b 60ef c2bb bf28 d93b a841 693c
00000320: eaf7 f6bc 45e5 40bc a2fd 543a 970c 483c
00000330: c249 df3c 78cc 9abc d62a 83bc aedb e23c
00000340: 39b2 dcba de8e ec3c a924 e23c 6f94 933c
00000350: f69e a9bc f329 313c f7e7 80bb f913 853c
00000360: c9dd 263b 71c8 be3c 2e58 e53b eb09 c13b
00000370: 92dd 1cbd df67 1a3b e79c cabc 77e8 9a3c
00000380: ebe6 f93b 191f c93c d548 98bb 04f4 1e3b
00000390: 48d7 623c 2cdc 393c 1a99 a63c 2d0c 97bc
000003a0: b8a6 66bc b2a0 bbbc fe5d 9d3c d371 a5bc
000003b0: cb21 c03c 7a07 973c aea2 11bc 5789 373d
000003c0: 661c 213d 5260 783c 49c9 dabb b5f3 a1bc
000003d0: 0781 2ebc 3f67 2b3c 18fe e9bb 3683 34bc
000003e0: 20c0 66bc d1cb ce3c 3bf0 0fbc 16fe e337
000003f0: f2ed 09bd d23c a83b 424a f93c 0c22 283d
-0.005430717 -0.014270166 -0.014076571 -0.019108593 -0.0025235934 -0.03140745 -0.0041189743 -0.02060628
0.011031592 0.03333827 0.0278726 -0.017399928 0.0022270272 -0.02660714 0.0014125237 0.036018446
0.003384896 0.00024166747 -0.017016726 0.005077905 0.013684478 0.008723963 0.010021195 -0.0115327295
-0.0044369376 0.03828192 -0.0029933143 0.019796822 0.0042375033 0.0170802 0.008006681 -0.035392992
0.00061875064 -0.006495809 -0.0053824997 -0.002413662 0.020828793 -0.020852333 0.016213918 0.008790784
-0.0070812665 -0.015014116 0.010543229 -0.005625487 0.00075161154 0.0073022116 0.01890456 0.009987484
0.0076722894 -0.014397445 -0.007767867 -0.00918416 -0.0010540385 0.00057840854 -0.007724789 0.008412662
-0.008333009 -0.0050547584 -0.011081108 0.014454483 -0.0012728521 0.00406357 -0.009098225 -0.00884133
-0.020950923 -0.02962113 -0.002933335 -0.0064973026 0.00911066 -0.0055569233 -0.008517636 0.029416066
0.0077739805 0.0037881392 0.029513484 -0.0026234516 0.010545076 0.023106763 -0.005577213 0.010984258
-0.03407675 0.0119590275 -0.009964297 0.014979818 -0.027189437 0.01756766 -0.014199658 0.0045333346
0.014815122 -0.0040613282 0.0026314964 -0.015792662 -0.016655618 0.016787685 -0.00501951 0.011203968
0.034369472 0.013693815 -0.018623326 -0.0003388912 -0.014983113 -0.009818451 0.011162754 0.021981515
0.007830446 0.0008056986 -0.0135689005 -0.037928622 -0.002152553 -0.01869775 -0.029735882 0.007010082
0.0042708935 0.0020704865 0.007730569 0.020283388 0.0017343503 0.014412242 0.024430068 0.00060791057
0.016901959 0.020476114 0.015892519 -0.017867742 0.00048361052 0.0030213052 -0.0023282578 -0.0024442533
0.010462669 0.015777856 -0.004726817 0.045145787 -0.014897688 0.0063321395 -0.0019161007 -0.013923089
-0.007850376 0.01808897 -0.0022549122 -0.012418789 -0.012404969 0.010902267 -0.006296015 0.03350892
-0.0058087143 -0.011503121 0.011775059 0.026235776 0.020739991 -0.016900368 0.008188178 0.004507289
0.0010183981 -0.026485117 0.0138601875 -0.020487733 0.028019018 0.026123177 0.010810782 -0.030675182
-0.00844568 -0.01658234 0.018448044 0.00055653084 0.0057725306 0.026086098 0.03898701 0.022018015
0.027946938 0.038523488 -0.003711543 0.0094786445 0.0042987545 0.0125791915 -0.010093798 0.020147696
-0.012925649 -0.0026805047 -0.018863957 -0.021925388 0.007012842 0.0137884915 -0.0113166785 0.016333802
-0.031045103 0.013111286 -0.002296373 -0.021033496 0.015257646 0.0057912664 -0.020285113 -0.02220811
0.00083530863 -0.010723053 0.012257558 0.0013603125 0.007135561 -0.005948946 0.0066271718 0.014236845
-0.030147512 -0.011773412 0.00081249524 0.012210033 0.02725685 -0.018896326 -0.016011637 0.027692642
-0.0016837782 0.028876718 0.027605372 0.018015115 -0.020705681 0.010813224 -0.0039339024 0.016244875
0.0025461784 0.023288937 0.006999037 0.005891075 -0.038297243 0.0023560447 -0.02473302 0.018909676
0.0076264045 0.024550961 -0.004647354 0.0024254331 0.013845272 0.011343997 0.020336676 -0.018438423
-0.014077835 -0.022903774 0.019209858 -0.020195877 0.023453614 0.018436182 -0.0088888835 0.04480871
0.039333723 0.015159683 -0.006676827 -0.019769529 -0.01065088 0.0104616275 -0.007140886 -0.011017611
-0.014083892 0.025243672 -0.008785303 2.7178827e-05 -0.033674188 0.0051342035 0.030430917 0.041048095

action_model._continuous_distribution.mu.bias f4 [2]
00000000: 611f 943a 77a5 90bb
0.0011300856 -0.004414256

exp_avg f4 [128, 6]
00000000: 8454 c436 beb5 642a 686c dcb7 5947 cab8
00000010: 0000 0000 0000 0000 dfc8 bab8 f337 f0a9
00000020: cb30 6938 b006 2a38 0000 0000 0000 0000
00000030: 3f76 bdb7 713d aca9 9642 a937 4e8f 2438
00000040: 0000 0000 0000 0000 0a66 cf38 a9af aa2a
00000050: 06b5 e9b8 a7fc 1db9 0000 0000 0000 0000
00000060: 723a 77b9 8eaf 17ab 0cf6 fc38 8f41 d239
00000070: 0000 0000 0000 0000 0251 ab38 71c9 802a
00000080: c013 86b8 9fa0 e8b8 0000 0000 0000 0000
00000090: 7998 d538 52b1 7caa 3416 13b7 2735 1db8
000000a0: 0000 0000 0000 0000 9108 23b7 b71e 28a8
000000b0: 5c59 3a36 cc37 d736 0000 0000 0000 0000
000000c0: 10e1 e8b5 0cdc 8329 8837 1bb7 85f6 c7b7
000000d0: 0000 0000 0000 0000 56e7 0938 f836 92a9
000000e0: 201e 65b5 d0f9 7336 0000 0000 0000 0000
000000f0: 043d 2f38 8ad3 bfaa 3093 cf38 defe 9538
00000100: 0000 0000 0000 0000 11fb 0a39 cef7 242b
00000110: ed41 16b9 ab3c 9db9 0000 0000 0000 0000
00000120: c84e 45b8 64d4 29ab 20d7 2039 1502 7039
00000130: 0000 0000 0000 0000 ec64 8eb7 c059 3ba9
00000140: 2c44 3137 0730 0238 0000 0000 0000 0000
00000150: 7ef1 f838 5e3e 452b 723e 44b9 d6b0 8ab9
00000160: 0000 0000 0000 0000 5c52 8936 00e8 a828
00000170: ee26 beb6 48da 25b7 0000 0000 0000 0000
00000180: 1c20 a537 0474 df2a 4eca 89b8 e6e2 08b9
00000190: 0000 0000 0000 0000 b574 9e39 2e48 d02b
000001a0: c09c b4b9 1076 2bba 0000 0000 0000 0000
000001b0: 5b3a c138 855e cbaa 4225 0338 b45b 8e38
000001c0: 0000 0000 0000 0000 f04e c535 9651 57a9
000001d0: e4af 4b35 96af 6e37 0000 0000 0000 0000
000001e0: d58a 75b8 8666 c1aa 9644 9f38 e10d 0c39
000001f0: 0000 0000 0000 0000 3946 0a38 b5fe 0c2a
00000200: 5420 e5b7 07ee 8db8 0000 0000 0000 0000
00000210: 3379 84b9 f068 7eab c6bc 4c39 62e7 f839
00000220: 0000 0000 0000 0000 9c9d 7b39 6aaa 9e2b
00000230: fa5f 8db9 644e 0fba 0000 0000 0000 0000
00000240: 7693 b338 3e18 cb29 2bc9 8bb8 52bd bcb8
00000250: 0000 0000 0000 0000 e632 08b8 6db6 d9a9
00000260: 8d6f 2338 4e02 59b7 0000 0000 0000 0000
00000270: b0db aeb7 becc aa2a 00b2 3d35 617f 4eb9
00000280: 0000 0000 0000 0000 eec7 d138 0eb8 832b
00000290: 846d 52b9 3b2a aeb9 0000 0000 0000 0000
000002a0: 0036 c7b6 565c a529 47d4 40b8 5bc3 6038
000002b0: 0000 0000 0000 0000 c0db 7a39 6181 3c2b
000002c0: 7b26 4db9 ada7 bbb9 0000 0000 0000 0000
000002d0: 8204 6ab8 aeba 5f2a 2b5b 03b8 800c d735
000002e0: 0000 0000 0000 0000 caa5 87b9 3147 6aab
000002f0: c016 5f39 3b51 e839 0000 0000 0000 0000
00000300: 25ca 7c38 4685 872a dd0b 98b8 5682 d8b8
00000310: 0000 0000 0000 0000 6c96 3039 96aa cb2a
00000320: 3e84 f1b8 756c 70b9 0000 0000 0000 0000
00000330: 2c66 e9b5 396c b1a8 b0af 92b4 a22c 2637
00000340: 0000 0000 0000 0000 3a44 0839 3811 d02a
00000350: 10c4 15b9 c8c5 18b9 0000 0000 0000 0000
00000360: 9767 0db7 8e90 89a8 5a98 5136 179c 1337
00000370: 0000 0000 0000 0000 aaf9 e0b8 8f5a 38aa
00000380: e61b 9638 739d b138 0000 0000 0000 0000
00000390: 8f01 1bb9 687b 16ab 9f46 ed38 a835 ae39
000003a0: 0000 0000 0000 0000 c8b4 0d39 95d6 462b
000003b0: 5d13 2bb9 216f b0b9 0000 0000 0000 0000
000003c0: d48e 03b9 5e58 4faa 7989 0d39 9250 6e38
000003d0: 0000 0000 0000 0000 806a 0539 08a6 0faa
000003e0: 3c8f bc37 8bd4 09b9 0000 0000 0000 0000
000003f0: 6795 90b7 acf5 22a9 b828 2537 2a00 b337
5.851094e-06 2.0313522e-13 -2.6276524e-05 -9.6454e-05 0.0 0.0 -8.906586e-05 -1.0667847e-13
5.559697e-05 4.0537387e-05 0.0 0.0 -2.2585618e-05 -7.648993e-14 2.0177376e-05 3.923411e-05
0.0 0.0 9.8895354e-05 3.0319955e-13 -0.00011144024 -0.00015066807 0.0 0.0
-0.00023577528 -5.388961e-13 0.00012062126 0.00040103166 0.0 0.0 8.169004e-05 2.2877146e-13
-6.393297e-05 -0.0001109254 0.0 0.0 0.00010185032 -2.2443617e-13 -8.767052e-06 -3.748122e-05
0.0 0.0 -9.717552e-06 -9.332534e-15 2.7768174e-06 6.413995e-06 0.0 0.0
-1.7350849e-06 5.855741e-14 -9.251649e-06 -2.3837443e-05 0.0 0.0 3.2878794e-05 -6.493238e-14
-8.5352985e-07 3.6355232e-06 0.0 0.0 4.1780077e-05 -3.40752e-13 9.897945e-05 7.1523464e-05
0.0 0.0 0.00013254235 5.86084e-13 -0.00014329674 -0.00029990575 0.0 0.0
-4.704183e-05 -6.033561e-13 0.0001533893 0.00022888959 0.0 0.0 -1.6974715e-05 -4.1600187e-14
1.0565895e-05 3.1039144e-05 0.0 0.0 0.00011870543 7.007501e-13 -0.0001871528 -0.00026453164
0.0 0.0 4.092506e-06 1.875236e-14 -5.6669733e-06 -9.885589e-06 0.0 0.0
1.9684485e-05 3.969326e-13 -6.570351e-05 -0.00013054497 0.0 0.0 0.00030223062 1.4799323e-12
-0.00034449063 -0.0006540725 0.0 0.0 9.213827e-05 -3.612563e-13 3.1267533e-05 6.788169e-05
0.0 0.0 1.4700618e-06 -4.7810355e-14 7.587935e-07 1.4226787e-05 0.0 0.0
-5.854185e-05 -3.4354827e-13 7.594486e-05 0.0001335661 0.0 0.0 3.2967164e-05 1.2522867e-13
-2.7313981e-05 -6.76774e-05 0.0 0.0 -0.00025267302 -9.038456e-13 0.0001952528 0.0004747464
0.0 0.0 0.0002399594 1.1273875e-12 -0.00026965124 -0.0005466698 0.0 0.0
8.562852e-05 9.019216e-14 -6.665507e-05 -8.999802e-05 0.0 0.0 -3.247233e-05 -9.668382e-14
3.8966118e-05 -1.29347445e-05 0.0 0.0 -2.0844716e-05 3.0340135e-13 7.066701e-07 -0.00019693143
0.0 0.0 0.000100031364 9.359195e-13 -0.00020067958 -0.0003321933 0.0 0.0
-5.9369486e-06 7.34349e-14 -4.5974066e-05 5.35877e-05 0.0 0.0 0.00023923721 6.6970566e-13
-0.00019564659 -0.00035792348 0.0 0.0 -5.5794146e-05 1.9871146e-13 -3.131774e-05 1.6022386e-06
0.0 0.0 -0.0002587273 -8.32323e-13 0.00021275412 0.0004431101 0.0 0.0
6.0269744e-05 2.4073294e-13 -7.2501345e-05 -0.000103239596 0.0 0.0 0.00016840704 3.6178412e-13
-0.000115164075 -0.00022928587 0.0 0.0 -1.7389589e-06 -1.9697882e-14 -2.732245e-07 9.904763e-06
0.0 0.0 0.00012995387 3.696017e-13 -0.00014282786 -0.00014569529 0.0 0.0
-8.428374e-06 -1.5272746e-14 3.1232107e-06 8.798225e-06 0.0 0.0 -0.00010727656 -1.6373902e-13
7.157754e-05 8.469345e-05 0.0 0.0 -0.00014782533 -5.3461966e-13 0.00011314195 0.00033227843
0.0 0.0 0.00013514154 7.0641523e-13 -0.00016315044 -0.00033652133 0.0 0.0
-0.00012546341 -1.8415952e-13 0.0001349802 5.681866e-05 0.0 0.0 0.00012723543 -1.2758555e-13
2.2478045e-05 -0.00013144517 0.0 0.0 -1.7235709e-05 -3.6184312e-14 9.844247e-06 2.133854e-05

exp_avg_sq f4 [128, 6]
00000000: 5130 b133 9045 8b17 d523 4734 0937 4934
00000010: 0000 0000 0000 0000 94e0 0332 b5be 3116
00000020: 84e1 9032 7242 f932 0000 0000 0000 0000
00000030: 34b6 4831 49dd bd14 86dd 4331 0b18 a631
00000040: 0000 0000 0000 0000 e0e2 3d33 2845 9017
00000050: fee6 2b34 8888 5b34 0000 0000 0000 0000
00000060: 3563 f234 630e 5d18 6483 c234 1980 2835
00000070: 0000 0000 0000 0000 fcb2 5d32 8bbc 4416
00000080: b473 cd32 fb03 0133 0000 0000 0000 0000
00000090: 22a3 2134 42d2 df17 1e87 8c34 b839 a734
000000a0: 0000 0000 0000 0000 8350 992f 9a20 9913
000000b0: cf68 0b30 2554 5330 0000 0000 0000 0000
000000c0: d702 0432 6bb2 7715 b1bf 1932 1091 3532
000000d0: 0000 0000 0000 0000 d018 8d31 441c c414
000000e0: b58a b630 f73a 6f31 0000 0000 0000 0000
000000f0: 1863 3c34 f524 8817 9e0e ae33 1aed 3d34
00000100: 0000 0000 0000 0000 107d 5e34 f7ed bd17
00000110: 72ac 3534 d085 ad34 0000 0000 0000 0000
00000120: 5b10 7834 dd08 8318 4dbe 2435 2cc2 5d35
00000130: 0000 0000 0000 0000 7964 1c31 5150 d314
00000140: a195 4d31 c08d 9931 0000 0000 0000 0000
00000150: 4dcd 3e34 081c cf17 8491 4634 bb83 b934
00000160: 0000 0000 0000 0000 19ab 012f 20d3 9e12
00000170: 5d4c 192f dbab 462f 0000 0000 0000 0000
00000180: ca5c c533 2f32 4e17 5a7d e633 1982 4134
00000190: 0000 0000 0000 0000 f6f9 1635 2095 a418
000001a0: 798e 3135 8c0b 9735 0000 0000 0000 0000
000001b0: a0d2 3a34 3fb6 dc17 b11e 8134 53db a434
000001c0: 0000 0000 0000 0000 90ac b830 3fab eb14
000001d0: 8a68 8b30 ac4b 8f31 0000 0000 0000 0000
000001e0: e3ee fe32 a8fb cb16 2148 8b33 dbde ab33
000001f0: 0000 0000 0000 0000 4d92 2a32 a75c 9115
00000200: 9326 f831 e207 2c32 0000 0000 0000 0000
00000210: 30a3 0935 d186 8318 27c9 0435 a2cc 5c35
00000220: 0000 0000 0000 0000 e15e ff34 6bbd 5b18
00000230: bc95 e634 d61c 5035 0000 0000 0000 0000
00000240: 932a ad31 e797 8315 0804 2432 b627 5032
00000250: 0000 0000 0000 0000 1d5a 4433 988b d416
00000260: 985a 4433 2be2 b133 0000 0000 0000 0000
00000270: 05b9 2832 9ba7 6d16 8ec5 8d31 de79 1133
00000280: 0000 0000 0000 0000 7ea5 9934 df07 3918
00000290: a9e7 cf34 cb44 1e35 0000 0000 0000 0000
000002a0: ff83 2633 ca81 2217 058e 5533 7f74 c533
000002b0: 0000 0000 0000 0000 cc7b 9933 5b85 6917
000002c0: 2876 db33 4177 3934 0000 0000 0000 0000
000002d0: 2058 de33 f820 7117 9c5e e333 7aa0 2434
000002e0: 0000 0000 0000 0000 1a14 b934 ce85 2c18
000002f0: 587c b834 c3ed 1235 0000 0000 0000 0000
00000300: 3703 2133 35f2 0217 de3a 9133 3b27 e433
00000310: 0000 0000 0000 0000 24ad f933 9119 3d17
00000320: 1327 8633 0ae8 3034 0000 0000 0000 0000
00000330: cc60 7b31 72ed ea15 9e45 8632 e279 8a32
00000340: 0000 0000 0000 0000 f6b7 1e33 55d0 7217
00000350: 2b2c ec33 1e6f 4534 0000 0000 0000 0000
00000360: 149b ea31 6145 6915 356a b031 383c da31
00000370: 0000 0000 0000 0000 9c55 bb31 a869 8915
00000380: 736e 7731 c9c4 3e32 0000 0000 0000 0000
00000390: fc48 9134 10cc 0418 c55b 8f34 8b2e d534
000003a0: 0000 0000 0000 0000 359d 5e34 9b85 c017
000003b0: 78b7 6734 2549 b334 0000 0000 0000 0000
000003c0: 80ab 7c33 83de 8f17 de4f f633 048a 5934
000003d0: 0000 0000 0000 0000 4a89 c134 fd92 4a18
000003e0: fde1 c034 ca0f 1635 0000 0000 0000 0000
000003f0: 3432 9631 afb0 e814 8da6 1831 2bed 6431
8.2509935e-08 9.000225e-25 1.8546355e-07 1.8739605e-07 0.0 0.0 7.676267e-09 1.4358123e-25
1.6866359e-08 2.9017631e-08 0.0 0.0 2.92074e-09 1.9171405e-26 2.8502156e-09 4.8339692e-09
0.0 0.0 4.4211333e-08 9.323239e-25 1.600965e-07 2.0445634e-07 0.0 0.0
4.5148195e-07 2.8570844e-24 3.6230915e-07 6.2771284e-07 0.0 0.0 1.2904589e-08 1.5892248e-25
2.3917757e-08 3.0038773e-08 0.0 0.0 1.5053641e-07 1.4464114e-24 2.6175343e-07 3.114817e-07
0.0 0.0 2.7887745e-10 3.8654778e-27 5.071685e-10 7.688093e-10 0.0 0.0
7.684057e-09 5.0022e-26 8.949358e-09 1.056857e-08 0.0 0.0 4.106461e-09 1.9802091e-26
1.3281666e-09 3.4812595e-09 0.0 0.0 1.7544914e-07 8.798123e-25 8.105165e-08 1.7688254e-07
0.0 0.0 2.0720859e-07 1.22739095e-24 1.6919674e-07 3.2321122e-07 0.0 0.0
2.310275e-07 3.3871656e-24 6.1371685e-07 8.2611473e-07 0.0 0.0 2.27581e-09 2.1337235e-26
2.991648e-09 4.469001e-09 0.0 0.0 1.7769817e-07 1.3384138e-24 1.8493125e-07 3.4554782e-07
0.0 0.0 1.1793268e-10 1.0023248e-27 1.3942399e-10 1.806905e-10 0.0 0.0
9.1904056e-08 6.662553e-25 1.0733011e-07 1.8021855e-07 0.0 0.0 5.6243096e-07 4.2543584e-24
6.6144963e-07 1.1253737e-06 0.0 0.0 1.7399225e-07 1.4263172e-24 2.4050453e-07 3.070696e-07
0.0 0.0 1.3436807e-09 2.379648e-26 1.0143293e-09 4.1704507e-09 0.0 0.0
2.9678125e-08 3.2955236e-25 6.485812e-08 8.003345e-08 0.0 0.0 9.928567e-09 5.8711213e-26
7.2221353e-09 1.001351e-08 0.0 0.0 5.1273946e-07 3.3998836e-24 4.9466547e-07 8.2254167e-07
0.0 0.0 4.7566485e-07 2.8400718e-24 4.2949785e-07 7.7528e-07 0.0 0.0
5.039803e-09 5.315014e-26 9.546973e-09 1.2116223e-08 0.0 0.0 4.5716764e-08 3.4338543e-25
4.57172e-08 8.2833445e-08 0.0 0.0 9.820956e-09 1.9197594e-25 4.1260995e-09 3.387128e-08
0.0 0.0 2.8618882e-07 2.3914663e-24 3.872531e-07 5.8959694e-07 0.0 0.0
3.8769937e-08 5.250884e-25 4.9722093e-08 9.194718e-08 0.0 0.0 7.147136e-08 7.545468e-25
1.0219475e-07 1.7272852e-07 0.0 0.0 1.03537104e-07 7.791291e-25 1.05877206e-07 1.5332071e-07
0.0 0.0 3.447356e-07 2.2298033e-24 3.4363143e-07 5.473523e-07 0.0 0.0
3.7488658e-08 4.2310974e-25 6.7627965e-08 1.0624213e-07 0.0 0.0 1.162646e-07 6.1101463e-25
6.246969e-08 1.6475693e-07 0.0 0.0 3.658033e-09 9.488647e-26 1.5631311e-08 1.612074e-08
0.0 0.0 3.6954553e-08 7.845737e-25 1.09976405e-07 1.8387479e-07 0.0 0.0
6.8279267e-09 4.7108706e-26 5.1343485e-09 6.351481e-09 0.0 0.0 5.452149e-09 5.5500556e-26
3.6006014e-09 1.1104199e-08 0.0 0.0 2.7061458e-07 1.7163625e-24 2.6702597e-07 3.9708206e-07
0.0 0.0 2.0732553e-07 1.2441436e-24 2.1580297e-07 3.3394568e-07 0.0 0.0
5.88293e-08 9.297328e-25 1.14697954e-07 2.025991e-07 0.0 0.0 3.6048942e-07 2.6182098e-24
3.5927215e-07 5.590233e-07 0.0 0.0 4.371282e-09 2.3495703e-26 2.2213584e-09 3.331318e-09

exp_avg f4 [128]
00000000: 8002 e2b7 28f9 3d37 9cdd 3737 8e85 30b8
00000010: 4eec ea38 a0f5 01b8 aba6 2fb7 8d77 f035
00000020: 176c dfb6 a84c 8835 b297 a737 0caf afb8
00000030: 2c15 8638 0876 1137 36f6 9ab8 684f 39b6
00000040: 18f2 18b8 a693 3fb9 300f 9f37 1558 8536
00000050: 327c 1c38 ae94 9eb7 6c0d 0b39 601e 20b9
00000060: d6e1 d2b7 ac77 72b6 3bb9 66b8 0e99 c2b8
00000070: c621 7b37 9eab d1b8 4047 f034 45c9 0139
00000080: e0e8 f1b7 9d50 86b8 6bab 3936 12b2 2ab8
00000090: 53ed 2436 d973 c637 c5a5 c238 0e22 c5b8
000000a0: 0323 8537 1600 1ab8 3000 c836 1874 8738
000000b0: ec94 dab6 085b 72b6 7844 30b6 7670 dd38
000000c0: d06b 8038 ed13 a638 0e9e 5a38 077c 8ab8
000000d0: 5ef7 2238 6016 cd38 e07d cb35 25d3 86b8
000000e0: 4cda 8138 eba9 0eb8 280b 92b8 869d d838
000000f0: fef7 bcb7 a657 38b7 5318 1cb8 2a45 d1b8
00000100: 5079 cab8 f0b8 e8b6 d6fb f938 d6cf 5c37
00000110: e984 48b8 e298 10b9 16fb 9937 d6ef 1b37
00000120: dd22 d5b8 d4e8 0ab7 aeb4 8db6 0042 9134
00000130: 5602 22b8 23b2 d537 56da bdb7 3a63 85b6
00000140: 0250 0bb8 ed63 c438 c2fc 9539 c0d8 beb8
00000150: b21d d2b7 5cf8 26b8 6041 8136 99c1 29b7
00000160: b230 d6b8 202d a3b5 f87d 8c36 fb4f 86b7
00000170: f02f d738 041b a936 404a 5537 822c 8138
00000180: 2fe2 48b8 0042 25b9 04a8 67b8 bc42 13b8
00000190: e8bf 0d38 33b8 27b7 1242 7a36 7a95 50b7
000001a0: ea44 8db7 3a36 3936 c3d2 2f36 a4c0 19b7
000001b0: fb2a 2936 2563 f1b7 0fe6 85b5 e403 e438
000001c0: aa7a ec38 6495 1eb6 8ab9 dfb5 b133 a4b8
000001d0: 7e29 d9b7 6854 4c38 63fd 17b8 d7a6 09b6
000001e0: 4da1 6a36 515e 2237 98a2 9fb6 51f0 8db8
000001f0: c794 b7b7 e13b 2ab6 5a98 15b9 e1df 83b8
-2.6942464e-05 1.1323289e-05 1.0959247e-05 -4.2086052e-05 0.00011202005 -3.0984753e-05 -1.0469618e-05 1.7916187e-06
-6.658501e-06 1.01551e-06 1.997859e-05 -8.377255e-05 6.3935615e-05 8.670155e-06 -7.3891526e-05 -2.7613369e-06
-3.646509e-05 -0.00018270183 1.896135e-05 3.973963e-06 3.7308964e-05 -1.8904302e-05 0.00013261073 -0.00015270105
-2.5139114e-05 -3.6130468e-06 -5.5008783e-05 -9.2791495e-05 1.4968629e-05 -9.997863e-05 4.4755325e-07 0.00012377377
-2.883788e-05 -6.404633e-05 2.7666927e-06 -4.0697e-05 2.4576045e-06 2.3657385e-05 9.281518e-05 -9.400035e-05
1.587114e-05 -3.671654e-05 5.9604863e-06 6.458926e-05 -6.514243e-06 -3.6113797e-06 -2.6265898e-06 0.00010559049
6.123597e-05 7.919208e-05 5.212245e-05 -6.603455e-05 3.885419e-05 9.7793294e-05 1.5161313e-06 -6.428947e-05
6.19186e-05 -3.4013687e-05 -6.9639005e-05 0.00010329024 -2.2526827e-05 -1.0987662e-05 -3.7215952e-05 -9.9787794e-05
-9.654707e-05 -6.9356684e-06 0.00011920153 1.3161412e-05 -4.7807498e-05 -0.00013789863 1.8355942e-05 9.294561e-06
-0.00010163125 -8.2796505e-06 -4.2231613e-06 2.7056376e-07 -3.8625985e-05 2.547453e-05 -2.2632226e-05 -3.9752604e-06
-3.3214696e-05 9.364621e-05 0.00028607814 -9.100279e-05 -2.5047779e-05 -3.9808787e-05 3.8521102e-06 -1.011826e-05
-0.000102133854 -1.215758e-06 4.18699e-06 -1.6011289e-05 0.00010260928 5.0397375e-06 1.2713077e-05 6.1594896e-05
-4.7894366e-05 -0.00015760213 -5.523117e-05 -3.5109682e-05 3.3795746e-05 -9.996863e-06 3.729136e-06 -1.2432569e-05
-1.68406e-05 2.7598712e-06 2.6199712e-06 -9.164363e-06 2.520798e-06 -2.8775607e-05 -9.976228e-07 0.00010872612
0.00011276205 -2.3630791e-06 -1.6668794e-06 -7.829758e-05 -2.5887737e-05 4.8716e-05 -3.623719e-05 -2.0511704e-06
3.4962607e-06 9.677912e-06 -4.7574977e-06 -6.768166e-05 -2.188458e-05 -2.5366828e-06 -0.00014266503 -6.2882675e-05

exp_avg_sq f4 [128]
00000000: 6932 7b32 8196 1b31 045a cf2f 6508 8932
00000010: 255b 5233 1b10 2131 b0c3 d032 5be9 832e
00000020: faaa 6230 de53 952f 9f1a 6d32 3da0 d832
00000030: f86b 8a33 50b2 bf2f ac98 e732 7f05 782d
00000040: 6593 7132 9990 bc33 9fce cd32 ece3 b22f
00000050: 2e90 d631 6bc3 5630 afd2 8933 6ce7 8133
00000060: 31ee 8130 de11 de31 c29c 3531 3195 4533
00000070: ca80 f631 1b89 6732 3885 4d32 056d 3733
00000080: ce69 0e32 9ad9 5c32 a2df ac30 057a 7632
00000090: f338 0830 e227 6e30 7211 0533 06d2 df32
000000a0: b6c9 8732 4b56 3b33 5ee5 8e2f 90be 5632
000000b0: 8276 0c2f 3ee5 3230 00ac 5532 7db4 0f33
000000c0: cc7b d832 ca60 0a32 c4f8 0c32 bd00 d732
000000d0: 5c5b 0d31 3197 2232 4b21 462f a1b6 3932
000000e0: b42e c332 8c8f 7331 7fd7 b232 e618 f432
000000f0: 6733 d031 ac24 e632 abcf 7232 ffca ad32
00000100: 8b94 9132 8a71 0b33 b60e f632 8e4f 0130
00000110: 0ae4 8d32 7644 8a33 5c16 8630 b0da 3631
00000120: 808e 8d32 921c e82f 835e 842f 5058 0531
00000130: e086 f030 15bf 8a30 fb58 7d30 b394 1731
00000140: 4a5f c431 eb85 a632 3901 3734 f5d2 7432
00000150: 238b 3e32 0f1d c331 94cf a331 dfec 1730
00000160: e50b 8b32 849c d02e 1e07 942e 1737 3031
00000170: 8724 c132 fa3e 1a30 9b92 9631 001f 5432
00000180: ce3a 4f32 fcaf e633 ade2 1333 898c 6f30
00000190: d6a6 dc31 6927 082f 1b64 282e e5b4 9c32
000001a0: 73c7 8031 45b8 0230 1a62 b12d 08b9 b431
000001b0: f59f 0331 ac90 8b30 e98d 0d2e 7d3b e532
000001c0: 17f4 4333 5a5c e731 e8a8 a52e b08e 8132
000001d0: 7d11 0c33 0051 2b32 7626 d230 2918 902f
000001e0: 546b c030 7078 1730 be0f 572e d2da 8132
000001f0: b544 652f 4fdd eb31 e6ef ab32 2552 4b32
1.4621585e-08 2.264102e-09 3.771704e-10 1.5952716e-08 4.897733e-08 2.3437738e-09 2.4303375e-08 5.9986426e-11
8.2461293e-10 2.7162533e-10 1.3801269e-08 2.5218577e-08 6.445765e-08 3.4869396e-10 2.6961366e-08 1.4098388e-11
1.406156e-08 8.7807344e-08 2.3959101e-08 3.253996e-10 6.244611e-09 7.813045e-10 6.417883e-08 6.049126e-08
9.453683e-10 6.4630816e-09 2.6428073e-09 4.6003326e-08 7.174184e-09 1.3477144e-08 1.1962861e-08 4.270716e-08
8.289545e-09 1.2855162e-08 1.2578207e-09 1.4346829e-08 4.955744e-10 8.664057e-10 3.0982342e-08 2.6056124e-08
1.5807796e-08 4.3617813e-08 2.5992625e-10 1.2499768e-08 1.2775028e-10 6.5081796e-10 1.243734e-08 3.3458935e-08
2.5202006e-08 8.0546645e-09 8.205635e-09 2.502963e-08 2.0570132e-09 9.464018e-09 1.8019823e-10 1.0809942e-08
2.2722226e-08 3.544275e-09 2.0819924e-08 2.8416661e-08 6.0594405e-09 2.67922e-08 1.4133472e-08 2.0232163e-08
1.6947771e-08 3.2466723e-08 2.8644859e-08 4.704298e-10 1.651826e-08 6.438579e-08 9.756138e-10 2.6608795e-09
1.6479362e-08 4.2220855e-10 2.4077815e-10 1.9404247e-09 1.7500632e-09 1.009513e-09 9.216731e-10 2.2057918e-09
5.715184e-09 1.9385842e-08 1.7043648e-07 1.4250635e-08 1.1091092e-08 5.6785505e-09 4.7675233e-09 5.5270094e-10
1.6187139e-08 9.486548e-11 6.731525e-11 2.5642686e-09 2.2484768e-08 5.611437e-10 4.3822417e-09 1.2347073e-08
1.20623564e-08 1.0742221e-07 3.4432265e-08 8.7147406e-10 6.4218098e-09 1.2383129e-10 3.828769e-11 1.8243052e-08
3.747965e-09 4.755559e-10 2.0166136e-11 5.259725e-09 1.9153934e-09 1.0154699e-09 3.218573e-11 2.668616e-08
4.5623974e-08 6.733484e-09 7.533335e-11 1.5082463e-08 3.2612196e-08 9.971927e-09 1.5290442e-09 2.6210614e-10
1.4000343e-09 5.510463e-10 4.8899322e-11 1.5117084e-08 2.0851838e-10 6.86456e-09 2.0016113e-08 1.1834833e-08
