UnityMLTutorial_complete/results/Test3/MoveToGoal/MoveToGoal-5400.onnx (onnx, 72951 bytes, 7 tensors)

network_body.linear_encoder.seq_layers.0.weight f4 [128, 6]
000000 7f fa 00 be 04 23 0c bf 3d 49 b7 bd 73 dd e2 be
       -0.12595557 -0.5474093 -0.08949516 -0.44309577
000010 f7 0d 64 3f f1 82 84 3e ec 61 d9 bd c9 e2 ab 3e
       0.8908381 0.2588115 -0.1061438 0.3357146
000020 34 90 2a be 57 3b bd bc ce 13 a4 3e 0f 05 80 bd
       -0.16656572 -0.023099585 0.3204636 -0.06250965
000030 39 4c ec 3d b8 81 48 3e ab 31 ec 3e 00 d2 99 3e
       0.11537976 0.19580734 0.46131644 0.3004303
000040 9a 2e 02 be 4d 50 bc 3c 94 14 ed be a7 bd 15 be
       -0.1271309 0.02298751 -0.46304762 -0.14623128
000050 67 29 86 3e 95 62 3a 3e db 30 fb 3e 40 34 9b 3d
       0.26203462 0.18201669 0.4906071 0.07578325
000060 98 5a 4c bf 60 7e 90 3e 07 c6 07 3e 04 69 aa 3f
       -0.79825735 0.28221416 0.13259135 1.3313298
000070 e6 aa 53 be d3 01 c1 3e 1a a7 16 be 40 51 35 3e
       -0.20670661 0.37696704 -0.14712182 0.17706776
000080 2a ed 59 bf 8c 4e 10 3f a6 6e b9 be 91 cc f8 3d
       -0.8512751 0.56369853 -0.3621723 0.12148393
000090 a2 29 79 bc 2b db f8 3e ba c1 78 bf 2a a9 84 3e
       -0.01520768 0.48604712 -0.97170603 0.25910312
0000a0 ee f2 65 3e 8a 01 8f 3e c3 d3 44 bd fa a1 a8 3d
       0.22455952 0.27930862 -0.048053514 0.082340196
0000b0 ec 79 84 3e e2 86 c1 be 81 0f 08 3f 95 cf 34 be
       0.2587427 -0.3779822 0.5314866 -0.17657311
0000c0 d6 fe 6b 3f 0e 42 08 3f 81 1a 77 3d 8a 84 5b 3e
       0.92185724 0.5322579 0.06032801 0.21437278
0000d0 97 d8 64 3f b9 2c ed bd a2 fe 51 bf ff 44 1a 3d
       0.8939299 -0.11580796 -0.82029164 0.037663456
0000e0 ae ff b3 3e c0 d3 d7 3e 93 4c 9b bd 40 12 1c bf
       0.35156006 0.4215374 -0.07582965 -0.6096535
0000f0 40 22 1c bc 20 19 14 bf 02 b2 5c 3f 75 0b 4d be
       -0.00952965 -0.5785084 0.8620912 -0.20023902
000100 16 af 09 bf e5 c8 19 bd 5d 03 41 3d 0a 7f 55 3e
       -0.53782785 -0.037545104 0.047122348 0.20849243
000110 f1 96 20 3e a8 4b 92 3e f6 27 83 3e 8a b0 be 3e
       0.1568258 0.28573346 0.25616425 0.37244064
000120 3e 21 43 bd 5f af 13 3f 14 78 6a 3e c5 97 c1 be
       -0.047639124 0.5768947 0.22897369 -0.37811103
000130 78 e4 ea ba 4b 15 54 be 00 c7 a9 be 76 21 4e bf
       -0.0017920872 -0.20711248 -0.33159637 -0.8051981
000140 2d 4c e6 be 29 89 d4 be 43 00 25 3d 6a 83 04 3f
       -0.44979993 -0.41510895 0.040283453 0.5176302
000150 eb 98 bd bd 90 f8 88 3f 64 d8 43 3e b3 23 a8 3e
       -0.092576824 1.0700855 0.19125515 0.32839736
000160 a9 67 25 be ee 7e e1 be cf 5c 05 bf b1 a2 f5 3e
       -0.16152824 -0.44042152 -0.5209474 0.47975686
000170 ed f2 14 3f 9a c9 5a bb 79 70 07 bf c9 05 2a be
       0.58183175 -0.0033384324 -0.52905995 -0.1660377
000180 e7 30 5f bd d5 17 a3 be 95 e1 f0 3e 22 30 07 bf
       -0.054489996 -0.3185412 0.47047105 -0.5280782
000190 98 12 fb 3b 15 0d e5 bc cc c5 bb bc 9e 3b 40 3e
       0.0076621287 -0.02796034 -0.022921465 0.18772742
0001a0 c2 1f b0 3e 98 0d d4 3d 45 36 91 3e c0 38 68 bf
       0.3439923 0.10354155 0.28361717 -0.90711594
0001b0 0a 26 44 bf a8 24 80 3f 4c 55 43 bd 66 26 90 bc
       -0.76620543 1.0011187 -0.047688767 -0.017596435
0001c0 0a 7b c8 3e 0f cb 2e 3e 85 ad 3e 3e af 83 7c 3d
       0.3915637 0.17069648 0.1862088 0.06164902
0001d0 98 84 88 be 7d 80 69 be cb 76 c5 bd 9e 9f 97 3d
       -0.2666366 -0.2280292 -0.096417986 0.074034914
0001e0 dc 4c 76 3e 51 a5 a0 3e a2 16 3a 3e 5a 0b fa 3e
       0.24052757 0.31376126 0.18172696 0.48836786
0001f0 0f e7 14 bf 7a 96 4b be 87 df b4 bc ed 70 27 be
       -0.5816507 -0.19881621 -0.022079242 -0.16351672
000200 fd 31 c9 3e c5 ed 68 bf 0e e3 f4 be 3f ba 4b be
       0.3929595 -0.9098781 -0.4782948 -0.19895266
000210 24 8d d6 be e8 55 e8 bd dc 8b d6 be a9 90 47 3e
       -0.41904557 -0.1134451 -0.4190358 0.19488777
000220 87 fd ec be 25 b3 37 be 7b 14 fa bc 06 e1 6f be
       -0.46287176 -0.17939432 -0.030527344 -0.23425683
000230 b3 3b 2d bd 75 e5 f6 be fe 17 6f 3c bf fa 2f bf
       -0.04229326 -0.48221937 0.0145931225 -0.68741983
000240 6b b5 05 be f8 02 85 3d 74 73 ac 3d e0 8b 85 3e
       -0.13057487 0.06494707 0.084204584 0.2608328
000250 40 3a 16 be db 0f 90 3d 76 bc 9f 3e bd 80 ff be
       -0.14670658 0.07034274 0.31198472 -0.49902907
000260 3f f9 11 3e 35 56 a5 be e1 df fb be 7f 13 03 be
       0.14255236 -0.32292333 -0.49194244 -0.12800406
000270 ea 98 37 bf c3 89 ab be 17 a8 b1 3d 8a 52 81 be
       -0.71717703 -0.3350354 0.08674639 -0.25258285
000280 39 6b f9 be 6d 85 be be c7 4f 3d bf 19 ed 30 3e
       -0.48714617 -0.3721117 -0.73949856 0.17277946
000290 2a f0 76 be ee f6 96 3e 4c fb 08 be 3e 8a 00 3f
       -0.24115053 0.29485267 -0.13377112 0.5021094
0002a0 82 c8 c0 bd 56 37 8d be 22 7a a1 3d 12 99 b8 3e
       -0.09413244 -0.2758128 0.07884623 0.36054283
0002b0 9c 5c 8d bd 6a 17 82 3e 0b f7 7f 3d e4 07 a1 be
       -0.069024295 0.2540849 0.062491458 -0.31451333
0002c0 58 14 16 3f 7b ab a5 3d c2 73 4b be 8e 93 7e bf
       0.5862479 0.08089348 -0.19868377 -0.994439
0002d0 9d 71 d9 3c 49 ba 01 be 7f 55 3f bf 97 61 cb 3e
       0.026543433 -0.12668718 -0.7473983 0.39722893
0002e0 83 79 6b bf 71 a9 0e bf 5e 93 e3 3d 03 d2 dd 3e
       -0.9198229 -0.557273 0.111120924 0.4332429
0002f0 d3 71 b6 3e 1b 1e 50 be f5 be 0d 3f ed 79 f7 3d
       0.35633716 -0.20323984 0.553695 0.12083802
000300 19 10 88 be 45 25 44 bf 4a 4e 23 be 56 50 e2 3e
       -0.26574782 -0.7661937 -0.15947834 0.44201916
000310 09 bb 1a 3e 3c 1f 9c 3d f3 04 40 3f ae e9 c5 3c
       0.15110411 0.07623145 0.7500755 0.024159279
000320 5b c5 28 be 75 0d bf bd 4d 3a 96 3e 40 9a 1c bd
       -0.16481535 -0.093287386 0.29341355 -0.03823304
000330 8d a0 1a 3e eb 8f 10 bf a7 b3 92 3e 23 8b 7f be
       0.15100308 -0.564696 0.2865269 -0.2495542
000340 7e be ef 3b d4 2f dd 3c d0 10 3f bd 11 40 37 3d
       0.0073164096 0.027000345 -0.046646893 0.044738833
000350 c6 88 0e 3e 2c b9 14 3d 31 be 9e 3f 4c 2a b8 3e
       0.13919362 0.036309406 1.2401792 0.3596977
000360 f3 d9 b7 3e cb 54 22 3f d5 9a cf be 59 d4 a9 3e
       0.3590847 0.63410634 -0.40547815 0.3316982
000370 10 64 16 bf 92 81 d5 3e 26 11 47 be f6 9c ed bd
       -0.58746433 0.41700417 -0.19440135 -0.116022035
000380 65 a7 cf 3e d8 12 17 bf 04 3b 8d 3e 1d 64 4b 3f
       0.405574 -0.5901313 0.27584088 0.79449636
000390 78 d1 0f 3e 6a 34 4c 3f e3 1a ce bd d7 47 32 bd
       0.1404475 0.7976748 -0.10063722 -0.043525543
0003a0 90 e8 51 be 21 b5 7f bd 55 01 b0 bd 69 e3 51 be
       -0.20498872 -0.062428597 -0.08594004 -0.20496906
0003b0 22 85 89 be 22 f6 a5 3e 1d af 70 3f ca 16 32 3e
       -0.26859385 0.32414347 0.940172 0.17391506
0003c0 5d 29 9d 3e 2d d6 63 be 09 ad 2c 3e e6 af 64 3d
       0.3069562 -0.2224967 0.16862883 0.055831812
0003d0 c1 98 e0 bc 1f a6 56 3f a3 1e 7b 3f d2 32 d0 be
       -0.027416589 0.8384723 0.9809362 -0.40663773
0003e0 2f e3 15 3e 15 a1 ad be 74 fb b9 3d 2a df 87 3e
       0.14637445 -0.33911958 0.09081164 0.26537448
0003f0 35 42 d9 be 4a 88 10 bf 0c d1 73 be ed ab c3 bd
       -0.42433324 -0.5645796 -0.23810214 -0.095542766

network_body.linear_encoder.seq_layers.0.bias f4 [128]
000000 00 00 00 00 00 00 00 00 00 00 00 00 00 00 00 00
       0.0 0.0 0.0 0.0
000010 00 00 00 00 00 00 00 00 00 00 00 00 00 00 00 00
       0.0 0.0 0.0 0.0
000020 00 00 00 00 00 00 00 00 00 00 00 00 00 00 00 00
       0.0 0.0 0.0 0.0
000030 00 00 00 00 00 00 00 00 00 00 00 00 00 00 00 00
       0.0 0.0 0.0 0.0
000040 00 00 00 00 00 00 00 00 00 00 00 00 00 00 00 00
       0.0 0.0 0.0 0.0
000050 00 00 00 00 00 00 00 00 00 00 00 00 00 00 00 00
       0.0 0.0 0.0 0.0
000060 00 00 00 00 00 00 00 00 00 00 00 00 00 00 00 00
       0.0 0.0 0.0 0.0
000070 00 00 00 00 00 00 00 00 00 00 00 00 00 00 00 00
       0.0 0.0 0.0 0.0
000080 00 00 00 00 00 00 00 00 00 00 00 00 00 00 00 00
       0.0 0.0 0.0 0.0
000090 00 00 00 00 00 00 00 00 00 00 00 00 00 00 00 00
       0.0 0.0 0.0 0.0
0000a0 00 00 00 00 00 00 00 00 00 00 00 00 00 00 00 00
       0.0 0.0 0.0 0.0
0000b0 00 00 00 00 00 00 00 00 00 00 00 00 00 00 00 00
       0.0 0.0 0.0 0.0
0000c0 00 00 00 00 00 00 00 00 00 00 00 00 00 00 00 00
       0.0 0.0 0.0 0.0
0000d0 00 00 00 00 00 00 00 00 00 00 00 00 00 00 00 00
       0.0 0.0 0.0 0.0
0000e0 00 00 00 00 00 00 00 00 00 00 00 00 00 00 00 00
       0.0 0.0 0.0 0.0
0000f0 00 00 00 00 00 00 00 00 00 00 00 00 00 00 00 00
       0.0 0.0 0.0 0.0
000100 00 00 00 00 00 00 00 00 00 00 00 00 00 00 00 00
       0.0 0.0 0.0 0.0
000110 00 00 00 00 00 00 00 00 00 00 00 00 00 00 00 00
       0.0 0.0 0.0 0.0
000120 00 00 00 00 00 00 00 00 00 00 00 00 00 00 00 00
       0.0 0.0 0.0 0.0
000130 00 00 00 00 00 00 00 00 00 00 00 00 00 00 00 00
       0.0 0.0 0.0 0.0
000140 00 00 00 00 00 00 00 00 00 00 00 00 00 00 00 00
       0.0 0.0 0.0 0.0
000150 00 00 00 00 00 00 00 00 00 00 00 00 00 00 00 00
       0.0 0.0 0.0 0.0
000160 00 00 00 00 00 00 00 00 00 00 00 00 00 00 00 00
       0.0 0.0 0.0 0.0
000170 00 00 00 00 00 00 00 00 00 00 00 00 00 00 00 00
       0.0 0.0 0.0 0.0
000180 00 00 00 00 00 00 00 00 00 00 00 00 00 00 00 00
       0.0 0.0 0.0 0.0
000190 00 00 00 00 00 00 00 00 00 00 00 00 00 00 00 00
       0.0 0.0 0.0 0.0
0001a0 00 00 00 00 00 00 00 00 00 00 00 00 00 00 00 00
       0.0 0.0 0.0 0.0
0001b0 00 00 00 00 00 00 00 00 00 00 00 00 00 00 00 00
       0.0 0.0 0.0 0.0
0001c0 00 00 00 00 00 00 00 00 00 00 00 00 00 00 00 00
       0.0 0.0 0.0 0.0
0001d0 00 00 00 00 00 00 00 00 00 00 00 00 00 00 00 00
       0.0 0.0 0.0 0.0
0001e0 00 00 00 00 00 00 00 00 00 00 00 00 00 00 00 00
       0.0 0.0 0.0 0.0
0001f0 00 00 00 00 00 00 00 00 00 00 00 00 00 00 00 00
       0.0 0.0 0.0 0.0

network_body.linear_encoder.seq_layers.2.weight f4 [128, 128]
000000 81 91 ab 3c bf 1c d8 bd a2 b1 2b bc 5e ef 5f bd
       0.020943405 -0.10552358 -0.010479363 -0.054671638
000010 d9 e6 37 3d f2 91 c4 bc ca 7c cc bc 22 51 b2 3b
       0.044897888 -0.023995373 -0.024961848 0.0054418007
000020 5d 7a e6 bd f0 f0 75 bb d7 fa 03 3e 2a f4 bc bc
       -0.11253808 -0.0037527643 0.12888657 -0.023065645
000030 67 7a 7d bd fc af 6a 3d 45 46 e4 bb ab d1 81 3d
       -0.06188431 0.057296738 -0.0069663846 0.06338819
000040 9e ac 5a bd 5b f5 12 bd ce 46 09 be 3d 6d fa 3d
       -0.053387277 -0.03587852 -0.13405916 0.12227867
000050 ad 34 53 3d 30 60 a4 bc 6a 3a a5 3d 45 85 25 bd
       0.051563907 -0.020065397 0.08067782 -0.0404103
000060 86 cd 18 bd b0 e1 69 bc 81 6b 1b 3e 06 26 00 be
       -0.037305377 -0.0142749995 0.15177728 -0.12514505
000070 d1 8e cf 3c 75 f2 28 bd 52 08 d3 3c 1b 3f 53 bc
       0.025336655 -0.04124685 0.025760803 -0.0128934635
000080 47 61 cd bc de 20 97 3c 09 5d 8b bb 98 13 cd bc
       -0.0250708 0.01844829 -0.004253034 -0.025033757
000090 87 78 86 3c 09 01 e8 3d ce 2f 26 bd 07 40 8a bd
       0.016414894 0.113283224 -0.040572934 -0.067504935
0000a0 74 c8 cb bc 80 52 be bd c5 11 72 bd 1c 68 04 3d
       -0.024875857 -0.092930794 -0.059098978 0.03232585
0000b0 de e0 8f 3d ac 73 a3 bd bb 33 22 3d fa 07 1b be
       0.07025312 -0.07981047 0.039600115 -0.15139762
0000c0 1f 4d 32 be ad 9b 0e bc ac 4c 00 be 4c 86 b3 bc
       -0.17412232 -0.008704108 -0.12529248 -0.021914624
0000d0 02 00 76 3a 47 b7 05 bd 5a 25 6c bc 27 9a 09 3d
       0.00093841564 -0.03264549 -0.014413202 0.033594277
0000e0 53 b7 03 3e ec 58 c3 bc c8 9d 62 bd 82 6b 39 bd
       0.12862901 -0.023846112 -0.055326253 -0.045268543
0000f0 d5 e0 37 bd 9b ef 1b 3e f5 2e aa 3c 20 3d a8 3d
       -0.04489215 0.15228121 0.020774344 0.08214784
000100 3e 72 86 bd ef 59 75 bd 5c 20 82 bc bd b4 68 3a
       -0.06564759 -0.05990022 -0.01588457 0.000887703
000110 bf b4 a2 bd d0 0a ce 3d ed de 93 bd bb 91 95 3c
       -0.07944631 0.10060656 -0.07220254 0.018257966
000120 c7 3f 58 bc 8f 6d 2d 3d 3c aa 60 bc 0f eb 49 be
       -0.013198799 0.04234081 -0.013712462 -0.19718574
000130 70 95 2c bb 84 85 b8 bd 7b f1 ab bc 97 2f c0 bd
       -0.002633419 -0.09009841 -0.02098917 -0.09384077
000140 34 97 7d 3d b8 f9 11 be b6 a1 44 3e 5d 67 1a 3d
       0.061911777 -0.14255416 0.19202313 0.03769623
000150 62 e0 54 3c 84 8d c9 bd 2a 19 4b 3d fd 7f 55 bd
       0.01299295 -0.09841445 0.049584545 -0.052124012
000160 bc c4 48 bd e0 c8 54 3b 97 e6 a8 3d a7 04 d2 bd
       -0.049015746 0.0032468364 0.082471065 -0.102547936
000170 0b 9d 5d bd 70 04 06 be 9d 00 26 3d 9b 2e 81 3d
       -0.054104846 -0.1308763 0.04052793 0.063077174
000180 ce bc b9 bc 37 44 8a bb 94 31 86 3d 25 fc 89 bc
       -0.022673037 -0.0042195576 0.06552425 -0.016843865
000190 5b f2 00 3e 74 72 a1 bb 46 05 01 3e 92 4d d3 bd
       0.12592451 -0.004926974 0.12599668 -0.1031753
0001a0 68 fc 45 bd e5 f6 5b 3c 46 1c 93 bd 0d 7b 8c bd
       -0.048336416 0.013425563 -0.07183127 -0.068594076
0001b0 61 25 c1 bc 4b a5 05 bc 2c ea 10 bd 9d 5f 84 3b
       -0.023577394 -0.008157085 -0.035379574 0.0040397183
0001c0 d4 e2 33 3d a0 7a 8c 3c 3a d7 39 3d 5a a7 bb bd
       0.043917492 0.017148316 0.04537127 -0.09162779
0001d0 d2 92 6b 3d c8 76 dc 3d 3f 6a 29 bd c5 7a a0 bd
       0.057513066 0.10764843 -0.04136109 -0.078359164
0001e0 72 f8 31 bc e7 3f c0 bd 6c 6c 55 3d c8 c8 74 3a
       -0.010862457 -0.093871884 0.052105352 0.000933778
0001f0 84 fc 18 bd 79 03 05 bd 1a f8 d3 bd d0 cd 5b 3d
       -0.037350193 -0.032474015 -0.10350056 0.053663075
000200 4a 32 7f bc 73 af 0c be 5a 77 e5 bd c1 87 12 bd
       -0.015575955 -0.13738804 -0.11204405 -0.035773996
000210 75 fe 59 3c 4e 5b b6 3c d0 1a 02 bd a8 b5 8a bd
       0.013305296 0.022260334 -0.03176385 -0.067729294
000220 4f f6 97 3b b3 2a d0 3d b6 03 9c 3d 50 d7 ab bd
       0.0046375166 0.10164394 0.07617895 -0.08390677
000230 df af 0a bd c5 07 97 3b 34 c5 ea bb ed 21 18 bd
       -0.03385913 0.0046090805 -0.0071646217 -0.03714173
000240 98 79 32 be 83 74 de bc 5a 13 3a bd 09 57 8b 3d
       -0.17429197 -0.027155166 -0.04542861 0.0680371
000250 60 7d ec 3c 8b b0 6e bd b2 d7 ef 3c b2 5f 36 bd
       0.028868377 -0.058273833 0.029277656 -0.044524856
000260 e9 aa d1 3d 2a 6c 2c 3d 7e 39 4c be 78 72 15 bd
       0.10237677 0.04209534 -0.19943807 -0.03648612
000270 0b bc 52 3c 3d c2 d7 3d a7 1c 41 bd 11 86 40 3c
       0.012862216 0.10535095 -0.047146466 0.011750714
000280 26 e4 a3 bc 51 b2 45 3d 75 e4 60 bd 24 e7 9a 3d
       -0.02000625 0.04826576 -0.054905374 0.07563618
000290 a0 e4 15 bd 4d 40 1f 3d e7 2b d0 bd d0 95 a8 3d
       -0.036594987 0.03887968 -0.10164624 0.082316995
0002a0 4d b5 ab bc bc 74 76 3d 10 23 ba 3d d8 87 1a bd
       -0.020960474 0.06016992 0.09088719 -0.037727207
0002b0 66 5e aa bc 33 c0 5f be 1f 1b 2c 3e 8f a7 8a bd
       -0.020796966 -0.21850662 0.16807221 -0.067702405
0002c0 c5 26 81 bb 16 47 4a 3e 1d 92 0e 3d a1 da 70 3c
       -0.0039413893 0.1975368 0.034807313 0.014700563
0002d0 3f ce 09 be 91 52 61 be 6f b2 9a 3c dd 76 8b bd
       -0.13457583 -0.22004153 0.018883912 -0.06809781
0002e0 25 38 8e 3d de 07 a1 bd fd 4a 85 3d f7 b4 0b be
       0.069443025 -0.07862829 0.065084435 -0.13643251
0002f0 a5 0c e1 3d e5 8d a9 bd 97 e6 73 3d c3 3c df 3c
       0.1098874 -0.08279017 0.05954608 0.027250653
000300 04 e5 06 bd f1 13 dd bd ce 84 2c be a0 a7 7f 3d
       -0.03293325 -0.10794819 -0.16847536 0.06241572
000310 33 68 1d bc f6 a9 b3 3d e3 df c4 3c 87 8e 22 be
       -0.009607363 0.08772652 0.024032539 -0.15874682
000320 f2 38 a2 bd 17 f2 e2 bd f5 96 bb bd 8f 51 a1 3d
       -0.07921018 -0.11081331 -0.09159652 0.07876884
000330 ae a2 5e bd c5 f6 76 3e 49 b5 e1 3c b3 48 92 3d
       -0.054354362 0.24117573 0.027552264 0.071427725
000340 88 29 20 bc 83 c5 25 bd 46 b8 74 3d d7 66 37 3d
       -0.009775527 -0.040471565 0.05974605 0.04477581
000350 96 08 5e bd 5c 6f 68 bd 99 59 91 bd 46 c1 fc 3c
       -0.054207407 -0.056746826 -0.070971675 0.030853879
000360 00 83 67 bd 21 48 99 3d d8 44 7c 3d 2e 64 00 be
       -0.056521416 0.074844606 0.061589092 -0.12538216
000370 75 8e a7 bd 2e 35 20 3d 61 47 9e bc e5 06 70 bd
       -0.081814684 0.039113216 -0.019321145 -0.058600325
000380 b2 ff 1c 3e fa e8 50 3c 7e ea 94 bc 2f 87 2e bc
       0.15331915 0.012750858 -0.01817822 -0.0106523475
000390 4a 49 6e 3d 15 91 c5 3c 4c c7 bf bc 43 da d3 3c
       0.058175363 0.024117032 -0.023410462 0.025860911
0003a0 5f e1 c0 3d b1 49 1d 3d fe 80 a2 bd 2f 69 3a 3d
       0.09417986 0.038400356 -0.079347596 0.045510467
0003b0 55 12 16 3c 89 d8 ef bc b3 2c 08 3e 02 4c c4 3d
       0.009159644 -0.029278057 0.13298301 0.0958481
0003c0 ab 51 14 be 3d a0 9f bd 1f a7 f8 3d e0 86 14 3e
       -0.14484279 -0.07794235 0.12141251 0.14504576
0003d0 a7 f4 a3 3d 4f d7 39 3d 19 36 87 bd 12 e3 29 3b
       0.08005648 0.04537135 -0.06602115 0.0025922698
0003e0 a3 0f 28 3d e0 83 16 bc 1a f2 96 bd 7f 28 12 3c
       0.041030537 -0.009186715 -0.07370396 0.008920788
0003f0 5a f7 89 3a 59 94 ed b9 85 aa 4f bd b1 36 cf 3b
       0.0010525987 -0.0004531469 -0.05069973 0.0063236584

network_body.linear_encoder.seq_layers.2.bias f4 [128]
000000 00 00 00 00 00 00 00 00 00 00 00 00 00 00 00 00
       0.0 0.0 0.0 0.0
000010 00 00 00 00 00 00 00 00 00 00 00 00 00 00 00 00
       0.0 0.0 0.0 0.0
000020 00 00 00 00 00 00 00 00 00 00 00 00 00 00 00 00
       0.0 0.0 0.0 0.0
000030 00 00 00 00 00 00 00 00 00 00 00 00 00 00 00 00
       0.0 0.0 0.0 0.0
000040 00 00 00 00 00 00 00 00 00 00 00 00 00 00 00 00
       0.0 0.0 0.0 0.0
000050 00 00 00 00 00 00 00 00 00 00 00 00 00 00 00 00
       0.0 0.0 0.0 0.0
000060 00 00 00 00 00 00 00 00 00 00 00 00 00 00 00 00
       0.0 0.0 0.0 0.0
000070 00 00 00 00 00 00 00 00 00 00 00 00 00 00 00 00
       0.0 0.0 0.0 0.0
000080 00 00 00 00 00 00 00 00 00 00 00 00 00 00 00 00
       0.0 0.0 0.0 0.0
000090 00 00 00 00 00 00 00 00 00 00 00 00 00 00 00 00
       0.0 0.0 0.0 0.0
0000a0 00 00 00 00 00 00 00 00 00 00 00 00 00 00 00 00
       0.0 0.0 0.0 0.0
0000b0 00 00 00 00 00 00 00 00 00 00 00 00 00 00 00 00
       0.0 0.0 0.0 0.0
0000c0 00 00 00 00 00 00 00 00 00 00 00 00 00 00 00 00
       0.0 0.0 0.0 0.0
0000d0 00 00 00 00 00 00 00 00 00 00 00 00 00 00 00 00
       0.0 0.0 0.0 0.0
0000e0 00 00 00 00 00 00 00 00 00 00 00 00 00 00 00 00
       0.0 0.0 0.0 0.0
0000f0 00 00 00 00 00 00 00 00 00 00 00 00 00 00 00 00
       0.0 0.0 0.0 0.0
000100 00 00 00 00 00 00 00 00 00 00 00 00 00 00 00 00
       0.0 0.0 0.0 0.0
000110 00 00 00 00 00 00 00 00 00 00 00 00 00 00 00 00
       0.0 0.0 0.0 0.0
000120 00 00 00 00 00 00 00 00 00 00 00 00 00 00 00 00
       0.0 0.0 0.0 0.0
000130 00 00 00 00 00 00 00 00 00 00 00 00 00 00 00 00
       0.0 0.0 0.0 0.0
000140 00 00 00 00 00 00 00 00 00 00 00 00 00 00 00 00
       0.0 0.0 0.0 0.0
000150 00 00 00 00 00 00 00 00 00 00 00 00 00 00 00 00
       0.0 0.0 0.0 0.0
000160 00 00 00 00 00 00 00 00 00 00 00 00 00 00 00 00
       0.0 0.0 0.0 0.0
000170 00 00 00 00 00 00 00 00 00 00 00 00 00 00 00 00
       0.0 0.0 0.0 0.0
000180 00 00 00 00 00 00 00 00 00 00 00 00 00 00 00 00
       0.0 0.0 0.0 0.0
000190 00 00 00 00 00 00 00 00 00 00 00 00 00 00 00 00
       0.0 0.0 0.0 0.0
0001a0 00 00 00 00 00 00 00 00 00 00 00 00 00 00 00 00
       0.0 0.0 0.0 0.0
0001b0 00 00 00 00 00 00 00 00 00 00 00 00 00 00 00 00
       0.0 0.0 0.0 0.0
0001c0 00 00 00 00 00 00 00 00 00 00 00 00 00 00 00 00
       0.0 0.0 0.0 0.0
0001d0 00 00 00 00 00 00 00 00 00 00 00 00 00 00 00 00
       0.0 0.0 0.0 0.0
0001e0 00 00 00 00 00 00 00 00 00 00 00 00 00 00 00 00
       0.0 0.0 0.0 0.0
0001f0 00 00 00 00 00 00 00 00 00 00 00 00 00 00 00 00
       0.0 0.0 0.0 0.0

action_model._continuous_distribution.log_sigma f4 [1, 2]
000000 00 00 00 00 00 00 00 00
       0.0 0.0

action_model._continuous_distribution.mu.weight f4 [2, 128]
000000 81 5f 35 3d a8 cb c0 bb f3 76 05 3c 83 26 c5 bb
       0.044280533 -0.0058836527 0.0081460355 -0.006016554
000010 e5 ac d8 3c 0b 31 a3 3c c3 1d c0 3c 58 56 5f 3c
       0.02644963 0.019920846 0.023451691 0.013631426
000020 dd bb 0f bb 52 1a e1 39 6a c2 e2 bc 12 0c f8 3c
       -0.0021932044 0.00042934954 -0.027680594 0.030279193
000030 fe 13 a9 bc 3a 47 68 bc b1 fe 21 3c 87 de 40 3c
       -0.020639416 -0.014177138 0.009887383 0.011771805
000040 ea c7 ba bc 22 8b 2f 3c 26 72 86 3c 9e 63 01 bc
       -0.022800405 0.010714324 0.016411852 -0.007897286
000050 3b a0 b8 3b 59 db 03 3d d1 10 3b bc 4b 9a ea bb
       0.0056343353 0.032191608 -0.011417584 -0.0071595064
000060 b0 1a f3 3c 72 e7 0d bd fb 1e 8f 3c 09 bd c1 3c
       0.029675812 -0.03464455 0.017470827 0.02364971
000070 26 27 8b bb 75 51 ff 3c f9 b8 b3 bc 80 9c 8c bb
       -0.00424661 0.031166771 -0.021938788 -0.004291117
000080 df 04 78 bc d3 2b 13 bd bf 31 22 bc 47 86 d1 3b
       -0.01513788 -0.035930466 -0.009899556 0.006394181
000090 27 4f 71 bc 77 a0 84 3c be 3d 3d 3c c7 d4 13 bc
       -0.014728344 0.016189797 0.011550365 -0.009022898
0000a0 cc 57 19 bc e7 f7 6a bc 85 17 96 bc c4 95 38 3c
       -0.009359311 -0.014341331 -0.018321762 0.011266176
0000b0 14 5e 41 3b 47 59 ac bb e4 d3 29 bc 8c 7b 32 3b
       0.0029505538 -0.005259666 -0.01036546 0.0027234284
0000c0 fd 54 89 3c 45 c7 31 bc 65 5a 94 3b 0d 10 53 bc
       0.016764158 -0.010850732 0.0045273774 -0.012882245
0000d0 03 b8 9d 3c 68 9f 5e 3b 4c 17 9c 3b 85 45 c2 bc
       0.019252783 0.0033969525 0.0047635194 -0.02371479
0000e0 90 28 c7 3c d3 be e4 bc 57 e9 06 bc 3e 6c c3 3b
       0.024311334 -0.027923023 -0.0082343435 0.005963831
0000f0 a9 57 82 3c bf cb bb 3c 69 ae 33 3b 45 17 e1 b9
       0.01591094 0.022924302 0.002741719 -0.0004293268
000100 c5 dc eb bc 42 ac 9d 3b 5f 05 79 3c ad cc f4 3b
       -0.028791795 0.0048117945 0.0151990345 0.0074706883
000110 b2 a8 25 bc c5 1c 4e bc f5 9a 6c 3c 1b bc 30 bc
       -0.010111021 -0.012580101 0.0144412415 -0.010787035
000120 a6 4b c6 3b 5d e6 fc 3c 83 65 e1 bb 7b 72 12 3c
       0.0060514985 0.030871565 -0.006878556 0.008938427
000130 75 3d e8 bc bf 96 7c bb b5 6d 79 3c a3 86 62 3b
       -0.028349617 -0.0038542 0.01522391 0.0034565113
000140 70 da ca 3c 65 9f 7b bc f3 b7 36 3c 8f c3 26 3c
       0.024762362 -0.015357827 0.011152255 0.010178461
000150 84 4f bd 3b 29 24 0b 3d 32 2b 46 3c 77 c4 50 bc
       0.0057773013 0.033970032 0.0120952595 -0.012742153
000160 75 89 c4 bc cb 84 74 bc 15 6c e1 bb 3a dd 73 3c
       -0.023991326 -0.014924238 -0.0068793395 0.0148842875
000170 d3 f1 a4 3c 0c 61 92 3b 83 97 9c 3c 8b 95 10 bc
       0.020134842 0.0044671353 0.019115215 -0.008824716
000180 c6 47 95 3c f2 dd 14 bd c8 a9 94 3c dc 7b 33 bc
       0.0182227 -0.036344476 0.018147364 -0.010954823
000190 59 f0 2a ba d3 76 a0 3b 68 e2 f7 bc d8 4b d0 3a
       -0.00065208 0.0048969775 -0.030259326 0.0015891744
0001a0 84 b0 80 3c db 2f 95 3c 7e 6a 3b bc 1f 1a c4 3c
       0.01570917 0.018211296 -0.011438964 0.023938237
0001b0 0f 7c 52 bc e2 9c b4 3c e8 df ed bc b2 f2 5a bc
       -0.012846961 0.022047464 -0.02903743 -0.013363527
0001c0 b2 50 6d bc 58 b7 c5 bc 82 95 5f bc bf 88 3d 3b
       -0.014484571 -0.024135277 -0.013646485 0.0028920618
0001d0 d5 87 2a 3c 8f 38 0f bd 9f 7a fa bb 75 60 0a 3d
       0.010408361 -0.034966048 -0.007644012 0.033783395
0001e0 2e 8a 14 3c 08 42 88 ba 49 56 1c bb 62 0b af 3c
       0.009066148 -0.0010395655 -0.002385514 0.021367732
0001f0 ce 61 0c bc 35 f2 99 3b 67 77 19 bb 68 00 94 bc
       -0.00856824 0.004698063 -0.0023417117 -0.0180666
000200 33 47 90 3c a5 bc 9a bc 7e 43 21 ba d1 fd b4 3b
       0.017612075 -0.01888878 -0.000615172 0.0055234213
000210 b1 5d 17 bc c4 72 2e 3c 6f 77 94 3b 70 5c 1d 3c
       -0.009238646 0.010647479 0.004530839 0.009604558
000220 cb 9f 0a bc 13 53 85 3c 2c a8 1f 3c 7b a9 5a 3c
       -0.008460949 0.016274964 0.009744685 0.013346071
000230 7e eb c9 bc f8 c3 d2 bc 5f c8 c4 b8 c4 e6 92 bb
       -0.024648424 -0.02572821 -9.38333e-05 -0.004483076
000240 ed f3 c3 3c 17 c9 4c 3c e8 7b 11 3d db 51 cd 3b
       0.023920024 0.012499115 0.035518557 0.0062658614
000250 a5 19 81 bc 01 6d b1 bc 20 e5 03 bc f9 d4 b4 ba
       -0.015759299 -0.021658422 -0.008050233 -0.0013796381
000260 7b b4 ff bc fd f6 4f 3c 6b 5b e3 3b 10 c8 25 bc
       -0.03121399 0.012693164 0.006938388 -0.010118499
000270 ba 3b 56 3c 43 52 0a bd 07 13 a4 bc 06 fc 9b bc
       0.013075763 -0.033769857 -0.020028604 -0.019041073
000280 61 b1 a9 ba f0 44 e7 ba 7f ee 01 3d 5c b2 84 39
       -0.001294654 -0.0017644446 0.03172159 0.0002530989
000290 a0 1a 5e bb 9c ad b2 3c d0 8a ee bb 1e 3d 08 bc
       -0.0033890381 0.021811299 -0.0072797313 -0.008315353
0002a0 fb 58 e0 bc da 07 d6 3b f0 bf b7 3b 0f 1a ab 3b
       -0.02738618 0.0065316977 0.0056075975 0.0052216123
0002b0 3d 07 a7 ba a1 82 83 3c 57 fa e2 ba e5 db a7 3b
       -0.0012743246 0.0160535 -0.0017317039 0.005122649
0002c0 9a 78 0a 3c 43 91 b9 bc 3a f5 61 3c 6b 5c 81 bc
       0.008451605 -0.022652274 0.013791377 -0.015791139
0002d0 cb 3c 51 bb 8e d7 94 bc c2 d7 4d bc 24 af 4a 3b
       -0.0031927105 -0.01816919 -0.012563648 0.0030927146
0002e0 f3 9a 3e 3c 2c fb 9a bc 53 37 97 bc 6c 81 9b bc
       0.011633622 -0.018918596 -0.018458998 -0.018982612
0002f0 0f 6e 54 3c e7 ee 12 3d 98 6e 10 3a ff c9 e8 bc
       0.012965693 0.035872366 0.0005509644 -0.028416632
000300 03 5a 84 bc 57 09 60 3c 6d a0 dc bc 05 22 7a bc
       -0.016156202 0.013674102 -0.026931966 -0.0152669
000310 14 ae ad bb b8 7d cd 3b 1b e1 ca 3c 04 89 3a bc
       -0.0053002927 0.0062710904 0.024765542 -0.011385206
000320 ba 9c 70 3c e8 da 85 3c a8 55 b6 bb 2d bf db ba
       0.014685804 0.016339734 -0.0055644102 -0.0016765349
000330 75 cc 88 3c c5 e1 f4 bc 6b 3e 14 3d b8 7a e0 bc
       0.016699055 -0.029892812 0.03619234 -0.027402267
000340 6e fe c0 3b f5 d1 5e 3c d3 2e 76 3c 3f 0e ec bc
       0.0058897054 0.013599862 0.015025812 -0.028815387
000350 ad ee de b8 6e 98 b1 3c a6 fd 42 bc f2 48 0f bc
       -0.00010630242 0.02167913 -0.011901295 -0.008745419
000360 fe e4 30 3c 4b 9c 12 3d eb 07 a8 bb fd 39 fe 3b
       0.0107967835 0.035793584 -0.005127897 0.0077583776
000370 6b 89 f1 bc 0b 91 13 3c d8 2e 22 bc 32 da 23 bc
       -0.029484471 0.009006749 -0.009898864 -0.010000752
000380 6b 68 00 bc 03 2d db bc cb d6 14 bd 53 e4 84 bc
       -0.007837395 -0.026754862 -0.036337655 -0.016222155
000390 7b 80 e6 bb 70 a1 d6 bc 57 90 a8 3b 77 c3 e6 3b
       -0.007034359 -0.026200026 0.00514416 0.007042344
0003a0 9a 5d 13 3c 5b a3 56 3c 01 19 80 bc e1 3d 23 bc
       0.008994484 0.01310047 -0.015636923 -0.009963484
0003b0 5d fd 71 bc e7 ba 82 3c d1 5c bb 3c 2d 6a fd 3c
       -0.014769879 0.015958263 0.022871407 0.030934418
0003c0 0e c5 99 3c ba 27 87 3b 33 9e 3f 3d e3 04 38 bc
       0.01877072 0.004124609 0.04678173 -0.011231634
0003d0 e7 cf 24 bc 7a 2c 12 bc 3f 33 81 bc b2 15 7b 3b
       -0.010059333 -0.008921737 -0.015771506 0.0038312492
0003e0 ff 5c 37 bc fd 3b ce bb 90 b5 1c 3c f0 31 d7 3c
       -0.011191606 -0.0062937723 0.009564772 0.02626893
0003f0 1c 52 af 3b 9b d8 aa bc a3 e4 9c bc 6a 95 84 3b
       0.0053503644 -0.020855239 -0.019151991 0.004046132

action_model._continuous_distribution.mu.bias f4 [2]
000000 00 00 00 00 00 00 00 00
       0.0 0.0
