UnityMLTutorial_complete/results/Test3/MoveToGoal/MoveToGoal-1528.pt (torch, 149327 bytes, 12 tensors)

network_body.linear_encoder.seq_layers.0.weight f4 [128, 6]
0	0x3ed41934	0.41425478
1	0x3f67841b	0.9043595
2	0xbeb435f6	-0.3519742
3	0xbcbce670	-0.0230591
4	0xbeb85703	-0.36003885
5	0xbf4913ae	-0.78545654
6	0xbf0363e5	-0.513243
7	0x3f11b0cc	0.56910396
8	0xbcc7cc74	-0.024389483
9	0xbf00fb8a	-0.5038382
10	0x3f4de137	0.80421776
11	0x3d729e78	0.05923316
12	0xbdb962f1	-0.09052075
13	0x3e868496	0.2627303
14	0x3e1379e4	0.14401966
15	0xbdad5bb3	-0.08464756
16	0x3e7f0249	0.24903215
17	0xbe410424	-0.18849236
18	0xbea3ac9c	-0.31967628
19	0x3f119f94	0.5688412
20	0xbe120e43	-0.14263253
21	0xbe969a4b	-0.2941459
22	0xbe3123bd	-0.1729879
23	0x3f8e8230	1.113348
24	0x3e89f23e	0.2694263
25	0x3f2fe3a4	0.6870673
26	0x3de45c63	0.11150434
27	0x3e949cce	0.29025882
28	0x3e89b405	0.26895157
29	0x3e2c8eb2	0.16851309
30	0xbd76d804	-0.060264602
31	0xbf0a02ff	-0.5391082
32	0xbe9129e5	-0.28352275
33	0xbeec824e	-0.46193165
34	0x3e146b8d	0.14494152
35	0xbe4021bd	-0.1876287
36	0x3d6de768	0.058082014
37	0xbe8d892f	-0.27643725
38	0x3ee8e26f	0.45485255
39	0x3efa92e5	0.48940197
40	0xbefbf7c0	-0.49212456
41	0xbe1bf66a	-0.15230718
42	0xbf01d835	-0.5072053
43	0x3eac194b	0.33613047
44	0x3f2ada08	0.6673894
45	0x3e89317b	0.26795563
46	0xbdf4d5a9	-0.11954815
47	0x3e35d755	0.17757924
48	0xbe542b36	-0.20719609
49	0x3f0f0a1d	0.55874807
50	0xbe74e4a0	-0.23915339
51	0xbd61e6d7	-0.055151787
52	0x3e469956	0.1939443
53	0x3ee05d26	0.43821067
54	0xbec75ba9	-0.3893712
55	0xbe2d9a95	-0.169535
56	0x3e700361	0.23438789
57	0xbe5f08bc	-0.21780676
58	0x3ed800c8	0.42188096
59	0x3ddd6942	0.10811092
60	0x3eaf16c0	0.34197044
61	0xbe274333	-0.16334228
62	0xbe078e01	-0.13237764
63	0x3e90acd9	0.28256872
64	0xbf07dd6f	-0.53072256
65	0x3e0e0bb6	0.13871655
66	0xbf49ef8c	-0.78881145
67	0x3e93b5d2	0.28849655
68	0xbdbbf808	-0.091781676
69	0x3f409469	0.75226456
70	0xbf14f543	-0.5818674
71	0x3d9cae2f	0.076504104
72	0xbf9ffb58	-1.2498579
73	0x3d753018	0.05986032
74	0xbed34045	-0.4125997
75	0xbf1ac22b	-0.60452527
76	0x3d80abc3	0.06282761
77	0x3ef3b7fd	0.4760131
78	0x3f41b846	0.75671804
79	0x3e0210dc	0.12701744
80	0x3e02fd6d	0.12791987
81	0xbdaf8ae7	-0.085714154
82	0x3f015f72	0.50536263
83	0xbee7f34f	-0.45302817
84	0xbf7dfade	-0.9921092
85	0xbeeda343	-0.4641362
86	0x3d68b1c5	0.05681016
87	0x3ea5a3b8	0.3235147
88	0x3e9c7c7d	0.30563727
89	0xbe64c82d	-0.22341986
90	0x3ed727ee	0.4202265
91	0x3e14139e	0.14460608
92	0x3df14076	0.11779873
93	0xbecd03b6	-0.40041894
94	0xbf2a24c3	-0.66462344
95	0xbf695f41	-0.9116097
96	0xbf388516	-0.72078073
97	0x3d185d35	0.037198264
98	0x3f5d6ebd	0.864971
99	0x3e95ab01	0.29232028
100	0xbf215f76	-0.63036287
101	0xbe639ab9	-0.22226991
102	0x3e8a0e30	0.2696395
103	0x3f2163b7	0.6304278
104	0xbf17b344	-0.5925791
105	0x3e8edc6b	0.2790254
106	0x3eed3731	0.4633117
107	0x3f385ba8	0.72014856
108	0x3e4367f0	0.19082618
109	0x3f19446d	0.59870034
110	0xbec68c70	-0.3877902
111	0x3b002dd1	0.0019558559
112	0x3cebdb53	0.028791105
113	0x3ef059b1	0.4694343
114	0xbeb0a18b	-0.34498248
115	0xbf323797	-0.69616073
116	0x3eb4411c	0.35205925
117	0xbe9d7603	-0.30754098
118	0xbdde2b82	-0.10848142
119	0x3cb35b09	0.021893995
120	0x3ee58d26	0.4483425
121	0xbe3f539e	-0.18684241
122	0x3f08f8da	0.5350472
123	0xbd66229a	-0.056185342
124	0x3e17ec30	0.14836192
125	0xbf1e07eb	-0.6173083
126	0x3f1bbeea	0.60838187
127	0x3e69600f	0.2279055
128	0x3e263a75	0.16233237
129	0xbef28b8e	-0.47372097
130	0xbda7458a	-0.081675604
131	0xbd8c7046	-0.06857352
132	0xbe2e5a33	-0.17026596
133	0xbe2a32c3	-0.16620927
134	0x3f002e43	0.5007059
135	0x3ee899db	0.45429882
136	0x3e4bf226	0.19916591
137	0x3df5ab6e	0.11995588
138	0x3cfbcb21	0.030736508
139	0x3e8f7166	0.28016204
140	0x3e0c15ab	0.1368014
141	0x3e04416b	0.1291558
142	0x3ea09d65	0.31370082
143	0x3f4a6f8d	0.79076463
144	0x3e8d114b	0.27552256
145	0x3f4ad93a	0.7923771
146	0x3f02f3b5	0.5115312
147	0xbe29448a	-0.16530052
148	0xbe425d77	-0.18980967
149	0x3e5881b6	0.21143231
150	0xbdd9d0f9	-0.106355615
151	0xbece952a	-0.40348178
152	0x3e0758c8	0.13217461
153	0xbf412697	-0.7544951
154	0x3ed1fe76	0.4101445
155	0x3ea70326	0.3261959
156	0x3dc0f733	0.094221495
157	0xbf44a88a	-0.7681967
158	0xbf01bbda	-0.50677264
159	0xbec1fc85	-0.3788797
160	0x3f2709ca	0.6524931
161	0xbed1a07f	-0.4094276
162	0xbd6d4d50	-0.05793506
163	0xbe46f587	-0.19429599
164	0xbeee1ce2	-0.4650641
165	0xbe70fab0	-0.2353313
166	0x3e22e681	0.15908243
167	0xbe0fbb84	-0.14036375
168	0xbdd023f6	-0.10163109
169	0xbeac82de	-0.33693594
170	0x3e5be155	0.21472676
171	0xbe96fd7b	-0.29490265
172	0xbf17ef1e	-0.5934924
173	0xbf3ebcc6	-0.74506795
174	0xbf4292cb	-0.7600524
175	0x3ee5b7d6	0.44866818
176	0x3ea7b047	0.32751676
177	0x3e7b9c76	0.24571404
178	0x3eb4620e	0.3523106
179	0xbde07a77	-0.10960858
180	0xbf6f5604	-0.93490624
181	0x3f000901	0.5001374
182	0x3eb308d3	0.3496767
183	0xbd365101	-0.044510845
184	0x3e2a176b	0.16610496
185	0x3ec0da03	0.3766633
186	0x3f76ab10	0.9635477
187	0x3f84922f	1.0357112
188	0xbd4cacee	-0.049969606
189	0x3e4e3793	0.20138387
190	0xbd081e3c	-0.03323196
191	0x3e6febf3	0.23429851
192	0xbc8f2148	-0.017471924
193	0xbe5e2d93	-0.21697073
194	0x3f239b6e	0.6390904
195	0x3e2e2779	0.17007245
196	0xbd3bddc7	-0.0458658
197	0x3eaebbc7	0.34127638
198	0xbe6a992a	-0.2290999
199	0xbeeb553e	-0.45963472
200	0xbf00a3ad	-0.5024975
201	0xbdc142e7	-0.09436589
202	0x3c6f2e50	0.014598444
203	0x3e189e27	0.1490408
204	0x3f29179e	0.6605166
205	0xbda6e957	-0.08149975
206	0xbf01bd4d	-0.50679475
207	0xbe3f2de7	-0.18669854
208	0xbec5285d	-0.38507357
209	0xbe58cb57	-0.21171318
210	0x3e842a4f	0.2581353
211	0x3edc0987	0.4297602
212	0xbcb65d0a	-0.022261161
213	0xbf06c797	-0.526483
214	0xbd1919d1	-0.037378136
215	0xbf129572	-0.57259285
216	0x3e858cab	0.26083884
217	0xbe68c310	-0.2273066
218	0xbd50cf18	-0.05097875
219	0xbc96ae25	-0.018393585
220	0x3d22f19d	0.0397812
221	0xbec25fee	-0.37963814
222	0xbe59411c	-0.21216244
223	0x3f4d6d07	0.8024449
224	0x3e45ffec	0.19335908
225	0xbd053941	-0.032525305
226	0xbf0b737f	-0.5447311
227	0x3e9d4270	0.3071475
228	0xbdfc3e98	-0.12316626
229	0xbf0e6dc0	-0.55636215
230	0xbecec15f	-0.40381905
231	0x3ef97735	0.4872376
232	0xbf5b0aa5	-0.8556312
233	0xbd250b10	-0.040293753
234	0x3efb2541	0.4905186
235	0xbe4ea427	-0.20179807
236	0xbf3881b4	-0.7207291
237	0x3efc2654	0.49247992
238	0x3f4457cd	0.76696473
239	0xbd468342	-0.04846502
240	0x3e765245	0.24054821
241	0xbdfbf2c9	-0.12302167
242	0xbe887a4c	-0.26655805
243	0x3eb5cd51	0.35508206
244	0x3e921e87	0.28538916
245	0x3f184110	0.5947428
246	0x3e9908f9	0.29889658
247	0xbd833c77	-0.06408017
248	0x3d8d3b0e	0.068960294
249	0xbe636948	-0.2220813
250	0x3ec3d744	0.38250172
251	0x3f8c95d1	1.098322
252	0x3e65044a	0.22364917
253	0xbdec512d	-0.115389206
254	0x3e96cc7b	0.2945288
255	0xbe1e0a1a	-0.15433541

network_body.linear_encoder.seq_layers.0.bias f4 [128]
0	0x00000000	0.0
1	0x00000000	0.0
2	0x00000000	0.0
3	0x00000000	0.0
4	0x00000000	0.0
5	0x00000000	0.0
6	0x00000000	0.0
7	0x00000000	0.0
8	0x00000000	0.0
9	0x00000000	0.0
10	0x00000000	0.0
11	0x00000000	0.0
12	0x00000000	0.0
13	0x00000000	0.0
14	0x00000000	0.0
15	0x00000000	0.0
16	0x00000000	0.0
17	0x00000000	0.0
18	0x00000000	0.0
19	0x00000000	0.0
20	0x00000000	0.0
21	0x00000000	0.0
22	0x00000000	0.0
23	0x00000000	0.0
24	0x00000000	0.0
25	0x00000000	0.0
26	0x00000000	0.0
27	0x00000000	0.0
28	0x00000000	0.0
29	0x00000000	0.0
30	0x00000000	0.0
31	0x00000000	0.0
32	0x00000000	0.0
33	0x00000000	0.0
34	0x00000000	0.0
35	0x00000000	0.0
36	0x00000000	0.0
37	0x00000000	0.0
38	0x00000000	0.0
39	0x00000000	0.0
40	0x00000000	0.0
41	0x00000000	0.0
42	0x00000000	0.0
43	0x00000000	0.0
44	0x00000000	0.0
45	0x00000000	0.0
46	0x00000000	0.0
47	0x00000000	0.0
48	0x00000000	0.0
49	0x00000000	0.0
50	0x00000000	0.0
51	0x00000000	0.0
52	0x00000000	0.0
53	0x00000000	0.0
54	0x00000000	0.0
55	0x00000000	0.0
56	0x00000000	0.0
57	0x00000000	0.0
58	0x00000000	0.0
59	0x00000000	0.0
60	0x00000000	0.0
61	0x00000000	0.0
62	0x00000000	0.0
63	0x00000000	0.0
64	0x00000000	0.0
65	0x00000000	0.0
66	0x00000000	0.0
67	0x00000000	0.0
68	0x00000000	0.0
69	0x00000000	0.0
70	0x00000000	0.0
71	0x00000000	0.0
72	0x00000000	0.0
73	0x00000000	0.0
74	0x00000000	0.0
75	0x00000000	0.0
76	0x00000000	0.0
77	0x00000000	0.0
78	0x00000000	0.0
79	0x00000000	0.0
80	0x00000000	0.0
81	0x00000000	0.0
82	0x00000000	0.0
83	0x00000000	0.0
84	0x00000000	0.0
85	0x00000000	0.0
86	0x00000000	0.0
87	0x00000000	0.0
88	0x00000000	0.0
89	0x00000000	0.0
90	0x00000000	0.0
91	0x00000000	0.0
92	0x00000000	0.0
93	0x00000000	0.0
94	0x00000000	0.0
95	0x00000000	0.0
96	0x00000000	0.0
97	0x00000000	0.0
98	0x00000000	0.0
99	0x00000000	0.0
100	0x00000000	0.0
101	0x00000000	0.0
102	0x00000000	0.0
103	0x00000000	0.0
104	0x00000000	0.0
105	0x00000000	0.0
106	0x00000000	0.0
107	0x00000000	0.0
108	0x00000000	0.0
109	0x00000000	0.0
110	0x00000000	0.0
111	0x00000000	0.0
112	0x00000000	0.0
113	0x00000000	0.0
114	0x00000000	0.0
115	0x00000000	0.0
116	0x00000000	0.0
117	0x00000000	0.0
118	0x00000000	0.0
119	0x00000000	0.0
120	0x00000000	0.0
121	0x00000000	0.0
122	0x00000000	0.0
123	0x00000000	0.0
124	0x00000000	0.0
125	0x00000000	0.0
126	0x00000000	0.0
127	0x00000000	0.0

network_body.linear_encoder.seq_layers.2.weight f4 [128, 128]
0	0x3d107bbe	0.03527426
1	0x3da811df	0.08206534
2	0xbd86c910	-0.065813184
3	0xbd14102b	-0.03614823
4	0xbc836e60	-0.016043842
5	0x3d7845e9	0.060613547
6	0xbd077f3e	-0.033080332
7	0xbe2edcc9	-0.1707641
8	0xbe002753	-0.12515001
9	0x3de2e93f	0.110796444
10	0x3d76d353	0.06026013
11	0xbb1baa64	-0.0023752684
12	0xbca2f118	-0.019890353
13	0x3d1deb95	0.038554747
14	0xbcb856c2	-0.022502307
15	0xbe107c34	-0.1410988
16	0x3d4caa5e	0.049967162
17	0xbb7ec497	-0.00388745
18	0x3d555c9a	0.052090265
19	0x3d58dcd0	0.05294496
20	0xbe40350a	-0.18770233
21	0x3d88f15d	0.066866614
22	0x3cbbb5be	0.02291381
23	0xbd221588	-0.039571315
24	0xbbcd2aba	-0.006261197
25	0x3e47eeec	0.19524735
26	0xbd207a5d	-0.039179195
27	0x3dc12d73	0.09432497
28	0xbe254798	-0.16140592
29	0xbd8da74a	-0.069166735
30	0x3d095fbb	0.03353856
31	0x3e36b01d	0.1784062
32	0xbd4cfce3	-0.05004586
33	0x3e21ec01	0.15812685
34	0x3da88575	0.0822858
35	0x3ddb0ac0	0.1069541
36	0x3bc77897	0.0060873735
37	0x3bdd2daa	0.0067498283
38	0x3b1ec43d	0.0024225854
39	0xbda0a010	-0.078430295
40	0xbd52542b	-0.0513498
41	0xbd1b4b8c	-0.037913844
42	0x3c5b9d5e	0.0134042185
43	0xbdc525fc	-0.096263856
44	0x3d1eee67	0.038801577
45	0xbd459ec5	-0.048247118
46	0xbe45efec	-0.19329804
47	0xbd8e12d1	-0.06937183
48	0x3cdd7fa2	0.0270384
49	0x3d81581b	0.06315633
50	0xbc28d618	-0.01030495
51	0x3dbfb9d7	0.09361618
52	0xbd308c25	-0.043102402
53	0x3d4b6b58	0.049662918
54	0xbd4f9732	-0.0506813
55	0xbcf39c3b	-0.029737582
56	0xbda38210	-0.07983792
57	0x3d8aef57	0.06783932
58	0xbd705c84	-0.05868198
59	0x3e0160a5	0.12634523
60	0xbe1d6442	-0.15370277
61	0xbdea47a7	-0.11439448
62	0xbe2acb7e	-0.16679189
63	0x3df28a57	0.118427925
64	0xbd70534f	-0.0586732
65	0x3c8451a2	0.016152207
66	0xbe27c225	-0.16382654
67	0x3d51ebfa	0.051250435
68	0xbd9def21	-0.07711626
69	0xbe18893f	-0.14896105
70	0x3d366c68	0.044536978
71	0x3d4dc317	0.05023488
72	0xbe0e43af	-0.13893007
73	0x3db6baf7	0.089223795
74	0xbe0fdea7	-0.14049779
75	0xbc72efef	-0.014827712
76	0x3d365ebb	0.044523936
77	0x3c8db775	0.017299393
78	0x3cab4a56	0.02090947
79	0xbe37b962	-0.17941812
80	0xbc494113	-0.012283581
81	0x3da4d9c2	0.080493465
82	0x3df8aa12	0.12141813
83	0x3e25f1ce	0.16205522
84	0x3daa9fce	0.083312616
85	0xbdb1e82b	-0.08686861
86	0x3e4bbfea	0.19897428
87	0x3d86efcd	0.06588707
88	0x3df23f08	0.118284285
89	0x3e2f4591	0.17116381
90	0x3d86a9bb	0.06575342
91	0x3d899896	0.067185566
92	0x3c894723	0.016757553
93	0x3c40c4e6	0.011765694
94	0xbd209bde	-0.039211147
95	0xbdb4be42	-0.08825351
96	0x3ce2c120	0.02767998
97	0xbe13e1b3	-0.14441566
98	0x3d824564	0.063608915
99	0xbd2f67c8	-0.042823583
100	0xbd324b9c	-0.043529138
101	0xbd7a7a86	-0.061152004
102	0xbd901fb2	-0.070372954
103	0x3d4e6dfc	0.050397858
104	0xbd9dfd21	-0.07714296
105	0xbd2072cf	-0.03917199
106	0xbccdd2ee	-0.025124993
107	0xbdcb08d7	-0.099137954
108	0xbd8cce2c	-0.06875262
109	0x3dc99517	0.0984289
110	0x3dcad0d0	0.09903109
111	0x3cc3ef60	0.023917854
112	0xbdf2c8aa	-0.1185468
113	0x3dbf7552	0.09348549
114	0x3b82feda	0.003997666
115	0xbd7da705	-0.06192686
116	0xb9834b01	-0.0002504215
117	0x3df7df68	0.12103158
118	0x3d03e773	0.03220315
119	0xbd5fecf7	-0.054669347
120	0xbcf815cb	-0.03028383
121	0x3d7ba191	0.06143338
122	0xbd5dabc4	-0.054118887
123	0xbda17b3b	-0.078848325
124	0x3d99a033	0.07501259
125	0xbd0d01f5	-0.034425694
126	0xbe1e4974	-0.15457708
127	0x3d51b2f3	0.05119605
128	0xbe34a553	-0.17641191
129	0x3e3392db	0.1753649
130	0xbd1b82ae	-0.037966423
131	0x3ade2632	0.0016948639
132	0xbc8872d3	-0.016656315
133	0x3cbdd227	0.023171498
134	0xbc472cf5	-0.012156715
135	0x3d5d9a60	0.0541023
136	0x3d6a7cd9	0.05724797
137	0x3d8f3b5b	0.06993743
138	0xbc9d5182	-0.019203905
139	0xbb191d3e	-0.0023363377
140	0xbe1ee52e	-0.15517113
141	0xbd99ab31	-0.07503355
142	0xbde1f03c	-0.11032149
143	0x3d4f71fa	0.050645806
144	0xbd949272	-0.07254495
145	0x3da4db24	0.0804961
146	0x3d80f069	0.062958546
147	0x3cc7b857	0.024379892
148	0xbe05993c	-0.13046736
149	0x3e8998c1	0.26874354
150	0x3d63ac55	0.05558427
151	0xbd7ce337	-0.061740126
152	0x3dd3cea7	0.1034215
153	0xbe292cab	-0.16520946
154	0x3d213aed	0.039362837
155	0x3cffa603	0.03120709
156	0xbd129c41	-0.035793547
157	0x3de74762	0.11292912
158	0xbd0d0299	-0.034426305
159	0x3ca86cd9	0.020559715
160	0xbcb34a48	-0.021886006
161	0x3d2e84ff	0.042607304
162	0x3d704b66	0.058665656
163	0xbdc02c9a	-0.09383507
164	0x3e3d4a67	0.18485413
165	0x3d9efdd5	0.07763258
166	0xbb733258	-0.0037108865
167	0x3d67edce	0.056623273
168	0x3da280a4	0.079346925
169	0x3e0ce5bb	0.1375951
170	0x3d0f0e7f	0.034925934
171	0x3d434d78	0.0476813
172	0x3c58d340	0.01323396
173	0xbcfce5ae	-0.030871239
174	0x3c820121	0.015869679
175	0x3cf42673	0.02980349
176	0x3de63f54	0.11242548
177	0xbd70a5d5	-0.0587519
178	0x3cfbdda1	0.03074533
179	0x3d33be1c	0.043882474
180	0xbdb19347	-0.08670669
181	0xbc5767bc	-0.013147291
182	0xbd3e9cf4	-0.0465364
183	0xbd68528f	-0.05671936
184	0x3dda7ba6	0.10668115
185	0xbd4e6636	-0.050390445
186	0x3c36f382	0.011166455
187	0xbdb4a402	-0.088203445
188	0xbd9d2743	-0.07673504
189	0xbc0667b0	-0.008203432
190	0xbc7ddfd0	-0.015495256
191	0x3d74202f	0.059601005
192	0x3d2cdc6a	0.04220239
193	0x3dfff765	0.12498359
194	0x3e317b5c	0.17332214
195	0x3da79203	0.081821464
196	0xbe24a461	-0.1607833
197	0x3dd0750d	0.10178576
198	0xbd158ec3	-0.0365131
199	0xbd5e21c1	-0.05423141
200	0xbdcd6582	-0.10029127
201	0xbd28ecde	-0.04124152
202	0xbd0b9801	-0.03408051
203	0x3d93273f	0.0718522
204	0xbc327e4f	-0.010894372
205	0x3de0972c	0.10966334
206	0xbba3c846	-0.0049982397
207	0xbd83413e	-0.06408928
208	0xbd22f639	-0.039785597
209	0x3cd2c910	0.02573064
210	0x3da66052	0.081238404
211	0x3d0985b1	0.033574764
212	0x3d6d1cab	0.057888668
213	0x3e5a9bfb	0.21348564
214	0x3d54448f	0.051823195
215	0xbd35f735	-0.044425208
216	0xbe117031	-0.14202954
217	0x3d9ab9d1	0.07554973
218	0x3db21364	0.08695105
219	0xbd7f3aa2	-0.062311776
220	0xbdab82cf	-0.08374559
221	0x3d4741c3	0.0486467
222	0x3c5fa389	0.01364983
223	0xbdaf0131	-0.08545149
224	0x3dbc2728	0.09187156
225	0x3df12e64	0.117764264
226	0xbcd45ca1	-0.025923075
227	0xbda3cf8a	-0.07998569
228	0x3dd3dd74	0.10344973
229	0xbbb88c83	-0.0056319847
230	0x3d5d3ab0	0.054011047
231	0x3d30374f	0.043021496
232	0xbdf4873c	-0.119398564
233	0xbe1e1e4f	-0.1544125
234	0xbcd99c53	-0.026563799
235	0xbe3dba41	-0.18528081
236	0x3d629330	0.05531615
237	0x3bd8c053	0.0066147237
238	0xbe1d98be	-0.15390298
239	0xbd48013a	-0.048829295
240	0xbd393b18	-0.04522237
241	0xbb2680e3	-0.0025406412
242	0x3e25ceeb	0.16192214
243	0xbd61f495	-0.055164892
244	0xbc9499bf	-0.018139718
245	0x3d2feefa	0.042952515
246	0xbcf28918	-0.029606387
247	0xbdaad33a	-0.083410695
248	0x3e6fbed8	0.23412645
249	0x3ccd32b0	0.025048584
250	0x3d4f02b5	0.05053969
251	0x3e063417	0.13105808
252	0xbb3f691e	-0.0029206942
253	0x3b21f651	0.0024713466
254	0xbda937c6	-0.08262591
255	0x3bc06957	0.0058719325

network_body.linear_encoder.seq_layers.2.bias f4 [128]
0	0x00000000	0.0
1	0x00000000	0.0
2	0x00000000	0.0
3	0x00000000	0.0
4	0x00000000	0.0
5	0x00000000	0.0
6	0x00000000	0.0
7	0x00000000	0.0
8	0x00000000	0.0
9	0x00000000	0.0
10	0x00000000	0.0
11	0x00000000	0.0
12	0x00000000	0.0
13	0x00000000	0.0
14	0x00000000	0.0
15	0x00000000	0.0
16	0x00000000	0.0
17	0x00000000	0.0
18	0x00000000	0.0
19	0x00000000	0.0
20	0x00000000	0.0
21	0x00000000	0.0
22	0x00000000	0.0
23	0x00000000	0.0
24	0x00000000	0.0
25	0x00000000	0.0
26	0x00000000	0.0
27	0x00000000	0.0
28	0x00000000	0.0
29	0x00000000	0.0
30	0x00000000	0.0
31	0x00000000	0.0
32	0x00000000	0.0
33	0x00000000	0.0
34	0x00000000	0.0
35	0x00000000	0.0
36	0x00000000	0.0
37	0x00000000	0.0
38	0x00000000	0.0
39	0x00000000	0.0
40	0x00000000	0.0
41	0x00000000	0.0
42	0x00000000	0.0
43	0x00000000	0.0
44	0x00000000	0.0
45	0x00000000	0.0
46	0x00000000	0.0
47	0x00000000	0.0
48	0x00000000	0.0
49	0x00000000	0.0
50	0x00000000	0.0
51	0x00000000	0.0
52	0x00000000	0.0
53	0x00000000	0.0
54	0x00000000	0.0
55	0x00000000	0.0
56	0x00000000	0.0
57	0x00000000	0.0
58	0x00000000	0.0
59	0x00000000	0.0
60	0x00000000	0.0
61	0x00000000	0.0
62	0x00000000	0.0
63	0x00000000	0.0
64	0x00000000	0.0
65	0x00000000	0.0
66	0x00000000	0.0
67	0x00000000	0.0
68	0x00000000	0.0
69	0x00000000	0.0
70	0x00000000	0.0
71	0x00000000	0.0
72	0x00000000	0.0
73	0x00000000	0.0
74	0x00000000	0.0
75	0x00000000	0.0
76	0x00000000	0.0
77	0x00000000	0.0
78	0x00000000	0.0
79	0x00000000	0.0
80	0x00000000	0.0
81	0x00000000	0.0
82	0x00000000	0.0
83	0x00000000	0.0
84	0x00000000	0.0
85	0x00000000	0.0
86	0x00000000	0.0
87	0x00000000	0.0
88	0x00000000	0.0
89	0x00000000	0.0
90	0x00000000	0.0
91	0x00000000	0.0
92	0x00000000	0.0
93	0x00000000	0.0
94	0x00000000	0.0
95	0x00000000	0.0
96	0x00000000	0.0
97	0x00000000	0.0
98	0x00000000	0.0
99	0x00000000	0.0
100	0x00000000	0.0
101	0x00000000	0.0
102	0x00000000	0.0
103	0x00000000	0.0
104	0x00000000	0.0
105	0x00000000	0.0
106	0x00000000	0.0
107	0x00000000	0.0
108	0x00000000	0.0
109	0x00000000	0.0
110	0x00000000	0.0
111	0x00000000	0.0
112	0x00000000	0.0
113	0x00000000	0.0
114	0x00000000	0.0
115	0x00000000	0.0
116	0x00000000	0.0
117	0x00000000	0.0
118	0x00000000	0.0
119	0x00000000	0.0
120	0x00000000	0.0
121	0x00000000	0.0
122	0x00000000	0.0
123	0x00000000	0.0
124	0x00000000	0.0
125	0x00000000	0.0
126	0x00000000	0.0
127	0x00000000	0.0

action_model._continuous_distribution.log_sigma f4 [1, 2]
0	0x00000000	0.0
1	0x00000000	0.0

action_model._continuous_distribution.mu.weight f4 [2, 128]
0	0x3d0a8bff	0.033824917
1	0x3c0296d7	0.007970533
2	0xbb9c6f99	-0.0047740457
3	0x3bbe743b	0.0058121956
4	0x3cc23ad1	0.023709686
5	0x3ccc849b	0.024965575
6	0x3c4b2715	0.012399455
7	0xbc6002cb	-0.013672541
8	0xb8898518	-6.55746e-05
9	0x3c1eed54	0.009700138
10	0x3cae27d3	0.021259224
11	0x3d3c35dd	0.045949806
12	0xbcb6ecaa	-0.022329647
13	0x3ba12990	0.0049182847
14	0xbcf2a260	-0.029618442
15	0xbc5be87b	-0.013422127
16	0x3c822933	0.015888786
17	0xbc6c728f	-0.01443161
18	0x3a1f30ba	0.00060726295
19	0xbb911a15	-0.004428158
20	0xbb2fb623	-0.0026811443
21	0x3c39584a	0.011312554
22	0xbd380b7f	-0.04493284
23	0x3c8225d2	0.015887175
24	0xbbdcf045	-0.0067425095
25	0x3cb64c17	0.02225308
26	0x3c43c32f	0.011948391
27	0xbc5b3b18	-0.013380788
28	0xbc9f36b0	-0.019435257
29	0x3c27e85e	0.010248272
30	0xb8ef9733	-0.00011424571
31	0x3c711d78	0.014716499
32	0xbb44f325	-0.0030052152
33	0x3b59e57f	0.0033248363
34	0x3c7c3877	0.015394322
35	0xbaec9cb8	-0.0018052077
36	0xbbc72533	-0.0060774325
37	0xba32ed88	-0.0006825556
38	0x3b3bc6ef	0.002865251
39	0x3d35695f	0.044289943
40	0xbc69c3e0	-0.014267892
41	0x3ccc2cdb	0.024923733
42	0x3b3bfe8e	0.0028685662
43	0x3b54b05a	0.0032453747
44	0x3bdea670	0.0067947432
45	0xbc4d4a1f	-0.012529879
46	0x3ce8250f	0.028337983
47	0x3bcd452f	0.006264351
48	0xbbb133b3	-0.0054077744
49	0xbb62f602	-0.0034631495
50	0x3ab02941	0.0013440029
51	0xbcbf587b	-0.02335762
52	0x3c0d5be9	0.00862787
53	0x3b512a9a	0.0031916262
54	0x3cf0b370	0.029382437
55	0xbb2b2c09	-0.0026118776
56	0xbcfdff35	-0.031005481
57	0xbbd2f175	-0.0064374753
58	0xb94da1e3	-0.00019610631
59	0x3cb5b487	0.022180809
60	0xbbff495f	-0.007790729
61	0x3c15851c	0.009125974
62	0x3c6e8ec5	0.014560406
63	0x3c88cd57	0.016699476
64	0xbbb3c694	-0.005486319
65	0xbb3c1b2b	-0.0028702717
66	0xbc907dca	-0.017638106
67	0x3c7b7b93	0.015349287
68	0xbc4558f4	-0.012045134
69	0x3bc11432	0.0058923
70	0xbbf4cb92	-0.0074705565
71	0x3c006333	0.007836151
72	0xbbb02615	-0.0053756335
73	0xbc96af7b	-0.018394222
74	0x3b01f862	0.0019831886
75	0xbb9a3fc8	-0.0047073103
76	0xbbe1c73d	-0.006890206
77	0xbc1b16fa	-0.009465927
78	0x3c43692e	0.011926932
79	0xbd0cd9bf	-0.034387346
80	0x3bf9a6dd	0.0076187686
81	0x3ccb06cb	0.024783513
82	0x3bcceab5	0.006253565
83	0x3c602b17	0.013682148
84	0x3c939e07	0.01801969
85	0x3af92c5b	0.0019010411
86	0xbbb451f8	-0.0055029355
87	0x3bd35e42	0.0064504454
88	0xbc8bc555	-0.017061869
89	0x3c8d40ce	0.017242815
90	0xbc4c666e	-0.012475593
91	0x3ace3a27	0.0015733883
92	0x3c02dd8f	0.007987394
93	0x3981a1ad	0.00024725255
94	0x3ce56988	0.028004423
95	0xbaa43e87	-0.0012530842
96	0x3a9d0c89	0.0011981885
97	0xbb940b3f	-0.004517942
98	0xbd0073f3	-0.031360578
99	0xbb94f6c5	-0.004546019
100	0xbc48792b	-0.01223592
101	0xba0eaefd	-0.00054429454
102	0xbbe528a8	-0.006993372
103	0x3c84e2a6	0.016221356
104	0x3cc8ae38	0.024497136
105	0xbc82a430	-0.015947431
106	0x3cf1d4e0	0.029520452
107	0x3bfcd790	0.0077161267
108	0xbca86f87	-0.020560993
109	0xbca5ad50	-0.020224243
110	0x3cf22a9b	0.029561331
111	0x3c56ba4b	0.013105939
112	0x3cc6e6ab	0.024279913
113	0xbcc66b07	-0.024220956
114	0x3c0ff2b3	0.008785891
115	0xbba17013	-0.0049266904
116	0xbc3d6a98	-0.011561058
117	0xbc94ada4	-0.018149205
118	0x3b5164c3	0.0031950928
119	0xbcb14efb	-0.021644106
120	0x3c5e6b68	0.013575412
121	0x3b930f67	0.00448792
122	0xbc905d03	-0.017622476
123	0x3c60c30a	0.013718376
124	0xbc19f062	-0.009395691
125	0xbca47a64	-0.020077892
126	0x3c58cfc2	0.013233127
127	0x3b96df45	0.0046042525
128	0xbbddb252	-0.006765642
129	0x3b1fa8fe	0.0024362202
130	0xbadcdc6b	-0.0016850358
131	0x3c36d2ed	0.011158687
132	0x3a78ade0	0.00094863586
133	0xbbb6ca83	-0.0055783405
134	0xba62e2ad	-0.0008654993
135	0xbc61539b	-0.013752843
136	0xbc99da2b	-0.018780788
137	0x3cab0433	0.020876026
138	0x3b29fd8b	0.0025938477
139	0xba5b58cd	-0.00083674194
140	0x3ccca5c1	0.024981381
141	0xbbb72b77	-0.005589898
142	0x3c8fad0b	0.017538568
143	0xbce13e0f	-0.027495412
144	0x3c41e6e7	0.011834837
145	0xbc820d18	-0.015875384
146	0xbc07f7ba	-0.008298809
147	0xbc5a00da	-0.013305867
148	0xbca7ee53	-0.020499384
149	0x3c943ff7	0.018096907
150	0x3c0aef74	0.008479942
151	0xbbb2f00b	-0.0054607443
152	0xbd045c19	-0.032314394
153	0x3d2cca37	0.042185035
154	0x3b0326af	0.002001207
155	0xbd3e29f9	-0.046426747
156	0xbcc1dd1e	-0.023665007
157	0xbd22f433	-0.039783668
158	0xbc8e5a4d	-0.017377043
159	0x3cb1da0b	0.021710416
160	0x3cd9d67b	0.02659153
161	0xbca62bfc	-0.020284645
162	0x3c586430	0.01320748
163	0xbbdf000f	-0.006805427
164	0xbb561a02	-0.003266931
165	0x3c8b3cbc	0.016996734
166	0xbc05df99	-0.008170986
167	0xbba94193	-0.0051652878
168	0xbbba124f	-0.005678452
169	0x3d22a10f	0.03970438
170	0xbc2b1093	-0.010440963
171	0x3ce799da	0.028271604
172	0x3bfee702	0.007779003
173	0x3cda0f0f	0.026618509
174	0x3bf7d92b	0.0075637302
175	0x3cd50edf	0.026008068
176	0xbbbe9485	-0.0058160448
177	0x3aee40e5	0.0018177299
178	0xbbc9e219	-0.006160986
179	0xbbeb99c0	-0.0071899593
180	0xbca06750	-0.019580513
181	0x3c9d405f	0.019195734
182	0x3c7eb7f3	0.015546787
183	0xbc146c6d	-0.009059054
184	0xbc7ec727	-0.015550411
185	0xbc118f80	-0.008884311
186	0x3b8187df	0.0039529647
187	0xba8c7a7b	-0.0010717654
188	0xbc8084e3	-0.015688365
189	0xba2ba3b7	-0.0006547528
190	0x3cb67b2f	0.022275535
191	0x3c84057b	0.016115895
192	0x3c6e10a0	0.014530331
193	0x3d029156	0.031876884
194	0xbc8f9c91	-0.017530711
195	0x3bdb156a	0.0066859024
196	0x3c08a82a	0.008340875
197	0x3c5f2543	0.013619724
198	0xbb16227c	-0.0022908738
199	0xbbf5d625	-0.0075023347
200	0x3c5b5b17	0.013388417
201	0x3b960b67	0.004578996
202	0xbc576d88	-0.013148673
203	0x3b9e333e	0.004827886
204	0x3c6cd680	0.014455438
205	0xbb028c16	-0.0019919924
206	0xbc3fadfd	-0.011699197
207	0x3be3f7fb	0.006957052
208	0xbd07ceb7	-0.033156123
209	0x3bd02d70	0.006353073
210	0x3ac37d93	0.0014914743
211	0x3cfd8f2f	0.030952064
212	0xbc57e418	-0.01317694
213	0xbcd5d728	-0.026103571
214	0x3c86b9ab	0.016445955
215	0xbcfae11a	-0.030624915
216	0x3d54fc30	0.051998317
217	0xbd134734	-0.035956576
218	0xbbbf6ef7	-0.0058420855
219	0xbc8522dd	-0.016251976
220	0x390b4b2c	0.00013284077
221	0x3cd2ef2b	0.02574881
222	0xbb79ad4f	-0.0038097685
223	0xbb4bed6e	-0.003111686
224	0x3c1b52ef	0.009480222
225	0xbc7ef657	-0.015561662
226	0xbb8c27fe	-0.0042772284
227	0x3cda939f	0.02668172
228	0xbc631d10	-0.0138619095
229	0xbd21d92e	-0.03951376
230	0x3ce5208d	0.027969623
231	0xbc04b026	-0.008098638
232	0x3d1c0eae	0.038099937
233	0x3cb2cd38	0.021826372
234	0xbcfac373	-0.030610776
235	0xbc590bf5	-0.01324748
236	0xbbb0c923	-0.005395071
237	0x3c1f579c	0.009725478
238	0xbc8a06ee	-0.016849007
239	0x3ca17288	0.019707933
240	0x3cb011a8	0.021492794
241	0x3c2e6150	0.010643318
242	0x3c42f554	0.011899311
243	0x3ba3066f	0.004975132
244	0x3bc4139c	0.005983783
245	0x3ba9bc2b	0.005179902
246	0x3c40d4d8	0.011769496
247	0xbc4f90c8	-0.012668796
248	0xbd0d2a80	-0.03446436
249	0xbbe028ba	-0.0068407925
250	0x3b69e3c7	0.0035688744
251	0xbbdbb17f	-0.006704509
252	0xbb4b784b	-0.0031047042
253	0xbcb5c6c1	-0.0221895
254	0x3b9a23d4	0.004703978
255	0x3c8e0f0b	0.017341157

action_model._continuous_distribution.mu.bias f4 [2]
0	0x00000000	0.0
1	0x00000000	0.0

network_body.linear_encoder.seq_layers.0.weight f4 [128, 6]
0	0x3d29241b	0.0412942
1	0x3e8a1718	0.26970744
2	0xbf23f768	-0.64049387
3	0x3f0f22c7	0.5591244
4	0x3ec27b77	0.3798482
5	0xbeafba49	-0.34321812
6	0x3f51cab3	0.8194992
7	0xbf4db1bd	-0.8034933
8	0xbed0de03	-0.40794381
9	0xbcf121cf	-0.029435067
10	0x3d748e3e	0.059705965
11	0x3af1f6e2	0.0018460418
12	0xbe0cb0c5	-0.13739307
13	0xbeaf4d03	-0.34238443
14	0xbf3ef58c	-0.74593425
15	0x3f9b6670	1.2140636
16	0x3e5f32a5	0.21796663
17	0xbf2e45e5	-0.680754
18	0xb97b5f4e	-0.00023972729
19	0x3f2237e0	0.6336651
20	0x3f097321	0.536913
21	0xbf0cc06b	-0.54981107
22	0xbc97875d	-0.018497163
23	0xbf333cb7	-0.7001452
24	0x3edfdb83	0.43722162
25	0x3daac637	0.08338588
26	0xbdd104b0	-0.10205972
27	0x3e1145bb	0.14186756
28	0x3f3c8cf0	0.73652554
29	0x3f1b9cfd	0.6078642
30	0x3d80ced6	0.06289451
31	0x3df3562e	0.11881672
32	0x3e059751	0.13046004
33	0xbef66603	-0.48124704
34	0x3f096ae6	0.5367874
35	0x3f475813	0.77868766
36	0x3d57221d	0.052522767
37	0x3ea5d5d6	0.32389706
38	0x3dfebc44	0.124382526
39	0x3eeb8987	0.46003363
40	0x3e47d49a	0.19514695
41	0x3d375cdc	0.044766292
42	0x3dcf0a8a	0.10109432
43	0xbf4cddba	-0.8002583
44	0xbe016c74	-0.12639028
45	0xbebe59c6	-0.37177867
46	0xbef98472	-0.4873386
47	0xbe45dc60	-0.19322348
48	0x3dc92f93	0.09823527
49	0x3dd31889	0.10307414
50	0xbed47f42	-0.4150334
51	0xbe362a18	-0.17789495
52	0x3e4194c9	0.18904413
53	0xbeeb0e8e	-0.45909542
54	0xbd84a356	-0.06476466
55	0xbeec4407	-0.4614565
56	0xbec251e6	-0.3795311
57	0xbf2dcf29	-0.67894226
58	0x3e86cb5e	0.26327032
59	0x3f369a36	0.7132906
60	0x3ecba5d2	0.39774948
61	0x3ec0feeb	0.37694487
62	0x3d9f164c	0.07767925
63	0x3e207e58	0.15673196
64	0x3ce7728d	0.028252864
65	0xbe7328c0	-0.23746014
66	0xbd236256	-0.039888702
67	0x3dfac16b	0.12243923
68	0xbebfd8fa	-0.37470227
69	0x3e826ab6	0.2547204
70	0x3eece6a5	0.46269718
71	0x3f7654b0	0.9622297
72	0xbe0d7761	-0.1381507
73	0x3e2baeb6	0.16765866
74	0xbf550a02	-0.83218396
75	0xbf8932dd	-1.0718647
76	0x3f02c174	0.51076436
77	0xbf598589	-0.84969383
78	0xbe8d4980	-0.2759514
79	0xbe30079e	-0.17190406
80	0x3de4e1f2	0.11175908
81	0x3e1b389b	0.15158312
82	0xbe2c68e5	-0.16836889
83	0x3e043ea3	0.12914519
84	0xbf178ece	-0.5920228
85	0x3e0be723	0.1366239
86	0xbe902961	-0.2815657
87	0x3f012429	0.504458
88	0xbf078d04	-0.5294955
89	0x3e0db507	0.13838588
90	0x3f074865	0.5284484
91	0x3ef00ec9	0.4688628
92	0xbc976d08	-0.018484607
93	0xbe1cf2ee	-0.15327045
94	0xbf18b1de	-0.59646404
95	0xbf4adc3a	-0.7924229
96	0xbe792d23	-0.24333625
97	0x3e2b5f6e	0.16735622
98	0x3e7edaef	0.24888204
99	0x3e629906	0.22128686
100	0xbe94d3a5	-0.29067722
101	0x3e27cec6	0.16387472
102	0x3e54d717	0.20785175
103	0x3edfe259	0.43727377
104	0xbd914059	-0.070923515
105	0xbd30a677	-0.043127503
106	0x3f645354	0.8918965
107	0x3f4a2e34	0.7897675
108	0xbe6f0f65	-0.23345716
109	0xbf1db8e7	-0.61610264
110	0xbe98e23c	-0.29860103
111	0xbf22a8e1	-0.6353894
112	0x3e395f79	0.18102826
113	0xbf53e3e0	-0.82769585
114	0x3f3111e2	0.6916791
115	0x3e2c170d	0.16805668
116	0x3e4d69e0	0.2005992
117	0xbe7500bd	-0.23926063
118	0x3e287cc3	0.16453843
119	0x3eba3e85	0.36375824
120	0xbed92e7b	-0.42418274
121	0x3aea3a94	0.0017870241
122	0x3d37e7e2	0.044898875
123	0x3ea7916e	0.32728142
124	0x3f30b920	0.6903248
125	0x3e3b3eec	0.18285722
126	0x3f395456	0.7239431
127	0x3e72ff7b	0.2373027
128	0xbf31918d	-0.6936272
129	0xbde185b2	-0.110118285
130	0x3e5a9c9b	0.21348803
131	0x3e7dbe1c	0.24779552
132	0x3f3ef499	0.74591976
133	0x3f22d2b0	0.63602734
134	0xbdc31951	-0.09526313
135	0x3e515730	0.20443416
136	0xbeb6bca6	-0.35690802
137	0xbf00b594	-0.50277066
138	0xbd9b7258	-0.07590169
139	0x3c8daa0d	0.017293
140	0x3e49dfc6	0.19714269
141	0xbebc147c	-0.36734378
142	0x3f24bf41	0.6435433
143	0xbc12a591	-0.008950607
144	0x3f1a4554	0.60262036
145	0x3ed3f812	0.414002
146	0xbf59637f	-0.84917444
147	0xbe98f332	-0.29873043
148	0x3f3c9d60	0.73677635
149	0xbe9e4335	-0.3091065
150	0xbeac4caf	-0.33652255
151	0x3e01530d	0.12629338
152	0x3e99eba9	0.30062607
153	0x3d0a32f3	0.033739995
154	0xbe149c6e	-0.14512798
155	0xbe5753af	-0.21028017
156	0x3eca190f	0.39472243
157	0x3dec109c	0.115266055
158	0xbe2810ea	-0.16412702
159	0xbe8c50b2	-0.27405316
160	0x3ea96bb7	0.33089992
161	0xbe6332b7	-0.22187315
162	0xbf2add4a	-0.6674391
163	0x3e85cadb	0.2613133
164	0x3f2fbf0e	0.686509
165	0xbe05f02d	-0.13079901
166	0x3ed002be	0.40627092
167	0xbdc60172	-0.096682444
168	0x3f383fdc	0.7197244
169	0x3d6617b4	0.05617495
170	0xbe536f8d	-0.20648022
171	0xbe98b0cf	-0.29822394
172	0x3e115115	0.14191087
173	0x3ee4e498	0.44705653
174	0xbeb4842b	-0.35257086
175	0xbdff9359	-0.12479276
176	0x3db6b71a	0.089216426
177	0x3c797351	0.0152252475
178	0xbe634af9	-0.22196569
179	0xbcfa0e10	-0.030524284
180	0xbb634191	-0.0034676532
181	0xbeb40739	-0.3516176
182	0xbf017db4	-0.5058243
183	0x3e0b9415	0.13630708
184	0xbe191aba	-0.14951602
185	0xbf8ac849	-1.0842372
186	0x3ea5ff0d	0.3242115
187	0xbea7ea5d	-0.32795992
188	0xbea8fdf2	-0.33006245
189	0x3e805fc5	0.25073066
190	0xbe40002a	-0.18750063
191	0xbf205a92	-0.626382
192	0xbec27444	-0.3797933
193	0xbda27412	-0.07932295
194	0x3ed6c181	0.41944507
195	0x3e6476a2	0.2231088
196	0xbf290968	-0.6602998
197	0xbd8864e3	-0.066598676
198	0xbe93e1be	-0.28883165
199	0xbd8bb761	-0.06822086
200	0x3eab2647	0.3342764
201	0x3e6d002e	0.231446
202	0xbd4c5ae6	-0.049891375
203	0xbd0db00a	-0.034591712
204	0xbee01457	-0.43765518
205	0x3d563c4a	0.05230359
206	0x3f006412	0.50152695
207	0x3aa11120	0.0012288429
208	0x3cde6e5c	0.027152233
209	0xbcfe0108	-0.031006351
210	0xbeccefb6	-0.40026635
211	0xbefcd20c	-0.49379003
212	0xbeaf188a	-0.3419841
213	0x3c9cda80	0.019147158
214	0xbf268975	-0.6505349
215	0xbeb0e28b	-0.3454784
216	0xbdf70042	-0.12060596
217	0x3e45fd66	0.19334945
218	0x3ea1fa7e	0.31636423
219	0xbf493a9f	-0.78605074
220	0x3e688ece	0.22710726
221	0xbd9eeac7	-0.07759624
222	0xb99389e4	-0.0002814076
223	0x3ec2f1ee	0.38075203
224	0x3e067ab2	0.13132742
225	0xbddd0e7b	-0.107937776
226	0xbeb18770	-0.34673643
227	0x3e9a18ac	0.30096948
228	0xbe538532	-0.20656279
229	0x3ed773ea	0.42080623
230	0xbea08278	-0.3134954
231	0x3ec45f56	0.38353986
232	0xbdd6d236	-0.10489313
233	0xbe19d898	-0.1502403
234	0x3e1139c3	0.1418219
235	0x3ef4978b	0.47771868
236	0xbe93c3f0	-0.28860426
237	0x3ef2cb24	0.4742061
238	0xbe2a58ff	-0.16635512
239	0x3ea8a6d2	0.32939774
240	0x3e0b5208	0.13605511
241	0x3ea7ace8	0.32749104
242	0xbf7367ca	-0.95080245
243	0xbd048bf0	-0.032360017
244	0x3f347a3c	0.70499015
245	0xbef4ce4d	-0.47813645
246	0xbef65882	-0.481144
247	0xbdcf4125	-0.10119847
248	0x3f0077d0	0.5018282
249	0xbf078a5a	-0.5294548
250	0x3c91aa5d	0.01778143
251	0x3eb5a2f5	0.3547589
252	0xbd212146	-0.039338373
253	0x3f2ce807	0.67541546
254	0x3da4d52c	0.08048472
255	0xbe2f561b	-0.1712269

network_body.linear_encoder.seq_layers.0.bias f4 [128]
0	0x00000000	0.0
1	0x00000000	0.0
2	0x00000000	0.0
3	0x00000000	0.0
4	0x00000000	0.0
5	0x00000000	0.0
6	0x00000000	0.0
7	0x00000000	0.0
8	0x00000000	0.0
9	0x00000000	0.0
10	0x00000000	0.0
11	0x00000000	0.0
12	0x00000000	0.0
13	0x00000000	0.0
14	0x00000000	0.0
15	0x00000000	0.0
16	0x00000000	0.0
17	0x00000000	0.0
18	0x00000000	0.0
19	0x00000000	0.0
20	0x00000000	0.0
21	0x00000000	0.0
22	0x00000000	0.0
23	0x00000000	0.0
24	0x00000000	0.0
25	0x00000000	0.0
26	0x00000000	0.0
27	0x00000000	0.0
28	0x00000000	0.0
29	0x00000000	0.0
30	0x00000000	0.0
31	0x00000000	0.0
32	0x00000000	0.0
33	0x00000000	0.0
34	0x00000000	0.0
35	0x00000000	0.0
36	0x00000000	0.0
37	0x00000000	0.0
38	0x00000000	0.0
39	0x00000000	0.0
40	0x00000000	0.0
41	0x00000000	0.0
42	0x00000000	0.0
43	0x00000000	0.0
44	0x00000000	0.0
45	0x00000000	0.0
46	0x00000000	0.0
47	0x00000000	0.0
48	0x00000000	0.0
49	0x00000000	0.0
50	0x00000000	0.0
51	0x00000000	0.0
52	0x00000000	0.0
53	0x00000000	0.0
54	0x00000000	0.0
55	0x00000000	0.0
56	0x00000000	0.0
57	0x00000000	0.0
58	0x00000000	0.0
59	0x00000000	0.0
60	0x00000000	0.0
61	0x00000000	0.0
62	0x00000000	0.0
63	0x00000000	0.0
64	0x00000000	0.0
65	0x00000000	0.0
66	0x00000000	0.0
67	0x00000000	0.0
68	0x00000000	0.0
69	0x00000000	0.0
70	0x00000000	0.0
71	0x00000000	0.0
72	0x00000000	0.0
73	0x00000000	0.0
74	0x00000000	0.0
75	0x00000000	0.0
76	0x00000000	0.0
77	0x00000000	0.0
78	0x00000000	0.0
79	0x00000000	0.0
80	0x00000000	0.0
81	0x00000000	0.0
82	0x00000000	0.0
83	0x00000000	0.0
84	0x00000000	0.0
85	0x00000000	0.0
86	0x00000000	0.0
87	0x00000000	0.0
88	0x00000000	0.0
89	0x00000000	0.0
90	0x00000000	0.0
91	0x00000000	0.0
92	0x00000000	0.0
93	0x00000000	0.0
94	0x00000000	0.0
95	0x00000000	0.0
96	0x00000000	0.0
97	0x00000000	0.0
98	0x00000000	0.0
99	0x00000000	0.0
100	0x00000000	0.0
101	0x00000000	0.0
102	0x00000000	0.0
103	0x00000000	0.0
104	0x00000000	0.0
105	0x00000000	0.0
106	0x00000000	0.0
107	0x00000000	0.0
108	0x00000000	0.0
109	0x00000000	0.0
110	0x00000000	0.0
111	0x00000000	0.0
112	0x00000000	0.0
113	0x00000000	0.0
114	0x00000000	0.0
115	0x00000000	0.0
116	0x00000000	0.0
117	0x00000000	0.0
118	0x00000000	0.0
119	0x00000000	0.0
120	0x00000000	0.0
121	0x00000000	0.0
122	0x00000000	0.0
123	0x00000000	0.0
124	0x00000000	0.0
125	0x00000000	0.0
126	0x00000000	0.0
127	0x00000000	0.0

network_body.linear_encoder.seq_layers.2.weight f4 [128, 128]
0	0xbdfc21fa	-0.12311168
1	0x3d97d03a	0.07412763
2	0xbd55e492	-0.052219935
3	0xbd0a7028	-0.033798367
4	0xbbd1953c	-0.006395964
5	0x3cec4d5f	0.028845487
6	0xbda8598c	-0.08220205
7	0xbd6058a7	-0.054772045
8	0xbdc330a1	-0.095307596
9	0xbd865a2c	-0.06560168
10	0xbd3f3b87	-0.04668763
11	0x3c31af83	0.010845068
12	0x3d9fa0de	0.07794355
13	0xbdaf800c	-0.08569345
14	0xbd97be6a	-0.074093655
15	0xbd434ed8	-0.047682613
16	0x3db5a819	0.08869953
17	0x3da5462e	0.08070026
18	0xbe190bf1	-0.14945962
19	0xbda0e1ad	-0.07855544
20	0xbc0555a5	-0.008138095
21	0x3e5f277a	0.21792403
22	0x3d0f0f2c	0.03492658
23	0x3bc8a321	0.006122962
24	0xbab4dd87	-0.001379893
25	0xbd60a931	-0.054848853
26	0x3d88c681	0.066784866
27	0x3df7a885	0.120926894
28	0x3defb643	0.117046855
29	0x3df4f1cb	0.11960181
30	0x3d68537e	0.05672025
31	0x3d7811ca	0.06056384
32	0x3e11796f	0.1420648
33	0x3d4bc7be	0.049751036
34	0x3da1ecf7	0.079065256
35	0xbc0c1332	-0.008549498
36	0xbdc8084f	-0.0976721
37	0x3dcb3718	0.09922618
38	0x3e060b4b	0.13090245
39	0xbc281a0e	-0.010260118
40	0x3d91240c	0.070869535
41	0xbd89a615	-0.06721131
42	0xbe0d78db	-0.13815634
43	0xbafd68ad	-0.0019333564
44	0xbccc08b9	-0.024906503
45	0x3d3f631e	0.046725385
46	0x3e250117	0.16113697
47	0x3e16050d	0.14650364
48	0xbadd5c03	-0.0016888384
49	0x3d86b159	0.06576795
50	0x3da4be9e	0.0804417
51	0xbb327d9c	-0.0027235514
52	0xbcede346	-0.029039036
53	0x3ce7a74e	0.02827802
54	0xbe1e9ae2	-0.1548877
55	0x3d1b8c4b	0.03797559
56	0xbd0eda4b	-0.03487615
57	0x3e5c0542	0.2148638
58	0x3dbf62e4	0.09345034
59	0x3d5d61c9	0.054048333
60	0x3d66d162	0.056352027
61	0xbd841d8b	-0.064509474
62	0x3e362d71	0.17790772
63	0x3dbe651a	0.09296627
64	0x3dc07d69	0.0939892
65	0x3c9323c7	0.017961396
66	0xbd88f56d	-0.06687436
67	0x3d36d4c0	0.044636488
68	0x3dcb4c8e	0.09926711
69	0xbd5ea5ed	-0.054357458
70	0xbd81f728	-0.063459694
71	0x3d996eab	0.07491811
72	0x3db0a508	0.08625227
73	0x3d7c30b3	0.06156988
74	0xbd722352	-0.059115715
75	0xbde146f1	-0.10999859
76	0xbe31c282	-0.17359355
77	0xbd998bae	-0.07497345
78	0x3e003b58	0.12522638
79	0xbdf68c54	-0.12038484
80	0xbac28c26	-0.0014842793
81	0xbe5b8099	-0.21435775
82	0xbcefbc9a	-0.029264737
83	0xbd42c626	-0.04755225
84	0x3d77ba05	0.060480136
85	0x3c356211	0.011070744
86	0xbd6ea79e	-0.05826532
87	0x3e129c07	0.14317332
88	0x3e0ef770	0.13961577
89	0xbe024e24	-0.12725121
90	0xbe1e9d82	-0.15489772
91	0x3c387ce3	0.011260244
92	0xbdaf4c9a	-0.085595325
93	0xbcd9bb25	-0.026578495
94	0xbcd3d1a6	-0.025856804
95	0x3d7b9b54	0.06142743
96	0x3d68890f	0.056771334
97	0xbd5d2771	-0.053992692
98	0xbdd9ab0d	-0.106283285
99	0xbe265d4f	-0.16246532
100	0xbe05a415	-0.13050874
101	0xbc18854d	-0.009309125
102	0x3dd84466	0.10559921
103	0x3d210085	0.039307136
104	0x3ba31513	0.0049768775
105	0xbd45f27a	-0.048326947
106	0x3dbd754f	0.092508905
107	0xbc8bb7d1	-0.017055424
108	0x3d98e90d	0.07466326
109	0x3cf86b6d	0.030324662
110	0xbb31d580	-0.0027135313
111	0xbd911967	-0.07084923
112	0x3e172460	0.1475997
113	0x3de039e4	0.10948542
114	0xbd9ed6ab	-0.077557884
115	0x3e28c89e	0.1648278
116	0xbe2983a4	-0.16554123
117	0x3a918395	0.0011101837
118	0xbcfe0a02	-0.031010631
119	0x3e51f175	0.20502265
120	0xbcd4fee4	-0.026000448
121	0xbd6fd5cb	-0.0585535
122	0xbe02fefe	-0.12792584
123	0xbd4617c1	-0.048362497
124	0x3d1d6b21	0.038432244
125	0x3e109152	0.14117935
126	0x3e232f56	0.15936026
127	0x3e0052a5	0.12531526
128	0x3de6da30	0.11272085
129	0xbdb1839f	-0.08667683
130	0x3ce9728e	0.028497007
131	0x3dc9da38	0.09856075
132	0xbd101a2f	-0.03518122
133	0xbd1f01dd	-0.038820136
134	0x3d5aa96b	0.053384226
135	0xbd250da0	-0.040296197
136	0xbd47986b	-0.04872934
137	0xbd136776	-0.03598734
138	0xbdb80df2	-0.08987035
139	0x3dbaa641	0.09113742
140	0xbd6d3e39	-0.05792067
141	0xbc6d1d55	-0.014472325
142	0xbe2783b3	-0.16358833
143	0xbe079377	-0.13239847
144	0xbe1cfaeb	-0.15330093
145	0xbc751104	-0.01495767
146	0xbdd39d20	-0.103327036
147	0xbe1fb9d3	-0.1559823
148	0x3e1a2ce3	0.15056185
149	0x3cb75d29	0.02238329
150	0x3dc5c05f	0.096558325
151	0xbc82b3e8	-0.015954927
152	0x3afc24c1	0.0019237028
153	0x3d0c4a01	0.034250263
154	0x3dab586f	0.08366477
155	0x3e11ec62	0.14250329
156	0x3cd84f15	0.026404897
157	0x3dad5b5b	0.0846469
158	0x3e2c5b44	0.1683169
159	0x3da3a2f5	0.07990066
160	0xbdb78fff	-0.08963012
161	0x3e10f6cf	0.1415665
162	0xbdf96bbb	-0.12178751
163	0xbd99282e	-0.07478367
164	0xbe32cdfb	-0.17461388
165	0x3df07731	0.11741484
166	0x3cce8c0c	0.025213264
167	0xbd0333d0	-0.032031834
168	0x3cc623e8	0.024187043
169	0xbdc4cd56	-0.09609477
170	0xbb3d2ff5	-0.0028867696
171	0x3c22a92c	0.009928029
172	0xbd2711fb	-0.040788632
173	0x3e1b7e69	0.1518494
174	0xbe2a7e72	-0.16649798
175	0xbe39a549	-0.18129458
176	0x3c6c55c9	0.01442475
177	0x3c935cbf	0.01798856
178	0xbe40e10e	-0.18835852
179	0x3ce28962	0.0276534
180	0xbd297ada	-0.041376926
181	0x3de7d1e3	0.113193296
182	0x3e300528	0.17189467
183	0xbd94c27f	-0.0726366
184	0x3c987ff2	0.018615697
185	0xbd0aa8b7	-0.033852305
186	0xbdbeac41	-0.093101986
187	0x3d060a19	0.032724474
188	0xbca3d53f	-0.019999145
189	0x3d7ff489	0.062489066
190	0xbdb0c974	-0.08632174
191	0xbdc5dc58	-0.09661168
192	0x3d9da6f5	0.0769786
193	0x3c3bbbd8	0.01145836
194	0x3afd0a8b	0.001930551
195	0x3e073b32	0.13206175
196	0xbd685637	-0.056722846
197	0x3d2e30fd	0.042527188
198	0xbc6ad51e	-0.014333038
199	0xbc05d5f3	-0.008168685
200	0x3d0be3eb	0.034152906
201	0xbd0bec11	-0.034160677
202	0xbcbf35e8	-0.023341134
203	0x3cac5c3d	0.021040076
204	0xbd9a4fc8	-0.07534748
205	0xbc509305	-0.012730365
206	0xbde33e11	-0.110958226
207	0xbd9ba434	-0.07599679
208	0xbda8a3c4	-0.08234361
209	0x3d0c721e	0.034288518
210	0x3ca9fc05	0.020750055
211	0xbe5c1f82	-0.21496394
212	0xbd82523e	-0.06363343
213	0xbdd3c951	-0.103411324
214	0x3e01cc96	0.126757
215	0x3de43943	0.11143734
216	0x3e66f14d	0.22552986
217	0xbdf5a497	-0.11994284
218	0x3da4cbb7	0.08046668
219	0x3c1c5aae	0.009543104
220	0x3e6c0ff4	0.2305296
221	0xbba0d100	-0.0049077272
222	0xbd03ea54	-0.032205895
223	0x3d824a78	0.0636186
224	0x3d8dbf71	0.0692128
225	0x3de99e0d	0.11407099
226	0xbd5d2747	-0.053992536
227	0x3c544a30	0.012957141
228	0x3e18226f	0.14856885
229	0xbd99a5e3	-0.075023435
230	0x3e33ba93	0.17551641
231	0x3c289090	0.010288373
232	0x3c55a2dd	0.013039318
233	0x3c9ffec7	0.019530667
234	0xbe15b584	-0.14620024
235	0x3d9bc0a3	0.07605102
236	0x3e321058	0.17389047
237	0xbcdd3533	-0.027002906
238	0xbd3ab2ce	-0.045580678
239	0xbd0a096d	-0.033700395
240	0xbda24dee	-0.0792502
241	0xbe6787a8	-0.22610343
242	0xbd5f2377	-0.05447718
243	0x3d4f640e	0.05063253
244	0xbe3537f9	-0.17697133
245	0x3cd3154b	0.02576699
246	0xbd3aa34b	-0.045565885
247	0xbd34d88b	-0.044151824
248	0x3deb21c2	0.11481048
249	0xbc88c9ba	-0.016697753
250	0xbc4a4375	-0.012345185
251	0x3d6aedcc	0.057355687
252	0xbe3a975f	-0.18221806
253	0x3e01cac7	0.1267501
254	0xbdde472a	-0.10853417
255	0x3b343b50	0.0027501173

network_body.linear_encoder.seq_layers.2.bias f4 [128]
0	0x00000000	0.0
1	0x00000000	0.0
2	0x00000000	0.0
3	0x00000000	0.0
4	0x00000000	0.0
5	0x00000000	0.0
6	0x00000000	0.0
7	0x00000000	0.0
8	0x00000000	0.0
9	0x00000000	0.0
10	0x00000000	0.0
11	0x00000000	0.0
12	0x00000000	0.0
13	0x00000000	0.0
14	0x00000000	0.0
15	0x00000000	0.0
16	0x00000000	0.0
17	0x00000000	0.0
18	0x00000000	0.0
19	0x00000000	0.0
20	0x00000000	0.0
21	0x00000000	0.0
22	0x00000000	0.0
23	0x00000000	0.0
24	0x00000000	0.0
25	0x00000000	0.0
26	0x00000000	0.0
27	0x00000000	0.0
28	0x00000000	0.0
29	0x00000000	0.0
30	0x00000000	0.0
31	0x00000000	0.0
32	0x00000000	0.0
33	0x00000000	0.0
34	0x00000000	0.0
35	0x00000000	0.0
36	0x00000000	0.0
37	0x00000000	0.0
38	0x00000000	0.0
39	0x00000000	0.0
40	0x00000000	0.0
41	0x00000000	0.0
42	0x00000000	0.0
43	0x00000000	0.0
44	0x00000000	0.0
45	0x00000000	0.0
46	0x00000000	0.0
47	0x00000000	0.0
48	0x00000000	0.0
49	0x00000000	0.0
50	0x00000000	0.0
51	0x00000000	0.0
52	0x00000000	0.0
53	0x00000000	0.0
54	0x00000000	0.0
55	0x00000000	0.0
56	0x00000000	0.0
57	0x00000000	0.0
58	0x00000000	0.0
59	0x00000000	0.0
60	0x00000000	0.0
61	0x00000000	0.0
62	0x00000000	0.0
63	0x00000000	0.0
64	0x00000000	0.0
65	0x00000000	0.0
66	0x00000000	0.0
67	0x00000000	0.0
68	0x00000000	0.0
69	0x00000000	0.0
70	0x00000000	0.0
71	0x00000000	0.0
72	0x00000000	0.0
73	0x00000000	0.0
74	0x00000000	0.0
75	0x00000000	0.0
76	0x00000000	0.0
77	0x00000000	0.0
78	0x00000000	0.0
79	0x00000000	0.0
80	0x00000000	0.0
81	0x00000000	0.0
82	0x00000000	0.0
83	0x00000000	0.0
84	0x00000000	0.0
85	0x00000000	0.0
86	0x00000000	0.0
87	0x00000000	0.0
88	0x00000000	0.0
89	0x00000000	0.0
90	0x00000000	0.0
91	0x00000000	0.0
92	0x00000000	0.0
93	0x00000000	0.0
94	0x00000000	0.0
95	0x00000000	0.0
96	0x00000000	0.0
97	0x00000000	0.0
98	0x00000000	0.0
99	0x00000000	0.0
100	0x00000000	0.0
101	0x00000000	0.0
102	0x00000000	0.0
103	0x00000000	0.0
104	0x00000000	0.0
105	0x00000000	0.0
106	0x00000000	0.0
107	0x00000000	0.0
108	0x00000000	0.0
109	0x00000000	0.0
110	0x00000000	0.0
111	0x00000000	0.0
112	0x00000000	0.0
113	0x00000000	0.0
114	0x00000000	0.0
115	0x00000000	0.0
116	0x00000000	0.0
117	0x00000000	0.0
118	0x00000000	0.0
119	0x00000000	0.0
120	0x00000000	0.0
121	0x00000000	0.0
122	0x00000000	0.0
123	0x00000000	0.0
124	0x00000000	0.0
125	0x00000000	0.0
126	0x00000000	0.0
127	0x00000000	0.0

value_heads.value_heads.extrinsic.weight f4 [1, 128]
0	0xbd9bce82	-0.076077476
1	0x3ca46d10	0.020071536
2	0x3d9cf660	0.0766418
3	0xbe25243d	-0.16127105
4	0xbe539d87	-0.2066556
5	0x3d978f94	0.07400432
6	0x3d84d420	0.06485772
7	0xbc084be0	-0.008318871
8	0xbda7128c	-0.081578344
9	0xbd2ee610	-0.042699873
10	0x3d58f8f8	0.05297181
11	0xbe0255c0	-0.12728024
12	0x3e0444a8	0.12916815
13	0xbd9569ea	-0.07295592
14	0x3e163a76	0.14670739
15	0x3e20bc3a	0.15696803
16	0xbcd162e8	-0.025559857
17	0xbdb6d3fa	-0.0892715
18	0xbdaef730	-0.08543241
19	0x3e54f3cc	0.20796126
20	0x3cfa85f8	0.03058146
21	0xbd8d654e	-0.06904088
22	0x3e0d4822	0.13797048
23	0xbe48ec0a	-0.19621292
24	0x3c475db0	0.012168333
25	0xbd3c65fc	-0.045995697
26	0xbe22b4cd	-0.15889283
27	0x3cfc7d48	0.030821458
28	0xbe413eff	-0.18871687
29	0xbd4f00e0	-0.050537944
30	0x3b237d00	0.0024946332
31	0xbe056d32	-0.13029936
32	0x3c17b560	0.009259552
33	0x3e5517cc	0.20809859
34	0x3ddfb6e0	0.109235525
35	0x3de4fbb4	0.11180821
36	0xbe15b210	-0.14618707
37	0xbe59e650	-0.21279263
38	0xbd572ec0	-0.05253482
39	0xbdd85606	-0.10563283
40	0xbe22f91f	-0.15915345
41	0xbe48e996	-0.19620356
42	0x3deb1bf8	0.11479944
43	0x3ddf083c	0.108902425
44	0x3c9c5e00	0.019087791
45	0xbdd879b7	-0.1057009
46	0xbe12086c	-0.14261025
47	0x3c75fa90	0.015013352
48	0x3d72ffd8	0.059326023
49	0xbda0e672	-0.07856454
50	0x3e0a2b00	0.13492966
51	0x3e58e78c	0.21182078
52	0xbdf55358	-0.11978787
53	0xbe54a895	-0.20767434
54	0xbdb2ab2c	-0.08724055
55	0xbd2f533c	-0.042803988
56	0xbe1a485b	-0.15066664
57	0xbdf8d8d7	-0.12150734
58	0x3d3136b8	0.043265074
59	0xbe4719cc	-0.19443434
60	0xbc225880	-0.009908795
61	0x3ddabd38	0.10680622
62	0xbd4d81f8	-0.050172776
63	0x3d9f134c	0.077673525
64	0x3e44fc06	0.19236764
65	0x3d4f6e88	0.05064252
66	0x3c00d280	0.007862687
67	0x3e0f07ae	0.13967773
68	0xbe1bc7cd	-0.15212937
69	0xbde1c79f	-0.11024403
70	0xbe3ffc0e	-0.18748495
71	0x3dc9854c	0.098398775
72	0xbe252604	-0.16127783
73	0x3e524f3e	0.20538041
74	0x3cf276b0	0.02959761
75	0xbe4db089	-0.20086874
76	0x3e0c5756	0.13705191
77	0xbe59929d	-0.21247335
78	0x3bc76540	0.006085068
79	0xbdd45a13	-0.10368743
80	0x3d805fd0	0.06268275
81	0x3e487d2a	0.19578996
82	0x3e3d010a	0.18457428
83	0x3e25f6b4	0.16207391
84	0xbd0c0030	-0.034179866
85	0xbdbefd3d	-0.09325645
86	0x3dcfb4f8	0.10141939
87	0xbe2b6226	-0.1673666
88	0x3e3fc806	0.18728647
89	0x3d9bfbe8	0.07616407
90	0xbe522c4a	-0.20524707
91	0xbd6f7a08	-0.058465987
92	0x3c8662b0	0.01640448
93	0x3e4c3e74	0.19945699
94	0x3d6baf90	0.057540476
95	0x3d470b90	0.04859501
96	0x3d9ec8b8	0.07753128
97	0xbe0a308e	-0.13495085
98	0xbdd41452	-0.10355438
99	0xbe36d7ae	-0.17855713
100	0xbe361836	-0.17782673
101	0x3e066770	0.13125396
102	0x3e22c0e2	0.15893891
103	0xbc0a87f0	-0.008455262
104	0xbdb6770e	-0.08909427
105	0xbc444610	-0.011979595
106	0xbd937f2e	-0.07201992
107	0x3d8ba81c	0.06819174
108	0xbdea05f3	-0.11426916
109	0x3dece4b0	0.11567056
110	0xbe04c3d2	-0.12965325
111	0x3e3514c6	0.17683706
112	0x3e07d0f8	0.13263309
113	0x3da50728	0.080580056
114	0xbe1f75b0	-0.15572238
115	0xbd4be2a4	-0.04977669
116	0xbe084f68	-0.13311541
117	0xbdce7b7a	-0.10082145
118	0x3d37bde8	0.044858843
119	0x3e2820f6	0.16418824
120	0xbc6896e0	-0.014196128
121	0xbc43d5f0	-0.011952862
122	0xbe2f7834	-0.17135698
123	0xbc51a3a0	-0.012795359
124	0xbc9d5630	-0.019206136
125	0xbdcf7d78	-0.10131353
126	0x3d97b81c	0.07408163
127	0xbdaf19e2	-0.08549859
