UnityMLTutorial_complete/results/Test3/MoveToGoal/MoveToGoal-9501.pt (torch, 149327 bytes, 12 tensors)

network_body.linear_encoder.seq_layers.0.weight f4 [128, 6]
0	0xbebf511c	-0.3736657
1	0x3e2264e7	0.15858804
2	0x3e903eb7	0.28172848
3	0x3ea12722	0.31475168
4	0xbf359c70	-0.7094183
5	0x3ecb221c	0.3967446
6	0xbe24d9fd	-0.16098781
7	0xbe83c154	-0.25733435
8	0xbec05969	-0.37568215
9	0x3e3110f6	0.17291626
10	0x3d61a420	0.055088162
11	0x3e4a11c7	0.19733344
12	0xbe0859b6	-0.13315472
13	0x3f451bfd	0.7699583
14	0x3e08e4e6	0.13368568
15	0xbe1af8ba	-0.15133944
16	0x3e95b5f3	0.2924038
17	0xbcb1fc9b	-0.021726897
18	0x3e9b4785	0.30328003
19	0xbf0ba6de	-0.54551494
20	0x3e8a28d5	0.26984277
21	0xbdbb0dcb	-0.0913349
22	0xbe30ab52	-0.17252854
23	0x3ce794ce	0.028269198
24	0x3e84d064	0.2594024
25	0x3f289adb	0.6586129
26	0x3ee4beaf	0.4467673
27	0x3e9c47f1	0.30523637
28	0x3ec09030	0.37610006
29	0xbf13ab36	-0.5768312
30	0x3e4183e0	0.18897963
31	0xbe7a91e0	-0.2446971
32	0x3e131925	0.1436506
33	0x3e8548f2	0.26032215
34	0xbeae5230	-0.3404708
35	0x3d2e4a63	0.04255141
36	0x3f337f9a	0.7011658
37	0xbef99032	-0.48742825
38	0x3f15fc90	0.58588505
39	0x3eaf4374	0.3423115
40	0x3c9ee18d	0.01939466
41	0xbe01197c	-0.12607378
42	0xbd58b5d8	-0.052907795
43	0xbf03611b	-0.51320046
44	0xbe4668ca	-0.19375911
45	0xbe9b46bf	-0.30327412
46	0x3d8306f2	0.06397809
47	0xbca5a0e1	-0.020218315
48	0xbdbdbdfe	-0.09264754
49	0x3e9b32b6	0.30312127
50	0x3f710d11	0.9416056
51	0xbe411b91	-0.18858172
52	0x3f76c860	0.963995
53	0x3e772b9e	0.24137732
54	0x3e327c98	0.17430341
55	0xbed59186	-0.41712588
56	0x3e3ef4ea	0.18648115
57	0x3f41dccb	0.7572753
58	0x3de107f0	0.10987842
59	0xbecfada3	-0.40562162
60	0xbe77c5d2	-0.24196556
61	0xbe131933	-0.14365081
62	0xbf1757fc	-0.5911863
63	0x3e9c62a6	0.30544013
64	0x3ef420b4	0.476812
65	0x3d62f17c	0.05540608
66	0xbe7b4b38	-0.24540412
67	0xbeb1511b	-0.3463219
68	0xbf0ca74b	-0.5494277
69	0xbe8bc531	-0.27298883
70	0x3c99bae7	0.01876588
71	0x3e04f2b7	0.12983213
72	0x3dbf4df6	0.09341042
73	0xbf3ddd34	-0.74165654
74	0xbed99f62	-0.42504412
75	0x3eaa6794	0.3328215
76	0xbe80abc8	-0.2513106
77	0x3eb374c3	0.3505002
78	0x3e4f086c	0.20218056
79	0x3e8509c7	0.25984022
80	0xbf0bf88e	-0.5467614
81	0xbe821569	-0.2540696
82	0xbdcd2be4	-0.10018137
83	0x3d903937	0.07042163
84	0x3f134410	0.5752573
85	0x3f0372d2	0.51347077
86	0xbe5dcce7	-0.21660195
87	0xbf0b222a	-0.54349005
88	0xbd7b8e3b	-0.06141494
89	0xbd7b4640	-0.061346292
90	0xbf19ae1f	-0.6003131
91	0xbdfdd22f	-0.12393605
92	0xbe2fa9fd	-0.17154689
93	0xbed31249	-0.41224888
94	0x3d51aef0	0.051192224
95	0x3f3aefb2	0.73021996
96	0x3e8b4f19	0.27208784
97	0x3e30cf39	0.17266549
98	0x3e876c1c	0.26449668
99	0xbf281909	-0.656632
100	0xbdea016e	-0.11426054
101	0x3f0f7b14	0.5604718
102	0x3e86a0d2	0.2629457
103	0x3e9b1e0d	0.30296364
104	0x3efd7424	0.4950267
105	0xbec551fb	-0.3853911
106	0xbec935b9	-0.392988
107	0x3f398286	0.7246479
108	0xbf20a162	-0.6274625
109	0x3eecc399	0.4624298
110	0x3e643fb1	0.22289921
111	0x3ec24ced	0.37949315
112	0x3c959092	0.018257413
113	0x3f1d2b92	0.6139461
114	0xbe1706d5	-0.147487
115	0xbeb37789	-0.35052136
116	0xbd5d1c58	-0.05398211
117	0xbf2fe48a	-0.687081
118	0x3ee608f5	0.4492871
119	0xbef02421	-0.46902564
120	0x3d8ea688	0.06965357
121	0x3ebb2ac6	0.3655607
122	0xbeba93bd	-0.3644084
123	0x3ed603df	0.41799828
124	0x3e3957a4	0.18099838
125	0xbf15c84f	-0.5850877
126	0xbe9bcb69	-0.30428627
127	0x3ec7c82c	0.39019907
128	0x3e8b6bab	0.27230582
129	0x3e17d4bc	0.14827245
130	0xbed7f7d3	-0.42181262
131	0x3eb96899	0.36212614
132	0x3e068101	0.13135149
133	0x3ed3e30f	0.4138417
134	0xbe6ad003	-0.22930913
135	0xbda8dff0	-0.08245838
136	0xbea51d80	-0.3224907
137	0x3da4a890	0.08039963
138	0x3e038baa	0.12846246
139	0xbf2960a9	-0.66163117
140	0xbed181e0	-0.409194
141	0xbf70dbb2	-0.9408523
142	0xbdf5b70d	-0.11997805
143	0xbe148a02	-0.14505771
144	0x3e70f764	0.23531872
145	0x3de4b7ab	0.111678444
146	0x3dd129bf	0.102130406
147	0xbe4abb70	-0.19798064
148	0xbd2340f5	-0.03985687
149	0x3e4cc46a	0.19996801
150	0x3cc20a0a	0.023686428
151	0xbefbdf27	-0.4919369
152	0xbea62d64	-0.32456505
153	0x3eb929e4	0.36164773
154	0xbef1abb9	-0.47201326
155	0xbe96bc3a	-0.2944048
156	0x3e7a7e78	0.24462306
157	0xbee3bac0	-0.44478416
158	0xbf148a95	-0.5802396
159	0x3dcb0ab5	0.099141516
160	0xbeab31b9	-0.33436373
161	0xbe79ec70	-0.244066
162	0xbebc314f	-0.3675637
163	0x3f417e23	0.75583094
164	0xbf04b5b3	-0.5183975
165	0xbf0734c1	-0.5281487
166	0xbd64566c	-0.05574648
167	0xbf48c47e	-0.78424823
168	0xbe050515	-0.1299022
169	0xbf0397e7	-0.5140366
170	0xbf4d54ee	-0.8020772
171	0x3e306001	0.17224123
172	0x3ed25e37	0.41087505
173	0xbdd53a36	-0.104114935
174	0x3d1fb51d	0.038991082
175	0x3de64cdc	0.112451285
176	0xbeca1f38	-0.39476943
177	0x3da5cd52	0.08095802
178	0x3eda58e4	0.42645943
179	0x3f65a7ce	0.89709175
180	0xbed59cb5	-0.4172112
181	0x3f069782	0.5257493
182	0x3eb5d350	0.3551278
183	0x3b051e37	0.00203122
184	0x3dafc63e	0.085827336
185	0xbd887315	-0.06662575
186	0x3defb4ba	0.11704393
187	0x3f8bcf35	1.092261
188	0x3da453ea	0.08023818
189	0xbf8868a8	-1.0656939
190	0x3ef7726f	0.48329493
191	0xbef89a27	-0.4855511
192	0xbe3138b9	-0.17306794
193	0xbe098757	-0.13430534
194	0xbf219949	-0.6312452
195	0x3e8f4978	0.2798574
196	0xbeff8ba6	-0.4991123
197	0xbe87b452	-0.2650476
198	0x3ecae934	0.39631045
199	0xbeb26b92	-0.34847695
200	0x3f3f53b3	0.7473709
201	0x3d87644a	0.066109255
202	0xbe06fa4d	-0.1318142
203	0x3e93a220	0.2883463
204	0xbe06a9cf	-0.13150714
205	0xbe19ab8a	-0.15006843
206	0xbf08d958	-0.5345664
207	0x3e5354af	0.20637773
208	0xbe43a681	-0.19106485
209	0x3e28d16e	0.16486141
210	0xbeacb150	-0.3372903
211	0x3f415ec3	0.7553522
212	0xbf1b71ac	-0.60720325
213	0xbebe50c4	-0.37170994
214	0x3f1cd9ba	0.61269724
215	0xbf058e76	-0.52170503
216	0xbee79371	-0.45229676
217	0xbf1624dd	-0.5865
218	0x3e2acac6	0.16678914
219	0x3e5f95d9	0.21834506
220	0xbd5bf375	-0.053698976
221	0xbf0d6444	-0.5523112
222	0xbf08be03	-0.53414935
223	0x3e112b21	0.14176609
224	0x3e2ff922	0.1718488
225	0x3d95aab9	0.073079534
226	0x3f2f8577	0.68563026
227	0x3eceea46	0.4041311
228	0x3e6a0f67	0.22857438
229	0x3cc60230	0.024170965
230	0x3dd11135	0.1020836
231	0x3d808850	0.062759995
232	0x3ec9d3a0	0.3941927
233	0x3f10c0e9	0.5654436
234	0x3e98b640	0.29826546
235	0xbdfa1dd4	-0.122127205
236	0xbe88708b	-0.26648363
237	0xbf0acf81	-0.54222876
238	0xbf072489	-0.52790123
239	0xbe54f0f1	-0.20795037
240	0x3f43c39c	0.7647035
241	0xbf0a336c	-0.53984714
242	0x3c835d08	0.016035572
243	0x3ecbaf06	0.3978197
244	0x3e3808b6	0.17972073
245	0x3ca034a8	0.019556358
246	0x3d8f17f0	0.069869876
247	0x3cb40afb	0.021977892
248	0xbe6f0654	-0.23342258
249	0x3f4dcc7f	0.8039016
250	0xbe03b3cd	-0.12861557
251	0xbe5d3992	-0.21603993
252	0x3c2d7741	0.010587514
253	0xbd7accd4	-0.061230496
254	0xbec564a7	-0.38553354
255	0xbe6dd5b5	-0.23226054

network_body.linear_encoder.seq_layers.0.bias f4 [128]
0	0x00000000	0.0
1	0x00000000	0.0
2	0x00000000	0.0
3	0x00000000	0.0
4	0x00000000	0.0
5	0x00000000	0.0
6	0x00000000	0.0
7	0x00000000	0.0
8	0x00000000	0.0
9	0x00000000	0.0
10	0x00000000	0.0
11	0x00000000	0.0
12	0x00000000	0.0
13	0x00000000	0.0
14	0x00000000	0.0
15	0x00000000	0.0
16	0x00000000	0.0
17	0x00000000	0.0
18	0x00000000	0.0
19	0x00000000	0.0
20	0x00000000	0.0
21	0x00000000	0.0
22	0x00000000	0.0
23	0x00000000	0.0
24	0x00000000	0.0
25	0x00000000	0.0
26	0x00000000	0.0
27	0x00000000	0.0
28	0x00000000	0.0
29	0x00000000	0.0
30	0x00000000	0.0
31	0x00000000	0.0
32	0x00000000	0.0
33	0x00000000	0.0
34	0x00000000	0.0
35	0x00000000	0.0
36	0x00000000	0.0
37	0x00000000	0.0
38	0x00000000	0.0
39	0x00000000	0.0
40	0x00000000	0.0
41	0x00000000	0.0
42	0x00000000	0.0
43	0x00000000	0.0
44	0x00000000	0.0
45	0x00000000	0.0
46	0x00000000	0.0
47	0x00000000	0.0
48	0x00000000	0.0
49	0x00000000	0.0
50	0x00000000	0.0
51	0x00000000	0.0
52	0x00000000	0.0
53	0x00000000	0.0
54	0x00000000	0.0
55	0x00000000	0.0
56	0x00000000	0.0
57	0x00000000	0.0
58	0x00000000	0.0
59	0x00000000	0.0
60	0x00000000	0.0
61	0x00000000	0.0
62	0x00000000	0.0
63	0x00000000	0.0
64	0x00000000	0.0
65	0x00000000	0.0
66	0x00000000	0.0
67	0x00000000	0.0
68	0x00000000	0.0
69	0x00000000	0.0
70	0x00000000	0.0
71	0x00000000	0.0
72	0x00000000	0.0
73	0x00000000	0.0
74	0x00000000	0.0
75	0x00000000	0.0
76	0x00000000	0.0
77	0x00000000	0.0
78	0x00000000	0.0
79	0x00000000	0.0
80	0x00000000	0.0
81	0x00000000	0.0
82	0x00000000	0.0
83	0x00000000	0.0
84	0x00000000	0.0
85	0x00000000	0.0
86	0x00000000	0.0
87	0x00000000	0.0
88	0x00000000	0.0
89	0x00000000	0.0
90	0x00000000	0.0
91	0x00000000	0.0
92	0x00000000	0.0
93	0x00000000	0.0
94	0x00000000	0.0
95	0x00000000	0.0
96	0x00000000	0.0
97	0x00000000	0.0
98	0x00000000	0.0
99	0x00000000	0.0
100	0x00000000	0.0
101	0x00000000	0.0
102	0x00000000	0.0
103	0x00000000	0.0
104	0x00000000	0.0
105	0x00000000	0.0
106	0x00000000	0.0
107	0x00000000	0.0
108	0x00000000	0.0
109	0x00000000	0.0
110	0x00000000	0.0
111	0x00000000	0.0
112	0x00000000	0.0
113	0x00000000	0.0
114	0x00000000	0.0
115	0x00000000	0.0
116	0x00000000	0.0
117	0x00000000	0.0
118	0x00000000	0.0
119	0x00000000	0.0
120	0x00000000	0.0
121	0x00000000	0.0
122	0x00000000	0.0
123	0x00000000	0.0
124	0x00000000	0.0
125	0x00000000	0.0
126	0x00000000	0.0
127	0x00000000	0.0

network_body.linear_encoder.seq_layers.2.weight f4 [128, 128]
0	0xbd94dd7b	-0.072688065
1	0x3dd6a4f2	0.104806796
2	0x3ddc11e7	0.10745602
3	0xbd96a9c2	-0.073565975
4	0xbdbd5d97	-0.092463665
5	0xbcf5d360	-0.030008018
6	0x3c2e4912	0.0106375385
7	0xbdbcca7a	-0.09218307
8	0xbc05a944	-0.008158032
9	0x3c10e2e7	0.00884316
10	0xbdf29e37	-0.11846583
11	0x3c9846f2	0.018588517
12	0x3d869c2e	0.06572758
13	0xbdc94fc9	-0.09829671
14	0xbcbc95e7	-0.023020698
15	0xbdfe767b	-0.12424942
16	0x39d3e541	0.00040415864
17	0x3de589b4	0.112079054
18	0x3c202f74	0.009776939
19	0x3d0a3bde	0.0337485
20	0x3db87442	0.090065494
21	0xbd03c90b	-0.03217415
22	0x3e1a24b6	0.15053067
23	0xbce2acfe	-0.02767038
24	0xbe082a55	-0.13297398
25	0xbbfdcd70	-0.0077454373
26	0x3dd5acc5	0.10433344
27	0x3e380ac2	0.17972854
28	0xbd23b684	-0.039968982
29	0xbd6ec17e	-0.058289997
30	0xb8015892	-3.0838484e-05
31	0x3dca26b7	0.098706655
32	0x39eb4210	0.00044871913
33	0xbd340252	-0.043947525
34	0x3cec0a21	0.028813424
35	0x3d1a0d91	0.037610594
36	0xbdab4bd5	-0.08364073
37	0xbe0efaae	-0.13962814
38	0xbdf93a63	-0.121693395
39	0x3cacc21a	0.021088649
40	0x3dddf7fd	0.10838316
41	0xbcb3d09f	-0.021950064
42	0x3ccfccb8	0.025366172
43	0xbb10d492	-0.0022099358
44	0xbdf68546	-0.12037139
45	0x3c83a66d	0.016070569
46	0xbd56b92c	-0.052422687
47	0xbcb0e4ba	-0.02159344
48	0x3b45d1c7	0.0030184851
49	0x3d439fd8	0.04775986
50	0xbe1aa782	-0.15102962
51	0x3d7b6a4e	0.061380677
52	0x3d95588c	0.072922796
53	0xbdc200af	-0.09472787
54	0x38be587b	9.076387e-05
55	0xbd8e9815	-0.06962601
56	0x3d34208a	0.043976344
57	0xbdf4f9b4	-0.119616896
58	0xbc6ef396	-0.014584443
59	0xbd6c1ac9	-0.05764273
60	0xbda0407b	-0.07824799
61	0x3c69e797	0.014276407
62	0x3d8c37bf	0.0684657
63	0x3cfc5267	0.030801011
64	0x3da71a25	0.081592835
65	0x3d78f180	0.060777187
66	0x3d83e146	0.06439452
67	0xbc3090c4	-0.010776702
68	0xbcaff1dd	-0.021477634
69	0x3d20269a	0.039099313
70	0x3d618d76	0.05506655
71	0x3d34ccf2	0.044140764
72	0x3d23394b	0.03984956
73	0x3d5d7290	0.054064333
74	0xbd926843	-0.071487926
75	0x3e2f8a9e	0.17142722
76	0x3c5c1f18	0.013435148
77	0xbdfec6f0	-0.12440288
78	0xbd714197	-0.058900442
79	0xbdb09e09	-0.08623893
80	0xbbd84943	-0.0066005304
81	0x3d09c428	0.033634335
82	0x3d2969f8	0.041360825
83	0x3d35fba8	0.04442945
84	0x3c702f41	0.014659704
85	0xbc3deba5	-0.011591827
86	0xbdac253f	-0.08405542
87	0x3d9e1049	0.0771795
88	0xbc723608	-0.01478339
89	0xbdda85f9	-0.106700845
90	0xbcd10557	-0.025515242
91	0x3dbce4b9	0.09223313
92	0xbdfc117d	-0.12308023
93	0xbe3842f7	-0.17994295
94	0x3d38b3e9	0.04509345
95	0xbd6faef9	-0.058516476
96	0xbdb20406	-0.08692174
97	0xbd21ddf0	-0.039518297
98	0xbdcb01cd	-0.09912453
99	0xbdf6c900	-0.120500565
100	0xbdd60d68	-0.10451776
101	0x3d27b27b	0.040941697
102	0x3d45fda8	0.04833761
103	0xbe1e7e5f	-0.15477894
104	0xbdb6e8aa	-0.08931096
105	0x3d9c1562	0.07621266
106	0xbd7a6627	-0.061132576
107	0xbe0b30b9	-0.13592805
108	0x3dda3cee	0.10656153
109	0x3dc2cac0	0.09511328
110	0xbd5cc8ca	-0.053902425
111	0x3be3151c	0.0069300067
112	0xbda11725	-0.078657426
113	0xbddc4a3f	-0.10756349
114	0x3e838549	0.25687626
115	0xbd6808b3	-0.05664892
116	0x3c9c715d	0.019097025
117	0xbe014981	-0.12625696
118	0xbdc7c979	-0.09755225
119	0x3c17cab4	0.009264637
120	0x3cb68899	0.022281932
121	0xbd82ec27	-0.06392699
122	0xbc84b447	-0.016199244
123	0xbd8b5fa0	-0.068053484
124	0x3dfcb634	0.1233944
125	0xbd797a42	-0.06090761
126	0xbcfe632a	-0.031053144
127	0x3d0f4811	0.034980837
128	0x3c225f60	0.0099104345
129	0xbdb12562	-0.08649708
130	0x3c1b9303	0.0094955
131	0xbe037f3c	-0.12841505
132	0x3dc7f8ab	0.097642265
133	0xbde14cc5	-0.11000971
134	0xbda97378	-0.08273977
135	0x3e12c245	0.1433192
136	0xbb0c2405	-0.0021383774
137	0xbd8fc62b	-0.070202194
138	0xbe054ce9	-0.1301762
139	0x3e0776c4	0.13228899
140	0x3da9930b	0.08279999
141	0xbcfe9154	-0.031075157
142	0xbda2cd36	-0.07949297
143	0xbd714d22	-0.05891145
144	0x3b0f444d	0.0021860779
145	0x3de066e1	0.109571226
146	0x3dc338b6	0.09532301
147	0xbd859bf5	-0.06523887
148	0x3cb4ec98	0.022085473
149	0xbdd609a7	-0.1045106
150	0x3de299ad	0.110644676
151	0xbd6679f3	-0.056268644
152	0xbcf9c2cb	-0.030488392
153	0xbdaaeb89	-0.08345706
154	0x3ddc68d7	0.10762184
155	0xbde7d4f6	-0.11319916
156	0xbe23ad93	-0.15984182
157	0x3d68fc6f	0.056881364
158	0x3cc68448	0.024232998
159	0xbd89a7dd	-0.067214705
160	0x3d857fc6	0.065185115
161	0x3dd802ea	0.10547431
162	0xbe03dfbf	-0.12878321
163	0xbd558d45	-0.05213668
164	0x3cb423d3	0.021989739
165	0x3a1f9c24	0.00060886354
166	0x3a8a9846	0.0010573945
167	0xbd0c3805	-0.034233112
168	0xbe13cdd0	-0.1443398
169	0xbdd56869	-0.10420305
170	0xbc17dc2c	-0.009268802
171	0x3e3259be	0.17417046
172	0x3d1aeb78	0.037822217
173	0x3c440c61	0.011965842
174	0xbc89a5d3	-0.016802704
175	0x3c5db42b	0.013531725
176	0xbd06057f	-0.032720085
177	0x3c0c115c	0.008549061
178	0xbe02f5a0	-0.12789011
179	0x3dfa9a8c	0.12236509
180	0x3db7caef	0.089742534
181	0xbd7587ad	-0.059943844
182	0x3d0dc7da	0.03461442
183	0xbd9a5dcf	-0.07537424
184	0xbde22450	-0.11042082
185	0x3df9acfc	0.12191197
186	0x3e23bbcd	0.15989609
187	0xbd2f92cf	-0.042864617
188	0x3d55d143	0.05220152
189	0x3c492f62	0.012279363
190	0x3d5180e8	0.051148325
191	0x3df92372	0.12164964
192	0xbe147748	-0.14498627
193	0xbd959de6	-0.07305507
194	0x3cbcc07a	0.023040999
195	0xbd8f5a93	-0.069996975
196	0xbe31b5fd	-0.1735458
197	0x3cedd82a	0.02903374
198	0xbd837ebb	-0.06420656
199	0x3d9a8c99	0.07546348
200	0x3cc7a2be	0.024369594
201	0x3e1d6100	0.15369034
202	0x3d88c41d	0.06678031
203	0xbbb0baa4	-0.005393343
204	0x3c4b28bb	0.012399848
205	0xbd8a1e62	-0.06744076
206	0xbbe85995	-0.007090757
207	0x3e675ec7	0.22594748
208	0xbda83229	-0.08212692
209	0x3d943ec1	0.07238532
210	0xbe0e45fb	-0.13893883
211	0x3e08f3cc	0.13374251
212	0xbc380f07	-0.011234052
213	0x3d0bea9d	0.03415929
214	0xbddcb37c	-0.107764214
215	0x3d978da6	0.07400064
216	0xbd827eef	-0.06371867
217	0x3df2ee73	0.11861887
218	0xbdaa2b4f	-0.08309042
219	0x3dabd906	0.08391003
220	0x3d542100	0.051789284
221	0x3dfa2eac	0.12215933
222	0x3da710c6	0.08157496
223	0x3c820f37	0.015876396
224	0x3d2a50e1	0.04158104
225	0x3cfe2ddb	0.031027725
226	0x3da95515	0.08268181
227	0xbd01f940	-0.031731844
228	0xbce7dcc3	-0.02830351
229	0x3d912297	0.070866756
230	0x3a85600c	0.0010175719
231	0x3c8ef4ff	0.017450808
232	0x3e17c7f5	0.14822371
233	0xbe49717c	-0.19672197
234	0x3dbce972	0.09224214
235	0xbdc2a444	-0.095039874
236	0xbd204cf9	-0.039135907
237	0x3d90641f	0.070503466
238	0xbdb7cd29	-0.08974678
239	0x3d7d28a9	0.061806355
240	0x3c65280f	0.0139866015
241	0x3cc6e1be	0.024277564
242	0xbb16e5ea	-0.0023025223
243	0xbd629058	-0.05531344
244	0xbe1a7674	-0.15084249
245	0x3d42f3db	0.04759584
246	0xbb6463e7	-0.0034849585
247	0x3dd91a69	0.106007405
248	0xbd291cef	-0.04128736
249	0xbd536e73	-0.051619004
250	0x3e2b7a49	0.16745867
251	0xbdbf78bf	-0.09349202
252	0xbcf95560	-0.030436218
253	0x3e965956	0.29365033
254	0x3d4d0b48	0.050059587
255	0xbbfcfea5	-0.0077207857

network_body.linear_encoder.seq_layers.2.bias f4 [128]
0	0x00000000	0.0
1	0x00000000	0.0
2	0x00000000	0.0
3	0x00000000	0.0
4	0x00000000	0.0
5	0x00000000	0.0
6	0x00000000	0.0
7	0x00000000	0.0
8	0x00000000	0.0
9	0x00000000	0.0
10	0x00000000	0.0
11	0x00000000	0.0
12	0x00000000	0.0
13	0x00000000	0.0
14	0x00000000	0.0
15	0x00000000	0.0
16	0x00000000	0.0
17	0x00000000	0.0
18	0x00000000	0.0
19	0x00000000	0.0
20	0x00000000	0.0
21	0x00000000	0.0
22	0x00000000	0.0
23	0x00000000	0.0
24	0x00000000	0.0
25	0x00000000	0.0
26	0x00000000	0.0
27	0x00000000	0.0
28	0x00000000	0.0
29	0x00000000	0.0
30	0x00000000	0.0
31	0x00000000	0.0
32	0x00000000	0.0
33	0x00000000	0.0
34	0x00000000	0.0
35	0x00000000	0.0
36	0x00000000	0.0
37	0x00000000	0.0
38	0x00000000	0.0
39	0x00000000	0.0
40	0x00000000	0.0
41	0x00000000	0.0
42	0x00000000	0.0
43	0x00000000	0.0
44	0x00000000	0.0
45	0x00000000	0.0
46	0x00000000	0.0
47	0x00000000	0.0
48	0x00000000	0.0
49	0x00000000	0.0
50	0x00000000	0.0
51	0x00000000	0.0
52	0x00000000	0.0
53	0x00000000	0.0
54	0x00000000	0.0
55	0x00000000	0.0
56	0x00000000	0.0
57	0x00000000	0.0
58	0x00000000	0.0
59	0x00000000	0.0
60	0x00000000	0.0
61	0x00000000	0.0
62	0x00000000	0.0
63	0x00000000	0.0
64	0x00000000	0.0
65	0x00000000	0.0
66	0x00000000	0.0
67	0x00000000	0.0
68	0x00000000	0.0
69	0x00000000	0.0
70	0x00000000	0.0
71	0x00000000	0.0
72	0x00000000	0.0
73	0x00000000	0.0
74	0x00000000	0.0
75	0x00000000	0.0
76	0x00000000	0.0
77	0x00000000	0.0
78	0x00000000	0.0
79	0x00000000	0.0
80	0x00000000	0.0
81	0x00000000	0.0
82	0x00000000	0.0
83	0x00000000	0.0
84	0x00000000	0.0
85	0x00000000	0.0
86	0x00000000	0.0
87	0x00000000	0.0
88	0x00000000	0.0
89	0x00000000	0.0
90	0x00000000	0.0
91	0x00000000	0.0
92	0x00000000	0.0
93	0x00000000	0.0
94	0x00000000	0.0
95	0x00000000	0.0
96	0x00000000	0.0
97	0x00000000	0.0
98	0x00000000	0.0
99	0x00000000	0.0
100	0x00000000	0.0
101	0x00000000	0.0
102	0x00000000	0.0
103	0x00000000	0.0
104	0x00000000	0.0
105	0x00000000	0.0
106	0x00000000	0.0
107	0x00000000	0.0
108	0x00000000	0.0
109	0x00000000	0.0
110	0x00000000	0.0
111	0x00000000	0.0
112	0x00000000	0.0
113	0x00000000	0.0
114	0x00000000	0.0
115	0x00000000	0.0
116	0x00000000	0.0
117	0x00000000	0.0
118	0x00000000	0.0
119	0x00000000	0.0
120	0x00000000	0.0
121	0x00000000	0.0
122	0x00000000	0.0
123	0x00000000	0.0
124	0x00000000	0.0
125	0x00000000	0.0
126	0x00000000	0.0
127	0x00000000	0.0

action_model._continuous_distribution.log_sigma f4 [1, 2]
0	0x00000000	0.0
1	0x00000000	0.0

action_model._continuous_distribution.mu.weight f4 [2, 128]
0	0x3c339b50	0.010962322
1	0x3b589633	0.003304851
2	0x3c8a0fd7	0.016853256
3	0xbb258227	-0.0025254579
4	0x3c0b73db	0.008511509
5	0x3c8b0966	0.016972255
6	0x3b0d952e	0.002160381
7	0x3c420bdd	0.011843649
8	0xbc1c8e0b	-0.00955535
9	0x3baf7917	0.005355011
10	0xbc1c27b3	-0.009530949
11	0x3ae57573	0.0017506316
12	0xbcca5bc0	-0.024701953
13	0x3ce6b1e7	0.028161002
14	0xbbeadf98	-0.0071677677
15	0x3c75fce2	0.015013905
16	0xbcd09ce5	-0.025465438
17	0x3d08415c	0.033265457
18	0xb9e7369a	-0.00044100435
19	0xbc06435b	-0.00819477
20	0xbc9d94b2	-0.019235943
21	0x3a9bd2cf	0.0011888387
22	0x3c28d4bc	0.010304626
23	0xbbfe8aba	-0.0077680023
24	0xb9676e80	-0.00022071041
25	0x3d07a46f	0.0331158
26	0x3c54f69d	0.01299825
27	0x3a1e4af7	0.00060383923
28	0xbc5a09a7	-0.013307965
29	0xbc83d0e2	-0.016090814
30	0x3c523a4d	0.012831283
31	0x3c42925a	0.011875713
32	0x3ca972e5	0.020684669
33	0x3c511f68	0.0127638355
34	0x3cdc68ef	0.026905505
35	0x3cf510a2	0.029915158
36	0xbc3745df	-0.011186092
37	0x3c375a9c	0.011191037
38	0xbc0d0438	-0.008606963
39	0x3c86ef7e	0.01647162
40	0xbd061e2f	-0.03274363
41	0xbaacccd0	-0.0013183597
42	0x3cdd0b83	0.026983028
43	0xbc8e1509	-0.017344015
44	0xbc3ffcf7	-0.011718026
45	0x3c2ccd03	0.0105469255
46	0xbca89a44	-0.020581372
47	0xbc80058e	-0.015627649
48	0xbca45fbd	-0.020065183
49	0xbaf59488	-0.0018736282
50	0x3c0690a0	0.008213192
51	0xbce952af	-0.02848181
52	0xbb19ac13	-0.0023448511
53	0x3cb81033	0.022468662
54	0xbb6912b5	-0.0035564129
55	0x3d291154	0.04127629
56	0x3c437cb9	0.011931592
57	0x3ba0ce7c	0.0049074274
58	0xbbd2d653	-0.006434241
59	0x3cdc1a7b	0.026868096
60	0x3bb46b40	0.0055059493
61	0xbc851b2f	-0.016248314
62	0x3ced8857	0.028995676
63	0xbc31d767	-0.010854579
64	0xbac47ddb	-0.0014991121
65	0x3c9509e7	0.018193198
66	0xbd0fd8fd	-0.035119046
67	0xbba9703b	-0.0051708496
68	0x3cdf326a	0.027245719
69	0x3c37bcfe	0.011214493
70	0xbb1357ef	-0.0022482832
71	0x3d068616	0.032842718
72	0x3c8f18cf	0.017467884
73	0x3ce3643a	0.027757753
74	0xbd1010d4	-0.0351723
75	0xbd020d5a	-0.031751014
76	0xbb601a0d	-0.0034195215
77	0xbc952537	-0.018206222
78	0x3b4add70	0.003095474
79	0xbc2297af	-0.0099238595
80	0x3c3a1681	0.011357904
81	0xbd071001	-0.032974247
82	0x3b802ba7	0.0039114538
83	0x3c2d50ef	0.010578378
84	0x3c17129a	0.009220744
85	0x3b982833	0.004643464
86	0xbc1c0db9	-0.009524756
87	0x3c796d5a	0.015223825
88	0xbb9a6192	-0.0047113383
89	0x3ba0244f	0.004887141
90	0x3bbec2a4	0.005821543
91	0x3ce4d0c3	0.027931577
92	0x3be8aafb	0.0071004606
93	0x3b7541d8	0.003742328
94	0x3b624b60	0.003452979
95	0xbd1a74f7	-0.037709203
96	0x3bb0a477	0.0053906995
97	0xbc111f57	-0.00885757
98	0x3ca0df6f	0.019637791
99	0x3bad9da9	0.0052983356
100	0x3c8b22a7	0.016984297
101	0xbcb18f2e	-0.021674719
102	0xbce03c1a	-0.027372409
103	0xbbfebabf	-0.0077737267
104	0x3a31372d	0.0006760236
105	0x3988e92c	0.00026113668
106	0xbc8f8079	-0.017517315
107	0xbbb87d8b	-0.0056302003
108	0xbba69a9d	-0.0050843493
109	0x3cceac57	0.025228662
110	0xbd72a9d0	-0.059243977
111	0xbcda982d	-0.026683891
112	0xbc97f59f	-0.018549738
113	0x3bc81c1c	0.0061068665
114	0x3ca7619b	0.020432284
115	0xbcdfbabf	-0.027310727
116	0x3a86f787	0.0010297158
117	0xbcb10d60	-0.021612823
118	0xbd0ec494	-0.03485544
119	0x3bd9d687	0.006647888
120	0xbac4ef49	-0.0015024926
121	0xbbcc5348	-0.006235514
122	0x3b653c8f	0.0034978723
123	0x39dad1af	0.00041736427
124	0xbcb8532a	-0.022500593
125	0xbca7b3e3	-0.020471519
126	0xbb12fccf	-0.0022428518
127	0xbca021ab	-0.019547304
128	0xbc48326b	-0.012219052
129	0xbb1e75eb	-0.0024179171
130	0x3ca46f50	0.02007261
131	0x3c4d9832	0.012548493
132	0xba44d07b	-0.00075078727
133	0x3cd1692b	0.025562843
134	0x3d5edea8	0.05441156
135	0xbca3d473	-0.019998765
136	0xbc0a6496	-0.008446833
137	0xbb290b9c	-0.0025794273
138	0xbc9f71b2	-0.019463394
139	0x3a81fd8c	0.0009917482
140	0x3c294583	0.010331514
141	0x3b9df60c	0.004820591
142	0xbd066edc	-0.032820567
143	0xbd0c930c	-0.034319922
144	0xbb8afb99	-0.0042414186
145	0xbb287666	-0.0025705337
146	0x3c0348cb	0.008012961
147	0x3d080baf	0.033214267
148	0x3bd3111f	0.00644125
149	0xbcde2f7f	-0.027122257
150	0xb9d79098	-0.00041115726
151	0xbce10562	-0.027468387
152	0xbc80a5a4	-0.015703984
153	0xbc0c28cb	-0.008554648
154	0x3d2674ff	0.04063892
155	0xbc8a7577	-0.016901715
156	0x3adad095	0.0016694242
157	0x3b07c1be	0.0020714845
158	0xbc24413e	-0.010025321
159	0x3b37d0a1	0.0028047937
160	0xbad5b035	-0.0016303124
161	0xbc7ced0a	-0.015437374
162	0xbd13fdee	-0.036130838
163	0xbcd274fb	-0.025690546
164	0xbc3dcdaf	-0.011584683
165	0x3be3feb7	0.0069578546
166	0x3c8f76bb	0.01751267
167	0x3ac719aa	0.0015190144
168	0x3be6d8ff	0.007044911
169	0x3b0fdf3f	0.0021953133
170	0x3cd24183	0.025666004
171	0xbc2e6b09	-0.010645636
172	0x3c619eeb	0.013770799
173	0xbbd66caa	-0.0065437155
174	0x3b884446	0.0041585295
175	0xbcea2c6a	-0.028585631
176	0x3ca3986f	0.019970147
177	0xbb061adf	-0.0020462794
178	0x3ca8d420	0.020608962
179	0x3afcad6a	0.0019277756
180	0x3a690d27	0.00088902045
181	0xbca4df99	-0.02012615
182	0x3d22ff7f	0.03979444
183	0x3ceed853	0.029155886
184	0x3b3c78e7	0.0028758587
185	0x3b89578b	0.004191344
186	0xbba88e14	-0.00514389
187	0xbbda0480	-0.0066533685
188	0xbc9072fb	-0.017632952
189	0x3c48ddc3	0.012259903
190	0xbab0eeec	-0.0013498939
191	0xbb62969a	-0.0034574629
192	0x3c06d468	0.0082293525
193	0x3a8e802f	0.0010871942
194	0xbb6306b0	-0.0034641437
195	0xbaaa3102	-0.0012984576
196	0xbd254b75	-0.040355165
197	0x3cbca5b4	0.023028232
198	0xbb593563	-0.0033143393
199	0xbc31964f	-0.010839059
200	0xbd207c71	-0.039181177
201	0x3c2d072a	0.01056079
202	0x3c2820af	0.010261699
203	0x3c80fccf	0.015745549
204	0x3cc9363e	0.024561998
205	0xbcad0ef3	-0.021125292
206	0xbc141d87	-0.009040243
207	0x3c136d74	0.008998264
208	0xbca54354	-0.020173706
209	0x3cc0a62e	0.02351674
210	0x3cd80d4f	0.026373534
211	0xb81eecc1	-3.789063e-05
212	0xbbee2422	-0.007267491
213	0xbc68d377	-0.014210573
214	0xbcb2a5af	-0.02180752
215	0xbb9973eb	-0.004683008
216	0xbcda5560	-0.026652038
217	0xbbc4aed1	-0.006002285
218	0xbc24599a	-0.010031128
219	0xbcc676ab	-0.024226507
220	0x3cb82fab	0.022483667
221	0x3c81d089	0.015846508
222	0x3c39e758	0.011346661
223	0x3c36bb86	0.0111531075
224	0xbcbea557	-0.0232722
225	0xbbdafd30	-0.0066830143
226	0xb9e800ad	-0.00044250992
227	0xbcb37dcf	-0.021910576
228	0x3c93e6f3	0.018054461
229	0x3c8881d2	0.016663466
230	0x3cd9826f	0.026551453
231	0xbadb32cb	-0.0016723512
232	0x3c10a29a	0.00882783
233	0x3a519a7b	0.00079957367
234	0x3ce15f57	0.027511282
235	0x3cbcdeb3	0.02305541
236	0x3c4a7c0f	0.012358679
237	0x3c09e2c7	0.008415884
238	0x3c999079	0.018745648
239	0xbb892cbf	-0.0041862424
240	0x3b0185c5	0.001976357
241	0xbd0e9334	-0.034808353
242	0xbcc01322	-0.023446623
243	0xbba2aeab	-0.0049646697
244	0xba5da1bd	-0.0008454582
245	0xbc4684c8	-0.012116618
246	0xbce14ff2	-0.027503941
247	0x3d2879a1	0.04113162
248	0x3b8eff5b	0.004363937
249	0x3bd67067	0.006544161
250	0xbd238afb	-0.039927464
251	0x3b72136b	0.0036937844
252	0x3c71213b	0.014717395
253	0x3b8708b3	0.00412091
254	0xbb91b1b4	-0.0044462327
255	0xbbe17bf3	-0.006881231

action_model._continuous_distribution.mu.bias f4 [2]
0	0x00000000	0.0
1	0x00000000	0.0

network_body.linear_encoder.seq_layers.0.weight f4 [128, 6]
0	0xbd760ceb	-0.060070913
1	0xbed5f5c0	-0.41789055
2	0xbd121645	-0.03566577
3	0x3c16bc82	0.009200217
4	0xbe311489	-0.1729299
5	0x3e98c942	0.29841048
6	0x3e0c6033	0.13708572
7	0x3f0f3b00	0.559494
8	0xbd2be21a	-0.041963674
9	0x3f116b76	0.568046
10	0xbf27395a	-0.65321887
11	0x3f1dfe84	0.61716485
12	0x3daa7f94	0.08325115
13	0x3e537510	0.20650125
14	0x3dc53125	0.09628514
15	0xbf07c6b5	-0.5303758
16	0xbe19e38a	-0.15028206
17	0xbe3313a7	-0.17487966
18	0xbf1f5a85	-0.62247497
19	0x3cfce328	0.030870035
20	0xbd6847ba	-0.05670903
21	0x3d5adce6	0.05343332
22	0xbe976544	-0.29569447
23	0x3e138eb9	0.14409913
24	0x3ea59930	0.32343435
25	0xbe9b65bb	-0.30351052
26	0xbe77d871	-0.2420366
27	0xbe1c9920	-0.15292788
28	0xbee29613	-0.44255123
29	0x3ebfe908	0.37482476
30	0x3d95b417	0.0730974
31	0xbef759f2	-0.4831081
32	0x3d2b9f90	0.041900218
33	0x3d3c9f9d	0.046050657
34	0xbe9eeff6	-0.3104245
35	0x3df221bd	0.11822841
36	0x3e97fa71	0.2968326
37	0xbf14bdc6	-0.5810207
38	0xbe0ced85	-0.13762482
39	0xbebe460b	-0.37162814
40	0x3dc81b91	0.09770883
41	0x3f306ee6	0.6891922
42	0x3e741ae3	0.23838381
43	0x3f02ee8a	0.5114523
44	0x3e5f2451	0.21791197
45	0xbee8e6cc	-0.45488584
46	0x3ee969b1	0.4558845
47	0x3e901437	0.28140423
48	0x3f1e3abd	0.6180838
49	0x3dacb59f	0.08433079
50	0xbe62ac94	-0.22136146
51	0xbefac618	-0.4897926
52	0x3ee63a3a	0.44966298
53	0xbce5247a	-0.027971495
54	0xbf0c208f	-0.5473718
55	0x3dfe44e7	0.12415486
56	0xbe671a2f	-0.22568582
57	0x3d13df13	0.036101412
58	0x3f62205c	0.88330626
59	0x3f6d6ebb	0.92747086
60	0x3f03af2f	0.51439184
61	0x3f0c5137	0.54811424
62	0xbe9b977f	-0.3038902
63	0x3dcdfcec	0.10058007
64	0xbe3cea59	-0.18448772
65	0xbf1e34c8	-0.6179929
66	0x3e32208b	0.17395227
67	0xbe164312	-0.14674023
68	0xbe43495b	-0.19070952
69	0x3d92c514	0.07166496
70	0x3e997879	0.29974726
71	0xbe9ece6e	-0.31016868
72	0x3de2a3e4	0.11066416
73	0x3f451822	0.7698995
74	0xbda5d2e3	-0.08096864
75	0xbe4a9c75	-0.19786246
76	0x3dfb19d1	0.122607835
77	0xbe0eb8e9	-0.13937725
78	0xbe77edae	-0.24211761
79	0x3e087751	0.13326766
80	0xbdf1bce8	-0.11803609
81	0x3f5bf13c	0.8591497
82	0x3ec8211a	0.39087754
83	0xbdbee2dd	-0.093206145
84	0xbde3e755	-0.111281075
85	0xbec7b656	-0.390063
86	0x3ec01f54	0.375239
87	0x3f2873ab	0.65801495
88	0xbe269c6f	-0.16270612
89	0x3de75074	0.11294642
90	0xbe7d2c61	-0.2472396
91	0x3e98703c	0.29773128
92	0x3ea71830	0.3263564
93	0x3e594f98	0.21221769
94	0x3f0312ce	0.5120057
95	0xbf22d981	-0.63613135
96	0x3ed28fb6	0.41125268
97	0xbb590fd6	-0.0033121011
98	0xbedb63e6	-0.42849654
99	0xbee76872	-0.45196873
100	0xbdaf658d	-0.08564291
101	0x3e00a234	0.12561876
102	0x3ea6863d	0.3252429
103	0xbf0921aa	-0.5356699
104	0x3f89d9b6	1.0769565
105	0x3e0084de	0.12550685
106	0x3ef0404c	0.46924055
107	0x3e0828cd	0.13296814
108	0x3e1703f4	0.14747602
109	0x3eef1586	0.4669611
110	0xbc9b34d2	-0.018946085
111	0xbe8496ea	-0.25896388
112	0xbf004a08	-0.5011296
113	0xbe2bd8f8	-0.16781986
114	0x3e048816	0.12942538
115	0x3d03d240	0.032182932
116	0xbc9dc5d3	-0.019259369
117	0xbe2f5e8a	-0.17125908
118	0xbe41ae2d	-0.18914099
119	0xbd852544	-0.065012485
120	0xbf7a8929	-0.9786554
121	0x3c119971	0.008886681
122	0x3f365220	0.7121906
123	0x3e8ea558	0.27860522
124	0x3e786478	0.24257076
125	0xbee372a8	-0.44423413
126	0x3ee12013	0.43969783
127	0xbf71565c	-0.942724
128	0xbe2973b1	-0.16548039
129	0x3c03e054	0.008049089
130	0x3ee18728	0.4404843
131	0x3dca7e63	0.098873876
132	0x3eb16e8a	0.34654647
133	0x3e030091	0.12793185
134	0xbe957855	-0.2919337
135	0xbe9aee65	-0.30260006
136	0xbe2e5e81	-0.17028238
137	0xbf136297	-0.5757231
138	0xbd4b340c	-0.049610183
139	0x3eadefa7	0.33971903
140	0xbe10d427	-0.1414343
141	0xbe288442	-0.16456702
142	0xbeaf7fb7	-0.34277126
143	0x3f082ad9	0.5319038
144	0xbf18a161	-0.59621245
145	0xbf1143df	-0.5674419
146	0x3e8e0436	0.27737588
147	0xbdcae18a	-0.099062994
148	0x3e99538e	0.2994656
149	0x3deb79eb	0.114978634
150	0xbeb4b23d	-0.35292235
151	0x3f273d2a	0.65327704
152	0xbc10f735	-0.008848001
153	0x3e033ab2	0.12815359
154	0xbdacd1e2	-0.084384695
155	0x3f046fb8	0.5173297
156	0x3c8a6935	0.01689587
157	0xbe20b0bc	-0.15692419
158	0x3e3eb124	0.18622261
159	0xbe899859	-0.26874045
160	0x3ee34a8c	0.44392812
161	0x3e246afd	0.16056438
162	0x3e973ad2	0.29537064
163	0x3f1cea3a	0.612949
164	0xbd964a89	-0.07338435
165	0x3e44cd6b	0.19218986
166	0x3d9df533	0.07712784
167	0x3f13e4d1	0.5777102
168	0xbe3e8ffc	-0.18609613
169	0x3edb5e8e	0.42845577
170	0x3f074268	0.528357
171	0x3d9c9e39	0.07647366
172	0xbe8f2106	-0.27954882
173	0xbe8fa4e9	-0.28055504
174	0xbe419cb5	-0.18907435
175	0xbedccb24	-0.43123734
176	0x3df0a12b	0.1174949
177	0x3f09b3d4	0.5379002
178	0x3e1c6a7f	0.15275
179	0xbdca4478	-0.09876341
180	0x3eddf28a	0.43349105
181	0xbee6b886	-0.45062655
182	0xbf4b9bb2	-0.7953445
183	0x3e83ca66	0.25740355
184	0xbe3bd0b9	-0.1834134
185	0x3dfc00a9	0.123048134
186	0x3d071d47	0.032986905
187	0xbbf16103	-0.007366301
188	0x3e300685	0.17189987
189	0x3e337d71	0.17528321
190	0x3f6755ae	0.9036511
191	0x3f891375	1.0709063
192	0x3ea2b5f3	0.3177944
193	0xbf073643	-0.5281717
194	0xbea622a7	-0.32448313
195	0x3e673968	0.22580492
196	0x3de2f815	0.11082474
197	0xbd82e8c8	-0.06392056
198	0x3e96dba6	0.29464453
199	0x3e70a0e6	0.23498878
200	0xbf155c07	-0.5834355
201	0x3dd49556	0.10380046
202	0x3f4df0b9	0.8044544
203	0xbea0d091	-0.31409124
204	0xbf589bed	-0.84612924
205	0xbea85b97	-0.32882378
206	0x3f3d6df6	0.7399591
207	0x3e8a3598	0.26994014
208	0xbf2717e7	-0.6527085
209	0x3d0fd7a6	0.035117768
210	0xbe098990	-0.13431382
211	0x3f69dbeb	0.91351193
212	0x3f3ee588	0.74568987
213	0x3fcc44c0	1.5958481
214	0xbf0be225	-0.54641944
215	0x3f063bbf	0.52434915
216	0xbe98aa92	-0.29817635
217	0xbefd7622	-0.4950419
218	0x3e1c5d0d	0.15269871
219	0x3e9a6c27	0.3016064
220	0xbd5d3f70	-0.054015577
221	0xbe445c08	-0.19175732
222	0x3e86e24f	0.26344535
223	0x3f0e19d5	0.55508167
224	0xbebaeca2	-0.36508662
225	0xbdcb5d6d	-0.09929929
226	0xbf33b329	-0.7019525
227	0xbc45fa09	-0.012083539
228	0xbe2ae5cd	-0.16689225
229	0xbf60c7f7	-0.8780512
230	0xbd8e7969	-0.06956751
231	0x3f060150	0.5234575
232	0x3e04da96	0.12974009
233	0x3f079609	0.5296331
234	0xbde20ea5	-0.110379495
235	0x3f1cd75d	0.6126612
236	0xbf4cdaf1	-0.8002158
237	0xbebbd368	-0.36684728
238	0x3e0d3995	0.13791497
239	0x3e7b738a	0.24555793
240	0xbecfffd2	-0.40624863
241	0x3e72efae	0.23724243
242	0x3e0af6f7	0.13570772
243	0x3db17aa1	0.08665968
244	0xbea3129b	-0.31850132
245	0xbf0f47c4	-0.5596888
246	0xbec1f4bd	-0.37882033
247	0xbc180139	-0.009277635
248	0xbeb11c5e	-0.34591955
249	0xbe64046f	-0.22267316
250	0xbf03d3d3	-0.51495093
251	0xbf268e0f	-0.65060514
252	0x3e926592	0.28593117
253	0xbe3dd41c	-0.18537945
254	0x3dfc4d6c	0.123194546
255	0x3eebdc77	0.4606664

network_body.linear_encoder.seq_layers.0.bias f4 [128]
0	0x00000000	0.0
1	0x00000000	0.0
2	0x00000000	0.0
3	0x00000000	0.0
4	0x00000000	0.0
5	0x00000000	0.0
6	0x00000000	0.0
7	0x00000000	0.0
8	0x00000000	0.0
9	0x00000000	0.0
10	0x00000000	0.0
11	0x00000000	0.0
12	0x00000000	0.0
13	0x00000000	0.0
14	0x00000000	0.0
15	0x00000000	0.0
16	0x00000000	0.0
17	0x00000000	0.0
18	0x00000000	0.0
19	0x00000000	0.0
20	0x00000000	0.0
21	0x00000000	0.0
22	0x00000000	0.0
23	0x00000000	0.0
24	0x00000000	0.0
25	0x00000000	0.0
26	0x00000000	0.0
27	0x00000000	0.0
28	0x00000000	0.0
29	0x00000000	0.0
30	0x00000000	0.0
31	0x00000000	0.0
32	0x00000000	0.0
33	0x00000000	0.0
34	0x00000000	0.0
35	0x00000000	0.0
36	0x00000000	0.0
37	0x00000000	0.0
38	0x00000000	0.0
39	0x00000000	0.0
40	0x00000000	0.0
41	0x00000000	0.0
42	0x00000000	0.0
43	0x00000000	0.0
44	0x00000000	0.0
45	0x00000000	0.0
46	0x00000000	0.0
47	0x00000000	0.0
48	0x00000000	0.0
49	0x00000000	0.0
50	0x00000000	0.0
51	0x00000000	0.0
52	0x00000000	0.0
53	0x00000000	0.0
54	0x00000000	0.0
55	0x00000000	0.0
56	0x00000000	0.0
57	0x00000000	0.0
58	0x00000000	0.0
59	0x00000000	0.0
60	0x00000000	0.0
61	0x00000000	0.0
62	0x00000000	0.0
63	0x00000000	0.0
64	0x00000000	0.0
65	0x00000000	0.0
66	0x00000000	0.0
67	0x00000000	0.0
68	0x00000000	0.0
69	0x00000000	0.0
70	0x00000000	0.0
71	0x00000000	0.0
72	0x00000000	0.0
73	0x00000000	0.0
74	0x00000000	0.0
75	0x00000000	0.0
76	0x00000000	0.0
77	0x00000000	0.0
78	0x00000000	0.0
79	0x00000000	0.0
80	0x00000000	0.0
81	0x00000000	0.0
82	0x00000000	0.0
83	0x00000000	0.0
84	0x00000000	0.0
85	0x00000000	0.0
86	0x00000000	0.0
87	0x00000000	0.0
88	0x00000000	0.0
89	0x00000000	0.0
90	0x00000000	0.0
91	0x00000000	0.0
92	0x00000000	0.0
93	0x00000000	0.0
94	0x00000000	0.0
95	0x00000000	0.0
96	0x00000000	0.0
97	0x00000000	0.0
98	0x00000000	0.0
99	0x00000000	0.0
100	0x00000000	0.0
101	0x00000000	0.0
102	0x00000000	0.0
103	0x00000000	0.0
104	0x00000000	0.0
105	0x00000000	0.0
106	0x00000000	0.0
107	0x00000000	0.0
108	0x00000000	0.0
109	0x00000000	0.0
110	0x00000000	0.0
111	0x00000000	0.0
112	0x00000000	0.0
113	0x00000000	0.0
114	0x00000000	0.0
115	0x00000000	0.0
116	0x00000000	0.0
117	0x00000000	0.0
118	0x00000000	0.0
119	0x00000000	0.0
120	0x00000000	0.0
121	0x00000000	0.0
122	0x00000000	0.0
123	0x00000000	0.0
124	0x00000000	0.0
125	0x00000000	0.0
126	0x00000000	0.0
127	0x00000000	0.0

network_body.linear_encoder.seq_layers.2.weight f4 [128, 128]
0	0x3dab9814	0.08378616
1	0xbdabc591	-0.08387292
2	0xbd92db60	-0.07170749
3	0x3d97cbaa	0.07411893
4	0x3df238a9	0.11827213
5	0xbd2f69ed	-0.042825628
6	0x3c6ace23	0.014331373
7	0xbe51aa06	-0.20475015
8	0xbd1c5199	-0.038163755
9	0xbd830a27	-0.06398421
10	0xbca0b3d5	-0.019617
11	0xbd01faf4	-0.03173347
12	0xbc93bb9d	-0.018033797
13	0xbc3840bc	-0.011245903
14	0x3b9feaa8	0.004880268
15	0x3daff3cb	0.08591422
16	0xbc8773cc	-0.016534708
17	0x3c415f08	0.011802442
18	0xbb947318	-0.004530322
19	0x3c67b763	0.014142844
20	0xbd7b187b	-0.061302643
21	0xbe2bc95e	-0.16776034
22	0xbe4174e1	-0.18892242
23	0x3cd71d96	0.026259225
24	0xbba481f9	-0.0050203768
25	0xbd88d792	-0.06681742
26	0xbdb64a8e	-0.08900939
27	0xba86c909	-0.0010283302
28	0xbd56a6f8	-0.052405328
29	0xbd9dc0df	-0.07702803
30	0x3d35d965	0.044396777
31	0x3bb25702	0.005442501
32	0xbdce9a95	-0.10088078
33	0xbd34f88e	-0.044182353
34	0xbdf61fa9	-0.120177574
35	0xbd0479be	-0.032342665
36	0x3cff1ce1	0.0311417
37	0x3d3a24a2	0.045445092
38	0xbc8938f5	-0.016750792
39	0xbdfc6e6d	-0.123257495
40	0xbdeb8c5a	-0.11501379
41	0x3df4fb09	0.11961944
42	0xbdbcb1ed	-0.09213624
43	0xbdb3d8c9	-0.08781583
44	0x3e2810ac	0.1641261
45	0xbd9a4f06	-0.07534604
46	0x3db83055	0.089935936
47	0xbd84c81b	-0.064834796
48	0xbdb77efb	-0.089597665
49	0x3c57c1b3	0.01316874
50	0x3e143403	0.14472966
51	0xbcc45aac	-0.023969017
52	0xbd9bc120	-0.07605195
53	0xbd20792b	-0.039178055
54	0x3c7f5ae1	0.015585632
55	0xbc023392	-0.007946866
56	0x3def4425	0.116829194
57	0xbdf5c5a4	-0.120005876
58	0x3d7fa784	0.062415615
59	0x3beb25e1	0.0071761464
60	0x3b870a48	0.0041210987
61	0x3dfcc8e3	0.123430036
62	0xbd01c9a9	-0.03168646
63	0x3d76acfb	0.06022356
64	0xbcdd68fa	-0.027027596
65	0x3b31fdec	0.0027159406
66	0xbdae2b07	-0.085043006
67	0xbdb2c853	-0.08729615
68	0xbd1d0d8d	-0.038343
69	0xbdd92f15	-0.10604683
70	0xbdc36208	-0.09540182
71	0xbe1ed87d	-0.15512271
72	0x3d9078da	0.070543006
73	0xbddbc132	-0.107302085
74	0xbda2e093	-0.079529904
75	0x3d43bbe6	0.047786616
76	0xbacf1648	-0.0015799487
77	0x3d25702a	0.04039017
78	0x3e13f93f	0.14450549
79	0x3e01ea77	0.12687097
80	0x3e11dc5c	0.14244217
81	0x3c80a7a5	0.01570494
82	0xba09e954	-0.0005260904
83	0x3c858e4c	0.016303204
84	0xbd8a25ad	-0.06745467
85	0x3df20737	0.11817782
86	0xbe0508c3	-0.12991624
87	0xbe2e7fd4	-0.1704095
88	0xbc5ee876	-0.013605228
89	0x3ca3b7da	0.019985128
90	0xbbc2d0fa	-0.005945322
91	0xbcd351b6	-0.025795799
92	0xbd1a2e02	-0.037641533
93	0x3d962cfe	0.073328
94	0x3d0791aa	0.0330979
95	0x3d9b3304	0.0757809
96	0x3d7ea763	0.06217135
97	0x3e18dc3f	0.14927767
98	0x3e21f9b4	0.1581791
99	0xbade8925	-0.0016978128
100	0x3d2e2ecf	0.04252511
101	0x3bacbc6b	0.0052714846
102	0x3d7a76d1	0.06114847
103	0x3d8729dd	0.06599782
104	0xbd8ecf4b	-0.06973132
105	0xbd8dd578	-0.069254816
106	0x3d215325	0.039385933
107	0xbda2cc80	-0.079491615
108	0x3d354324	0.044253483
109	0x3ddddd0c	0.10833177
110	0xbdbc7eda	-0.092038825
111	0xbcb628ca	-0.022236247
112	0xba9818db	-0.0011604087
113	0x3d56f35c	0.05247818
114	0x3dbbb00f	0.0916444
115	0x3d85c0b6	0.06530897
116	0xbd0eeb0b	-0.034892123
117	0xbceebd03	-0.029142862
118	0x3e18bc5a	0.149156
119	0xbcbc7552	-0.023005161
120	0xbd1adc83	-0.037807953
121	0xbba3658b	-0.00498647
122	0x3d048222	0.032350667
123	0xbe2f7dbf	-0.17137812
124	0x3d371787	0.04470017
125	0x3d9e80fb	0.07739445
126	0x3dfcabe4	0.12337473
127	0xbda1f848	-0.07908684
128	0xbbde98f2	-0.006793135
129	0xbd767bb9	-0.060176585
130	0x3d35fcaf	0.04443043
131	0x3d80bc1d	0.0628588
132	0xbe0268db	-0.12735312
133	0xbde1a9a5	-0.11018685
134	0xbe5e6c2c	-0.21720952
135	0xbdd5f9fa	-0.1044807
136	0xbde309b5	-0.11085836
137	0xbd0c3efe	-0.03423976
138	0x3dd224d2	0.10260929
139	0x3d73f595	0.059560377
140	0xbcb94857	-0.022617502
141	0x3dcb7734	0.099348456
142	0x3bddeb94	0.006772468
143	0xbd9714ce	-0.07377015
144	0xbdd8f048	-0.10592705
145	0x3d548bf7	0.051891293
146	0xbda7472e	-0.08167873
147	0x3d6c1784	0.057639614
148	0x3cf7b6c3	0.030238515
149	0x3db23808	0.08702093
150	0xbe1986af	-0.14992784
151	0x3e22f904	0.15915304
152	0x3d973b80	0.073843956
153	0x3db43659	0.087994285
154	0x3e3cd0f2	0.18439081
155	0xbdc8e486	-0.098092124
156	0x3de77618	0.113018215
157	0xbcf9781b	-0.030452779
158	0xbd86e8af	-0.065873496
159	0xbc61a51e	-0.013772277
160	0x3d04ec3f	0.032451864
161	0xbd46dee7	-0.04855242
162	0xbca29c2c	-0.01984986
163	0xbba9a448	-0.0051770546
164	0x3d569f02	0.052397735
165	0x3df76695	0.12080113
166	0xbb46c730	-0.0030331127
167	0x3ce94b89	0.0284784
168	0x3dbc05b0	0.09180772
169	0x3dafb763	0.085799
170	0xbc678fd8	-0.014133416
171	0xbe1044fc	-0.14088815
172	0xbcaf38e5	-0.021389434
173	0x3d54a752	0.05191738
174	0xbdc41a39	-0.09575314
175	0x3e07272f	0.13198541
176	0x3d3be22d	0.045869995
177	0xbbaa9cd7	-0.005206685
178	0x3b0edf3c	0.0021800539
179	0xbcd265a2	-0.025683228
180	0x3ccfd9b6	0.025372367
181	0x3d23a49e	0.039951913
182	0xbd57a009	-0.052642856
183	0x3e1e583c	0.15463346
184	0x3cd76562	0.02629346
185	0x3da9a006	0.08282475
186	0x3db1a6ce	0.086743936
187	0xbdd03956	-0.10167186
188	0x3e30a7fc	0.17251581
189	0x3d8b4106	0.067995116
190	0xbd71ae43	-0.05900408
191	0x3dfb02cc	0.12256393
192	0x3c578d7b	0.01315629
193	0xbe05a9e3	-0.13053088
194	0xbd7ec956	-0.062203728
195	0x3dd2dd1a	0.10296078
196	0xbb6dcecf	-0.0036286598
197	0x3df23e35	0.11828271
198	0xbd0e0b28	-0.03467861
199	0x3d337f4b	0.043822568
200	0xbe1f1be8	-0.15537989
201	0x3d6e4570	0.05817169
202	0x3d858050	0.06518614
203	0x3dcc452e	0.099741325
204	0x3dd5766f	0.1042298
205	0xbe1f85f1	-0.15578438
206	0x3e4e5e54	0.20153171
207	0x3ca22277	0.019791825
208	0xbdc72dc0	-0.09725523
209	0x3d0b60bf	0.03402781
210	0x3c3e953c	0.01163226
211	0x3d2ecf7e	0.04267835
212	0x3d1b5207	0.037920024
213	0xbbac0922	-0.005250112
214	0x3dc0a6d7	0.09406822
215	0xbd8d7804	-0.06907657
216	0xbcdf1187	-0.027230037
217	0x3db201c0	0.0869174
218	0x3d6824b5	0.05667563
219	0xbd3b87db	-0.04578386
220	0x3e4bdebd	0.19909187
221	0xbd894374	-0.06702319
222	0x3ab68366	0.0013924658
223	0xbcd93e28	-0.026518896
224	0x3d4611d5	0.04835685
225	0xbddae08a	-0.10687359
226	0xbb27f881	-0.0025630298
227	0x3dcce323	0.100042604
228	0x3e210669	0.15725102
229	0xbbd786a4	-0.0065773297
230	0x3c2e88f4	0.010652769
231	0xbc0b3a71	-0.00849782
232	0x3d4f5b3f	0.05062413
233	0x3deffb00	0.11717796
234	0xbe191e45	-0.14952953
235	0x3c85dfab	0.016342005
236	0x3e00a50c	0.1256296
237	0xbdb359d9	-0.087573715
238	0xbd76900c	-0.060195968
239	0xbd87c4a2	-0.066293016
240	0xbce03329	-0.027368145
241	0x3d4fc110	0.050721228
242	0x3dd9c52c	0.10633311
243	0x3e1c5313	0.15266065
244	0x3cde0bdb	0.027105263
245	0xbe14f3ca	-0.14546123
246	0xbd99da97	-0.07512396
247	0x3df27d7c	0.118403405
248	0xbd6c0d3c	-0.05762981
249	0xbc09a986	-0.008402234
250	0xbd0c580d	-0.03426366
251	0x3dcb1af8	0.09917253
252	0xbc26748d	-0.010159624
253	0xbc11cbb6	-0.008898666
254	0xbe3d21d6	-0.18469939
255	0xbcf5cf1c	-0.030005984

network_body.linear_encoder.seq_layers.2.bias f4 [128]
0	0x00000000	0.0
1	0x00000000	0.0
2	0x00000000	0.0
3	0x00000000	0.0
4	0x00000000	0.0
5	0x00000000	0.0
6	0x00000000	0.0
7	0x00000000	0.0
8	0x00000000	0.0
9	0x00000000	0.0
10	0x00000000	0.0
11	0x00000000	0.0
12	0x00000000	0.0
13	0x00000000	0.0
14	0x00000000	0.0
15	0x00000000	0.0
16	0x00000000	0.0
17	0x00000000	0.0
18	0x00000000	0.0
19	0x00000000	0.0
20	0x00000000	0.0
21	0x00000000	0.0
22	0x00000000	0.0
23	0x00000000	0.0
24	0x00000000	0.0
25	0x00000000	0.0
26	0x00000000	0.0
27	0x00000000	0.0
28	0x00000000	0.0
29	0x00000000	0.0
30	0x00000000	0.0
31	0x00000000	0.0
32	0x00000000	0.0
33	0x00000000	0.0
34	0x00000000	0.0
35	0x00000000	0.0
36	0x00000000	0.0
37	0x00000000	0.0
38	0x00000000	0.0
39	0x00000000	0.0
40	0x00000000	0.0
41	0x00000000	0.0
42	0x00000000	0.0
43	0x00000000	0.0
44	0x00000000	0.0
45	0x00000000	0.0
46	0x00000000	0.0
47	0x00000000	0.0
48	0x00000000	0.0
49	0x00000000	0.0
50	0x00000000	0.0
51	0x00000000	0.0
52	0x00000000	0.0
53	0x00000000	0.0
54	0x00000000	0.0
55	0x00000000	0.0
56	0x00000000	0.0
57	0x00000000	0.0
58	0x00000000	0.0
59	0x00000000	0.0
60	0x00000000	0.0
61	0x00000000	0.0
62	0x00000000	0.0
63	0x00000000	0.0
64	0x00000000	0.0
65	0x00000000	0.0
66	0x00000000	0.0
67	0x00000000	0.0
68	0x00000000	0.0
69	0x00000000	0.0
70	0x00000000	0.0
71	0x00000000	0.0
72	0x00000000	0.0
73	0x00000000	0.0
74	0x00000000	0.0
75	0x00000000	0.0
76	0x00000000	0.0
77	0x00000000	0.0
78	0x00000000	0.0
79	0x00000000	0.0
80	0x00000000	0.0
81	0x00000000	0.0
82	0x00000000	0.0
83	0x00000000	0.0
84	0x00000000	0.0
85	0x00000000	0.0
86	0x00000000	0.0
87	0x00000000	0.0
88	0x00000000	0.0
89	0x00000000	0.0
90	0x00000000	0.0
91	0x00000000	0.0
92	0x00000000	0.0
93	0x00000000	0.0
94	0x00000000	0.0
95	0x00000000	0.0
96	0x00000000	0.0
97	0x00000000	0.0
98	0x00000000	0.0
99	0x00000000	0.0
100	0x00000000	0.0
101	0x00000000	0.0
102	0x00000000	0.0
103	0x00000000	0.0
104	0x00000000	0.0
105	0x00000000	0.0
106	0x00000000	0.0
107	0x00000000	0.0
108	0x00000000	0.0
109	0x00000000	0.0
110	0x00000000	0.0
111	0x00000000	0.0
112	0x00000000	0.0
113	0x00000000	0.0
114	0x00000000	0.0
115	0x00000000	0.0
116	0x00000000	0.0
117	0x00000000	0.0
118	0x00000000	0.0
119	0x00000000	0.0
120	0x00000000	0.0
121	0x00000000	0.0
122	0x00000000	0.0
123	0x00000000	0.0
124	0x00000000	0.0
125	0x00000000	0.0
126	0x00000000	0.0
127	0x00000000	0.0

value_heads.value_heads.extrinsic.weight f4 [1, 128]
0	0x3d83f760	0.064436674
1	0x3e2643c2	0.16236785
2	0xbd374ea4	-0.044752732
3	0xbe446644	-0.19179636
4	0xbe3f42b3	-0.18677787
5	0x3d05012c	0.03247182
6	0x3db94bf8	0.09047693
7	0x3e4a5b9a	0.19761506
8	0x3c95df98	0.018295094
9	0xbcf387b8	-0.029727802
10	0xbd10e068	-0.03537026
11	0x3dc1941c	0.09452078
12	0xbe16b887	-0.14718829
13	0xbd853f8a	-0.0650626
14	0x3da35668	0.07975465
15	0x3c3f6c30	0.011683509
16	0x3e3dd33c	0.18537611
17	0xbe2c416b	-0.1682183
18	0xbdcc3a70	-0.099720836
19	0x3e361a14	0.17783386
20	0xbdd3138b	-0.10306462
21	0x3db4f5fc	0.0883598
22	0xbd39f374	-0.04539819
23	0xbd9e1204	-0.0771828
24	0xbda4c190	-0.080447316
25	0xbe3b92b4	-0.18317682
26	0x3e2ad66c	0.16683358
27	0x3d768398	0.06018409
28	0xbcfef228	-0.031121328
29	0x3e122eb8	0.14275634
30	0xbde81bcb	-0.11333426
31	0x3d578a68	0.05262223
32	0xbdb1290a	-0.08650406
33	0xbdb92b8c	-0.09041509
34	0x3d68ec40	0.05686593
35	0x3e362992	0.17789295
36	0x3de48b14	0.111593395
37	0x3cbcf0f8	0.023064122
38	0xbe4c6b92	-0.1996291
39	0x3b90a7c0	0.0044145286
40	0x3e406cc4	0.18791491
41	0x3e20dc16	0.15708956
42	0xbe57a7d5	-0.21060117
43	0x3d96c404	0.07361606
44	0xbd8ce0ac	-0.0687879
45	0xbca46740	-0.020068765
46	0x3c244050	0.010025099
47	0xbe245fde	-0.16052195
48	0x3e40064a	0.18752399
49	0xbce5bac0	-0.02804315
50	0xbe29e46a	-0.1659104
51	0xbd43eff4	-0.04783626
52	0xbdfee528	-0.12446052
53	0x3e3e08bc	0.1855802
54	0x3c53ffb0	0.012939379
55	0xbe3632e9	-0.17792858
56	0xbdc4032c	-0.095709175
57	0xbe1b900f	-0.15191673
58	0xbd698028	-0.057006985
59	0xbdb02bea	-0.08602126
60	0xbd089ab0	-0.033350646
61	0x3e0c2c98	0.13688886
62	0x3e5713ca	0.21003643
63	0xbe452f63	-0.19256358
64	0x3e451eb8	0.1925
65	0xbdf8561b	-0.12125798
66	0x3e475e98	0.19469678
67	0xbe221197	-0.15827022
68	0x3d555df8	0.05209157
69	0x3dfcad18	0.123377025
70	0xbe010315	-0.12598832
71	0x3cae3d80	0.02126956
72	0xbe3421b2	-0.17590979
73	0xbe3ebc95	-0.18626626
74	0xbdfce5db	-0.12348529
75	0xbe0eb660	-0.13936758
76	0x3e5b53e8	0.21418726
77	0x3a99cd00	0.0011734068
78	0x3e2e6c6e	0.1703355
79	0x3e054d70	0.13017821
80	0xbde5858a	-0.11207111
81	0x3daceab0	0.084432006
82	0x3ddf34fc	0.10898778
83	0xbd3ae5ac	-0.04562919
84	0x3e402d44	0.18767267
85	0xbe232678	-0.15932643
86	0xbda67c64	-0.081291944
87	0x3dee770c	0.116438
88	0x3e38391e	0.17990538
89	0xbbb6ae60	-0.0055749863
90	0xbd5b1d58	-0.05349478
91	0xbde56744	-0.11201337
92	0x3d79ffb0	0.06103486
93	0x3e36a0bc	0.17834753
94	0xbdd2ae62	-0.10287167
95	0x3db27218	0.08713168
96	0xbe42fa7c	-0.19040865
97	0xbdf95a29	-0.121754
98	0x3d8b8fd0	0.068145394
99	0x3dd27ff4	0.10278311
100	0x3d0eaf28	0.03483501
101	0xbcb0a098	-0.021560952
102	0x3e417ce4	0.18895298
103	0x3c13cce0	0.009021014
104	0x3e5aef54	0.21380359
105	0x3e464ee8	0.19366038
106	0xbb925d40	-0.0044666827
107	0xbd9abafc	-0.07555196
108	0x3d95b628	0.07310134
109	0x3e078146	0.13232908
110	0xbe032f39	-0.12810983
111	0x3e42a904	0.19009787
112	0x3e395f7a	0.18102828
113	0x3d874b24	0.06606129
114	0x3ddd2880	0.107987404
115	0xbad20d00	-0.0016025603
116	0x3de22d20	0.11043763
117	0xbde5d20f	-0.11221706
118	0x3e34d030	0.17657542
119	0xbe03b942	-0.12863639
120	0xbdf90ce2	-0.1216066
121	0xbd70e010	-0.058807433
122	0xbc4cc130	-0.012497231
123	0x3d90fe44	0.07079747
124	0x3dcfd310	0.10147679
125	0x3db6dff0	0.089294314
126	0x3e03e098	0.12878644
127	0xbe55307e	-0.2081928
