UnityMLTutorial_complete/results/Test2/MoveToGoal/MoveToGoal-704.onnx (onnx, 69871 bytes, 5 tensors)

network_body.linear_encoder.seq_layers.0.weight f4 [128, 1]
0.55666745 -1.6399266 -0.4938962 0.0007662642 -0.95443416 -1.2262363 -0.37651578 -0.10643855
0.6143155 -1.7890146 -0.26253748 0.906149 0.603819 -0.4532888 0.4384732 -2.4324548
0.13928565 -0.37343794 -1.4302908 -0.9232353 -0.5492513 -0.8381233 0.7711375 -0.7813958
-0.05350015 0.52901125 0.7911098 -0.17350763 0.9060504 -0.44672206 1.1865336 -0.1455966
-2.4256577 -0.55811787 1.2971313 0.23054358 -0.12678622 1.0504154 -1.4219761 -0.13560477
-0.6577552 -1.3100396 -0.9019194 -0.85760117 -0.54907554 0.8170124 0.6424437 -0.14740573
-2.9561865 -1.4015961 1.4126431 -0.14444093 0.10994833 -0.74835235 0.48011142 0.5154796
-1.5982074 -1.0306503 -0.9679651 -1.859037 -1.5225579 -0.5964868 -1.247314 -0.81011903
-0.39863738 0.7753733 -0.67895037 1.0509853 0.67304826 -1.409119 -0.6813821 0.061050948
-0.23141193 -0.3594318 -0.9623329 -1.7837334 0.505252 -0.5522114 0.415255 0.21166013
-0.053378064 1.0998647 1.7716851 -0.6095614 0.5365259 -0.90811014 1.427105 -1.8310186
0.94243574 0.34635222 -1.3469852 1.233007 0.73556733 0.7058986 0.7358927 0.36717206
0.6740138 1.2009606 -0.6858004 0.10166382 0.0062031285 -1.4913075 -0.38126388 -1.1643252
-0.8925861 0.3027367 0.8357176 -1.0513686 0.15178908 -1.3299527 0.042053077 -0.37263244
0.6708258 0.92704654 0.35882592 -1.4066575 0.5671597 0.74067116 1.1987594 -1.215281
-1.1436673 -2.7168713 0.22932957 -0.1492024 0.9605861 -1.3673058 -1.2297262 0.17441769
00000000: c281 0e3f 1de9 d1bf f6df fcbe 1fdf 483a
00000010: cc55 74bf 50f5 9cbf adc6 c0be 74fc d9bd
00000020: c843 1d3f 6efe e4bf 506b 86be 62f9 673f
00000030: e293 1a3f 7815 e8be 8f7f e03e 57ad 1bc0
00000040: e6a0 0e3e 4233 bfbe c513 b7bf 2659 6cbf
00000050: bc9b 0cbf 408f 56bf 4469 453f 8e09 48bf
00000060: f922 5bbd 486d 073f 2c86 4a3f fcab 31be
00000070: ebf2 673f c1b8 e4be 55e0 973f 4617 15be
00000080: fa3d 1bc0 d0e0 0ebf 6608 a63f 9e13 6c3e
00000090: 3fd4 01be 0374 863f 5003 b6bf fadb 0abe
000000a0: a562 28bf 61af a7bf 31e4 66bf c08b 5bbf
000000b0: 3790 0cbf ba27 513f 3177 243f 87f1 16be
000000c0: 2932 3dc0 8067 b3bf 7dd1 b43f 53e8 13be
000000d0: 972c e13d 0594 3fbf 2ad1 f53e 79f6 033f
000000e0: 0f92 ccbf 59ec 83bf 90cc 77bf edf4 edbf
000000f0: 2de3 c2bf 5cb3 18bf fca7 9fbf f663 4fbf
00000100: 331a ccbe dd7e 463f b1cf 2dbf b086 863f
00000110: e44c 2c3f 035e b4bf 0f6f 2ebf 8f10 7a3d
00000120: 40f7 6cbe 7207 b8be 735b 76bf 6051 e4bf
00000130: 3258 013f ba5d 0dbf 4e9c d43e 6fbd 583e
00000140: f5a2 5abd 5ec8 8c3f 94c6 e23f 370c 1cbf
00000150: c359 093f e879 68bf 60ab b63f d15e eabf
00000160: 7843 713f 1455 b13e 036a acbf 2cd3 9d3f
00000170: 244e 3c3f c5b5 343f 7763 3c3f fafd bb3e
00000180: 2b8c 2c3f 14b9 993f 9d90 2fbf 1f35 d03d
00000190: 9d43 cb3b 2ae3 bebf 0535 c3be 9c08 95bf
000001a0: 8680 64bf 4e00 9b3e 97f1 553f 3f93 86bf
000001b0: 996e 1b3e e43b aabf d93f 2c3d aec9 bebe
000001c0: 3dbb 2b3f ec52 6d3f 08b8 b73e 5a0d b4bf
000001d0: 6131 113f a09c 3d3f f370 993f 548e 9bbf
000001e0: b163 92bf 38e1 2dc0 5fd5 6a3e 84c8 18be
000001f0: f8e8 753f e003 afbf ab67 9dbf 8d9a 323e

network_body.linear_encoder.seq_layers.0.bias f4 [128]
0.0 0.0 0.0 0.0 0.0 0.0 0.0 0.0
0.0 0.0 0.0 0.0 0.0 0.0 0.0 0.0
0.0 0.0 0.0 0.0 0.0 0.0 0.0 0.0
0.0 0.0 0.0 0.0 0.0 0.0 0.0 0.0
0.0 0.0 0.0 0.0 0.0 0.0 0.0 0.0
0.0 0.0 0.0 0.0 0.0 0.0 0.0 0.0
0.0 0.0 0.0 0.0 0.0 0.0 0.0 0.0
0.0 0.0 0.0 0.0 0.0 0.0 0.0 0.0
0.0 0.0 0.0 0.0 0.0 0.0 0.0 0.0
0.0 0.0 0.0 0.0 0.0 0.0 0.0 0.0
0.0 0.0 0.0 0.0 0.0 0.0 0.0 0.0
0.0 0.0 0.0 0.0 0.0 0.0 0.0 0.0
0.0 0.0 0.0 0.0 0.0 0.0 0.0 0.0
0.0 0.0 0.0 0.0 0.0 0.0 0.0 0.0
0.0 0.0 0.0 0.0 0.0 0.0 0.0 0.0
0.0 0.0 0.0 0.0 0.0 0.0 0.0 0.0
00000000: 0000 0000 0000 0000 0000 0000 0000 0000
00000010: 0000 0000 0000 0000 0000 0000 0000 0000
00000020: 0000 0000 0000 0000 0000 0000 0000 0000
00000030: 0000 0000 0000 0000 0000 0000 0000 0000
00000040: 0000 0000 0000 0000 0000 0000 0000 0000
00000050: 0000 0000 0000 0000 0000 0000 0000 0000
00000060: 0000 0000 0000 0000 0000 0000 0000 0000
00000070: 0000 0000 0000 0000 0000 0000 0000 0000
00000080: 0000 0000 0000 0000 0000 0000 0000 0000
00000090: 0000 0000 0000 0000 0000 0000 0000 0000
000000a0: 0000 0000 0000 0000 0000 0000 0000 0000
000000b0: 0000 0000 0000 0000 0000 0000 0000 0000
000000c0: 0000 0000 0000 0000 0000 0000 0000 0000
000000d0: 0000 0000 0000 0000 0000 0000 0000 0000
000000e0: 0000 0000 0000 0000 0000 0000 0000 0000
000000f0: 0000 0000 0000 0000 0000 0000 0000 0000
00000100: 0000 0000 0000 0000 0000 0000 0000 0000
00000110: 0000 0000 0000 0000 0000 0000 0000 0000
00000120: 0000 0000 0000 0000 0000 0000 0000 0000
00000130: 0000 0000 0000 0000 0000 0000 0000 0000
00000140: 0000 0000 0000 0000 0000 0000 0000 0000
00000150: 0000 0000 0000 0000 0000 0000 0000 0000
00000160: 0000 0000 0000 0000 0000 0000 0000 0000
00000170: 0000 0000 0000 0000 0000 0000 0000 0000
00000180: 0000 0000 0000 0000 0000 0000 0000 0000
00000190: 0000 0000 0000 0000 0000 0000 0000 0000
000001a0: 0000 0000 0000 0000 0000 0000 0000 0000
000001b0: 0000 0000 0000 0000 0000 0000 0000 0000
000001c0: 0000 0000 0000 0000 0000 0000 0000 0000
000001d0: 0000 0000 0000 0000 0000 0000 0000 0000
000001e0: 0000 0000 0000 0000 0000 0000 0000 0000
000001f0: 0000 0000 0000 0000 0000 0000 0000 0000

network_body.linear_encoder.seq_layers.2.weight f4 [128, 128]
-0.045190092 0.09604886 0.13923882 -0.033773232 0.0018239672 0.029868541 -0.005638026 0.08049483
0.024641294 -0.05486576 -0.041091446 0.10667729 -0.19237627 0.02028766 -0.045723625 0.01716206
-0.018322473 -0.106945574 0.010375016 0.0047019394 -0.025596105 0.033305112 0.135354 -0.005745048
-0.01654886 -0.014665358 -0.055909257 0.027887778 0.028348621 0.000582823 0.05107732 0.118185714
-0.070643656 -0.020649925 0.09327165 0.097222745 0.012385132 0.035101786 0.10443005 0.011445454
-0.075612605 0.005396977 -0.11300643 0.05853336 -0.021404942 0.07983086 0.029010622 0.07118609
-0.04969918 0.124468125 -0.17674093 -0.07266505 0.02863577 0.05821379 0.094413586 -0.022892682
0.011876177 0.08581743 0.08668543 -0.09844253 -0.14360268 -0.08266773 0.130435 0.10233489
-0.06648525 0.092057206 0.07392587 -0.07302758 -0.011323854 0.035251264 0.044910174 0.026436541
-0.060783982 0.0004335398 -0.05075282 0.03747637 -0.00284834 -0.021244751 -0.08937992 -0.06418133
-0.0051055676 -0.015000012 -0.090246454 -0.019434948 -0.040970027 -0.014296178 -0.086410314 0.27359667
-0.06433191 -0.0005095813 0.05167458 0.082294315 -0.0043863314 0.102650754 0.039030198 0.09007638
-0.1247787 0.12825304 -0.082842775 -0.09456822 0.091903076 -0.07510893 0.035914343 -0.0600433
0.07811696 -0.07425781 0.021993082 0.08290127 0.047968823 0.006734757 -0.06820078 -0.04792914
-0.03838786 -0.084727384 0.0043108244 -0.09369085 -0.12190761 0.020166086 0.013145797 0.008747189
-0.011858365 0.05057174 -0.09790649 0.010839326 0.053494807 -0.17947729 0.115600176 -0.058552634
-0.006816218 -0.11074455 -0.0048649726 0.06117507 0.0062227445 -0.017133677 0.066117965 0.13817649
0.1004402 -0.009882194 0.10572451 0.059815384 -0.032508306 0.13409056 0.08464421 -0.09839474
-0.08417117 -0.14063196 -0.08340264 -0.17146625 0.03932652 -0.014037549 -0.08815389 0.04572487
0.1397403 -0.110120505 0.037943866 -0.043263797 0.10504626 -0.07214847 0.0040519317 0.0783725
0.01938438 0.08906601 0.09271538 0.036333483 0.07307405 0.055342257 -0.2121997 0.08274064
0.06849112 0.09320056 0.07298265 0.019379506 -0.07090429 0.12691611 -0.04467051 -0.019061044
0.08458805 0.0687343 0.14218855 -0.015721286 -0.01648526 0.11690029 0.009059288 0.008294706
-0.1089059 -0.27815738 0.074809775 -0.007934385 -0.00488451 0.07625183 -0.010314432 -0.022233898
-0.024625104 -0.007859379 -0.117148384 0.11861128 -0.025574666 0.14604238 -0.10920503 -0.011160342
-0.0037484523 0.069942474 -0.0038372802 0.04666602 -0.033297315 -0.01695005 0.023873212 -0.17320757
-0.0134732 -0.085135445 -0.016041217 0.037554294 0.0075105005 0.016981535 -0.050472073 -0.12821326
-0.14620207 0.020495532 -0.1849712 0.092468254 -0.007829207 -0.16661881 -0.10995292 0.039368544
-0.1692518 -0.13129708 0.015147885 0.017381921 -0.007931971 -0.033893116 0.008575874 -0.0060707834
-0.019062396 -0.014397578 -0.02311882 -0.026645951 0.040064406 -0.08235986 -0.13091835 -0.010980972
0.18576625 -0.1270869 0.038110804 0.103119224 0.03994947 -0.124393314 -0.011290359 0.028417805
0.047240894 0.23153833 -0.008371798 -0.023728648 -0.027997522 -0.09191061 0.23765069 0.00045373547
00000000: 3f19 39bd 44b5 c43d 9f94 0e3e cd55 0abd
00000010: 2f12 ef3a dfae f43c 31bf b8bb 79da a43d
00000020: 8adc c93c ebba 60bd 814f 28bd 9f79 da3d
00000030: 49fe 44be 4f32 a63c b248 3bbd 7397 8c3c
00000040: 0319 96bc 4806 dbbd f9fb 293c ba12 9a3b
00000050: ecae d1bc f16a 083d 3d9a 0a3e f540 bcbb
00000060: 7a91 87bc f846 70bc 1b01 65bd e974 e43c
00000070: 5e3b e83c 97c8 183a 7436 513d 5a0b f23d
00000080: 9fad 90bd 082a a9bc 3505 bf3d b81c c73d
00000090: 02eb 4a3c e4c6 0f3d 6cdf d53d b785 3b3c
000000a0: c8da 9abd 20d9 b03b ea6f e7bd adc0 6f3d
000000b0: 6b59 afbc 5d7e a33d afa7 ed3c 03ca 913d
000000c0: 5e91 4bbd 25e9 fe3d 93fb 34be 6ad1 94bd
000000d0: 9095 ea3c 9571 6e3d e95b c13d 6f89 bbbc
000000e0: 4c94 423c 0cc1 af3d 2188 b13d 3d9c c9bd
000000f0: 950c 13be b34d a9bd c190 053e f494 d13d
00000100: 6b29 88bd 7d88 bc3d 7266 973d 7c8f 95bd
00000110: b087 39bc a163 103d bbf3 373d 7291 d83c
00000120: a0f8 78bd ba4c e339 30e2 4fbd d280 193d
00000130: 37ab 3abb 7909 aebc d20c b7bd 8071 83bd
00000140: 9b4c a7bb 9cc2 75bc 22d3 b8bd 0a36 9fbc
00000150: 30d0 27bd 843a 6abc e4f7 b0bd dd14 8c3e
00000160: 73c0 83bd 6c95 05ba b9a8 533d ec89 a83d
00000170: 37bb 8fbb 8f3a d23d 21de 1f3d f779 b83d
00000180: fa8b ffbd c454 033e 79a9 a9bd fcac c1bd
00000190: ae37 bc3d b6d2 99bd eb1a 133d f7ef 75bd
000001a0: c9fb 9f3d 7b14 98bd d62a b43c 24c8 a93d
000001b0: f57a 443d 3daf dc3b daac 8bbd 5951 44bd
000001c0: 973c 1dbd 8d85 adbd d141 8d3b fde0 bfbd
000001d0: b2aa f9bd 5933 a53c 7861 573c 5f50 0f3c
000001e0: 9649 42bc 5024 4f3d 3383 c8bd 6e97 313c
000001f0: 5f1d 5b3d e5c8 37be c9bf ec3d e3d4 6fbd
00000200: 955a dfbb 0ace e2bd 596a 9fbb b692 7a3d
00000210: 2ae8 cb3b ed5b 8cbc db68 873d 237e 0d3e
00000220: 97b3 cd3d ede8 21bc 1886 d83d fa00 753d
00000230: 6e27 05bd 094f 093e f259 ad3d 2e83 c9bd
00000240: ef61 acbd d301 10be 01cf aabd d994 2fbe
00000250: d814 213d bffd 65bc 078a b4bd 004a 3b3d
00000260: 1518 0f3e dc86 e1bd 076b 1b3d 6135 31bd
00000270: 7e22 d73d 94c2 93bd 11c6 843b c381 a03d
00000280: fecb 9e3c 3e68 b63d 90e1 bd3d 6bd2 143d
00000290: d9a7 953d 90ae 623d e14a 59be ed73 a93d
000002a0: 1345 8c3d efdf be3d ed77 953d c5c1 9e3c
000002b0: 4536 91bd 4cf6 013e 6df8 36bd e825 9cbc
000002c0: 803c ad3d 92c4 8c3d e099 113e edc9 80bc
000002d0: 190c 87bc 6b69 ef3d 686d 143c 85e6 073c
000002e0: 0e0a dfbd a56a 8ebe de35 993d 39ff 01bc
000002f0: 3d0e a0bb eb29 9c3d ddfd 28bc dd23 b6bc
00000300: 96ba c9bc a0c4 00bc 7eeb efbd 79ea f23d
00000310: f681 d1bc 228c 153e e3a6 dfbd ded9 36bc
00000320: 98a8 75bb 003e 8f3d e17a 7bbb de24 3f3d
00000330: c462 08bd d5da 8abc c191 c33c 535d 31be
00000340: b2be 5cbc 7e5b aebd df68 83bc 88d2 193d
00000350: a51a f63b dc1c 8b3c cebb 4ebd 564a 03be
00000360: ffb5 15be 3fe6 a73c 1769 3dbe ff5f bd3d
00000370: 1346 00bc 1f9e 2abe ff2e e1bd e940 213d
00000380: 5850 2dbe be72 06be d62e 783c 8864 8e3c
00000390: 19f5 01bc 82d3 0abd d381 0c3c 6ced c6bb
000003a0: be28 9cbc d2e3 6bbc ae63 bdbc 9c48 dabc
000003b0: 931a 243d 49ac a8bd 760f 06be 89e9 33bc
000003c0: 8239 3e3e 1123 02be 131a 1c3d 2c30 d33d
000003d0: 0ea2 233d ecc1 febd 33fb 38bc 75cc e83c
000003e0: ab7f 413d 6218 6d3e de29 09bc 9562 c2bc
000003f0: 0f5b e5bc a13b bcbd b45a 733e 58e3 ed39

network_body.linear_encoder.seq_layers.2.bias f4 [128]
0.0 0.0 0.0 0.0 0.0 0.0 0.0 0.0
0.0 0.0 0.0 0.0 0.0 0.0 0.0 0.0
0.0 0.0 0.0 0.0 0.0 0.0 0.0 0.0
0.0 0.0 0.0 0.0 0.0 0.0 0.0 0.0
0.0 0.0 0.0 0.0 0.0 0.0 0.0 0.0
0.0 0.0 0.0 0.0 0.0 0.0 0.0 0.0
0.0 0.0 0.0 0.0 0.0 0.0 0.0 0.0
0.0 0.0 0.0 0.0 0.0 0.0 0.0 0.0
0.0 0.0 0.0 0.0 0.0 0.0 0.0 0.0
0.0 0.0 0.0 0.0 0.0 0.0 0.0 0.0
0.0 0.0 0.0 0.0 0.0 0.0 0.0 0.0
0.0 0.0 0.0 0.0 0.0 0.0 0.0 0.0
0.0 0.0 0.0 0.0 0.0 0.0 0.0 0.0
0.0 0.0 0.0 0.0 0.0 0.0 0.0 0.0
0.0 0.0 0.0 0.0 0.0 0.0 0.0 0.0
0.0 0.0 0.0 0.0 0.0 0.0 0.0 0.0
00000000: 0000 0000 0000 0000 0000 0000 0000 0000
00000010: 0000 0000 0000 0000 0000 0000 0000 0000
00000020: 0000 0000 0000 0000 0000 0000 0000 0000
00000030: 0000 0000 0000 0000 0000 0000 0000 0000
00000040: 0000 0000 0000 0000 0000 0000 0000 0000
00000050: 0000 0000 0000 0000 0000 0000 0000 0000
00000060: 0000 0000 0000 0000 0000 0000 0000 0000
00000070: 0000 0000 0000 0000 0000 0000 0000 0000
00000080: 0000 0000 0000 0000 0000 0000 0000 0000
00000090: 0000 0000 0000 0000 0000 0000 0000 0000
000000a0: 0000 0000 0000 0000 0000 0000 0000 0000
000000b0: 0000 0000 0000 0000 0000 0000 0000 0000
000000c0: 0000 0000 0000 0000 0000 0000 0000 0000
000000d0: 0000 0000 0000 0000 0000 0000 0000 0000
000000e0: 0000 0000 0000 0000 0000 0000 0000 0000
000000f0: 0000 0000 0000 0000 0000 0000 0000 0000
00000100: 0000 0000 0000 0000 0000 0000 0000 0000
00000110: 0000 0000 0000 0000 0000 0000 0000 0000
00000120: 0000 0000 0000 0000 0000 0000 0000 0000
00000130: 0000 0000 0000 0000 0000 0000 0000 0000
00000140: 0000 0000 0000 0000 0000 0000 0000 0000
00000150: 0000 0000 0000 0000 0000 0000 0000 0000
00000160: 0000 0000 0000 0000 0000 0000 0000 0000
00000170: 0000 0000 0000 0000 0000 0000 0000 0000
00000180: 0000 0000 0000 0000 0000 0000 0000 0000
00000190: 0000 0000 0000 0000 0000 0000 0000 0000
000001a0: 0000 0000 0000 0000 0000 0000 0000 0000
000001b0: 0000 0000 0000 0000 0000 0000 0000 0000
000001c0: 0000 0000 0000 0000 0000 0000 0000 0000
000001d0: 0000 0000 0000 0000 0000 0000 0000 0000
000001e0: 0000 0000 0000 0000 0000 0000 0000 0000
000001f0: 0000 0000 0000 0000 0000 0000 0000 0000

action_model._continuous_distribution.mu.weight f4 [1, 128]
-0.007570413 -0.011430643 0.0086277425 0.009607075 -0.035434436 -0.0026169468 0.004663821 0.018613352
0.0013049449 0.0024078467 -0.008897334 0.0032871596 0.026171207 0.0038301393 -0.035072308 -0.024869887
0.0148930745 -0.005019983 0.02977839 0.009992913 -0.01686339 -0.044740748 0.020157589 0.0026246312
0.0036901985 0.035117734 0.007981549 0.0026471652 0.01986756 -0.0032692521 -0.00073251384 0.0018235563
-0.011888961 -0.018152278 -0.009266092 -0.013795364 0.0135462135 -0.018319221 0.0004424892 0.01679826
-0.01730053 0.0039628027 -0.006494187 -0.0071951756 -0.003517314 -0.0028531393 0.03488751 -0.0076622823
-0.009092572 -0.03146459 0.0031349917 -0.015974117 0.0043015196 -0.00937865 0.01581799 -0.018039193
0.0038886012 0.0042912005 0.0005071662 0.03863211 -0.014744939 -0.009106737 -0.01432467 -0.00935181
-0.01617626 -0.03829604 -0.007903777 -0.0038109042 0.033476483 7.855999e-05 -0.013968907 0.011666896
0.005656739 -0.017017087 0.0055538113 -0.00792084 0.007303171 0.017837632 0.009742646 0.01878499
-0.0018568764 -0.0032847803 -0.008226203 0.008006141 -0.011104696 -0.018501543 0.015655793 -0.0027384222
-0.0004800378 -0.017751014 -0.018002143 -0.00023053994 -0.0031790286 0.017170006 0.01890721 0.00966099
-0.010045419 0.0039451416 -0.0068103573 0.002896331 -0.02234314 0.02267686 -0.0008722718 -0.0015465608
-0.0025146566 0.01974702 -0.021072546 0.012677649 0.020889878 0.006816111 -0.03548268 -0.012534033
0.023581112 -0.005451223 -0.009310128 0.023075448 0.03357252 -0.0070394077 0.002290505 0.0044057304
-0.021291174 0.014780964 0.013880679 -0.0018597903 -4.152052e-05 0.007230114 0.010885433 -0.011683443
00000000: 3a11 f8bb 9747 3bbc 605b 0d3c fe66 1d3c
00000010: b323 11bd 1581 2bbb f7d2 983b 077b 983c
00000020: af0a ab3a f7cc 1d3b 20c6 11bc 636d 573b
00000030: 0065 d63c 1303 7b3b fba7 0fbd efbb cbbc
00000040: 1502 743c ab7e a4bb cff1 f33c 51b9 233c
00000050: 1825 8abc 1342 37bd 8721 a53c 0102 2c3b
00000060: 42d7 713b 9dd7 0f3d 0bc5 023c 107c 2d3b
00000070: 4bc1 a23c f340 56bb 2c06 40ba 6504 ef3a
00000080: ebc9 42bc 16b4 94bc cfd0 17bc f305 62bc
00000090: f0f0 5d3c 3112 96bc e5fd e739 819c 893c
000000a0: d7b9 8dbc 66da 813b 30cd d4bb 82c5 ebbb
000000b0: bd82 66bb bcfb 3abb 35e6 0e3d e213 fbbb
000000c0: 03f9 14bc 04e1 00bd 6f74 4d3b 27dc 82bc
000000d0: c3f3 8c3b e9a8 19bc bb94 813c eec6 93bc
000000e0: e7d7 7e3b 339d 8c3b 59f3 043a b43c 1e3d
000000f0: c294 71bc 6c34 15bc 05b2 6abc 5638 19bc
00000100: 1384 84bc 4fdc 1cbd d87e 01bc 5dc0 79bb
00000110: a31e 093d 93c0 a438 d8dd 64bc 8226 3f3c
00000120: 2b5c b93b 6b67 8bbc bffc b53b 69c6 01bc
00000130: 704f ef3b 3a20 923c 9e9f 1f3c fbe2 993c
00000140: 6f62 f3ba 7845 57bb 32c7 06bc 302c 033c
00000150: 79f0 35bc 8c90 97bc 9440 803c 1a77 33bb
00000160: 95ad fbb9 936a 91bc 3b79 93bc 18bd 71b9
00000170: 4057 50bb 1da8 8c3c 4be3 9a3c 2149 1e3c
00000180: 8b95 24bc 3f46 813b 6b29 dfbb 5fd0 3d3b
00000190: f608 b7bc d3c4 b93c 2ba9 64ba f8b5 caba
000001a0: f0cc 24bb 81c4 a13c 55a0 acbc eab5 4f3c
000001b0: 4021 ab3c af59 df3b 4956 11bd 8b5b 4dbc
000001c0: 2d2d c13c 2ca0 b2bb 8289 18bc b908 bd3c
000001d0: 5783 093d d5aa e6bb 4c1c 163b f25d 903b
000001e0: d46a aebc db2b 723c ca6b 633c 35c4 f3ba
000001f0: 5226 2eb8 98ea ec3b d158 323c e96b 3fbc
