UnityMLTutorial_complete/results/Test2/MoveToGoal/MoveToGoal-704.pt (torch, 143695 bytes, 10 tensors)

network_body.linear_encoder.seq_layers.0.weight f4 [128, 1]
0	0x3f0e81c2	0.55666745
1	0xbfd1e91d	-1.6399266
2	0xbefcdff6	-0.4938962
3	0x3a48df1f	0.0007662642
4	0xbf7455cc	-0.95443416
5	0xbf9cf550	-1.2262363
6	0xbec0c6ad	-0.37651578
7	0xbdd9fc74	-0.10643855
8	0x3f1d43c8	0.6143155
9	0xbfe4fe6e	-1.7890146
10	0xbe866b50	-0.26253748
11	0x3f67f962	0.906149
12	0x3f1a93e2	0.603819
13	0xbee81578	-0.4532888
14	0x3ee07f8f	0.4384732
15	0xc01bad57	-2.4324548
16	0x3e0ea0e6	0.13928565
17	0xbebf3342	-0.37343794
18	0xbfb713c5	-1.4302908
19	0xbf6c5926	-0.9232353
20	0xbf0c9bbc	-0.5492513
21	0xbf568f40	-0.8381233
22	0x3f456944	0.7711375
23	0xbf48098e	-0.7813958
24	0xbd5b22f9	-0.05350015
25	0x3f076d48	0.52901125
26	0x3f4a862c	0.7911098
27	0xbe31abfc	-0.17350763
28	0x3f67f2eb	0.9060504
29	0xbee4b8c1	-0.44672206
30	0x3f97e055	1.1865336
31	0xbe151746	-0.1455966
32	0xc01b3dfa	-2.4256577
33	0xbf0ee0d0	-0.55811787
34	0x3fa60866	1.2971313
35	0x3e6c139e	0.23054358
36	0xbe01d43f	-0.12678622
37	0x3f867403	1.0504154
38	0xbfb60350	-1.4219761
39	0xbe0adbfa	-0.13560477
40	0xbf2862a5	-0.6577552
41	0xbfa7af61	-1.3100396
42	0xbf66e431	-0.9019194
43	0xbf5b8bc0	-0.85760117
44	0xbf0c9037	-0.54907554
45	0x3f5127ba	0.8170124
46	0x3f247731	0.6424437
47	0xbe16f187	-0.14740573
48	0xc03d3229	-2.9561865
49	0xbfb36780	-1.4015961
50	0x3fb4d17d	1.4126431
51	0xbe13e853	-0.14444093
52	0x3de12c97	0.10994833
53	0xbf3f9405	-0.74835235
54	0x3ef5d12a	0.48011142
55	0x3f03f679	0.5154796
56	0xbfcc920f	-1.5982074
57	0xbf83ec59	-1.0306503
58	0xbf77cc90	-0.9679651
59	0xbfedf4ed	-1.859037
60	0xbfc2e32d	-1.5225579
61	0xbf18b35c	-0.5964868
62	0xbf9fa7fc	-1.247314
63	0xbf4f63f6	-0.81011903
64	0xbecc1a33	-0.39863738
65	0x3f467edd	0.7753733
66	0xbf2dcfb1	-0.67895037
67	0x3f8686b0	1.0509853
68	0x3f2c4ce4	0.67304826
69	0xbfb45e03	-1.409119
70	0xbf2e6f0f	-0.6813821
71	0x3d7a108f	0.061050948
72	0xbe6cf740	-0.23141193
73	0xbeb80772	-0.3594318
74	0xbf765b73	-0.9623329
75	0xbfe45160	-1.7837334
76	0x3f015832	0.505252
77	0xbf0d5dba	-0.5522114
78	0x3ed49c4e	0.415255
79	0x3e58bd6f	0.21166013
80	0xbd5aa2f5	-0.053378064
81	0x3f8cc85e	1.0998647
82	0x3fe2c694	1.7716851
83	0xbf1c0c37	-0.6095614
84	0x3f0959c3	0.5365259
85	0xbf6879e8	-0.90811014
86	0x3fb6ab60	1.427105
87	0xbfea5ed1	-1.8310186
88	0x3f714378	0.94243574
89	0x3eb15514	0.34635222
90	0xbfac6a03	-1.3469852
91	0x3f9dd32c	1.233007
92	0x3f3c4e24	0.73556733
93	0x3f34b5c5	0.7058986
94	0x3f3c6377	0.7358927
95	0x3ebbfdfa	0.36717206
96	0x3f2c8c2b	0.6740138
97	0x3f99b914	1.2009606
98	0xbf2f909d	-0.6858004
99	0x3dd0351f	0.10166382
100	0x3bcb439d	0.0062031285
101	0xbfbee32a	-1.4913075
102	0xbec33505	-0.38126388
103	0xbf95089c	-1.1643252
104	0xbf648086	-0.8925861
105	0x3e9b004e	0.3027367
106	0x3f55f197	0.8357176
107	0xbf86933f	-1.0513686
108	0x3e1b6e99	0.15178908
109	0xbfaa3be4	-1.3299527
110	0x3d2c3fd9	0.042053077
111	0xbebec9ae	-0.37263244
112	0x3f2bbb3d	0.6708258
113	0x3f6d52ec	0.92704654
114	0x3eb7b808	0.35882592
115	0xbfb40d5a	-1.4066575
116	0x3f113161	0.5671597
117	0x3f3d9ca0	0.74067116
118	0x3f9970f3	1.1987594
119	0xbf9b8e54	-1.215281
120	0xbf9263b1	-1.1436673
121	0xc02de138	-2.7168713
122	0x3e6ad55f	0.22932957
123	0xbe18c884	-0.1492024
124	0x3f75e8f8	0.9605861
125	0xbfaf03e0	-1.3673058
126	0xbf9d67ab	-1.2297262
127	0x3e329a8d	0.17441769

network_body.linear_encoder.seq_layers.0.bias f4 [128]
0	0x00000000	0.0
1	0x00000000	0.0
2	0x00000000	0.0
3	0x00000000	0.0
4	0x00000000	0.0
5	0x00000000	0.0
6	0x00000000	0.0
7	0x00000000	0.0
8	0x00000000	0.0
9	0x00000000	0.0
10	0x00000000	0.0
11	0x00000000	0.0
12	0x00000000	0.0
13	0x00000000	0.0
14	0x00000000	0.0
15	0x00000000	0.0
16	0x00000000	0.0
17	0x00000000	0.0
18	0x00000000	0.0
19	0x00000000	0.0
20	0x00000000	0.0
21	0x00000000	0.0
22	0x00000000	0.0
23	0x00000000	0.0
24	0x00000000	0.0
25	0x00000000	0.0
26	0x00000000	0.0
27	0x00000000	0.0
28	0x00000000	0.0
29	0x00000000	0.0
30	0x00000000	0.0
31	0x00000000	0.0
32	0x00000000	0.0
33	0x00000000	0.0
34	0x00000000	0.0
35	0x00000000	0.0
36	0x00000000	0.0
37	0x00000000	0.0
38	0x00000000	0.0
39	0x00000000	0.0
40	0x00000000	0.0
41	0x00000000	0.0
42	0x00000000	0.0
43	0x00000000	0.0
44	0x00000000	0.0
45	0x00000000	0.0
46	0x00000000	0.0
47	0x00000000	0.0
48	0x00000000	0.0
49	0x00000000	0.0
50	0x00000000	0.0
51	0x00000000	0.0
52	0x00000000	0.0
53	0x00000000	0.0
54	0x00000000	0.0
55	0x00000000	0.0
56	0x00000000	0.0
57	0x00000000	0.0
58	0x00000000	0.0
59	0x00000000	0.0
60	0x00000000	0.0
61	0x00000000	0.0
62	0x00000000	0.0
63	0x00000000	0.0
64	0x00000000	0.0
65	0x00000000	0.0
66	0x00000000	0.0
67	0x00000000	0.0
68	0x00000000	0.0
69	0x00000000	0.0
70	0x00000000	0.0
71	0x00000000	0.0
72	0x00000000	0.0
73	0x00000000	0.0
74	0x00000000	0.0
75	0x00000000	0.0
76	0x00000000	0.0
77	0x00000000	0.0
78	0x00000000	0.0
79	0x00000000	0.0
80	0x00000000	0.0
81	0x00000000	0.0
82	0x00000000	0.0
83	0x00000000	0.0
84	0x00000000	0.0
85	0x00000000	0.0
86	0x00000000	0.0
87	0x00000000	0.0
88	0x00000000	0.0
89	0x00000000	0.0
90	0x00000000	0.0
91	0x00000000	0.0
92	0x00000000	0.0
93	0x00000000	0.0
94	0x00000000	0.0
95	0x00000000	0.0
96	0x00000000	0.0
97	0x00000000	0.0
98	0x00000000	0.0
99	0x00000000	0.0
100	0x00000000	0.0
101	0x00000000	0.0
102	0x00000000	0.0
103	0x00000000	0.0
104	0x00000000	0.0
105	0x00000000	0.0
106	0x00000000	0.0
107	0x00000000	0.0
108	0x00000000	0.0
109	0x00000000	0.0
110	0x00000000	0.0
111	0x00000000	0.0
112	0x00000000	0.0
113	0x00000000	0.0
114	0x00000000	0.0
115	0x00000000	0.0
116	0x00000000	0.0
117	0x00000000	0.0
118	0x00000000	0.0
119	0x00000000	0.0
120	0x00000000	0.0
121	0x00000000	0.0
122	0x00000000	0.0
123	0x00000000	0.0
124	0x00000000	0.0
125	0x00000000	0.0
126	0x00000000	0.0
127	0x00000000	0.0

network_body.linear_encoder.seq_layers.2.weight f4 [128, 128]
0	0xbd39193f	-0.045190092
1	0x3dc4b544	0.09604886
2	0x3e0e949f	0.13923882
3	0xbd0a55cd	-0.033773232
4	0x3aef122f	0.0018239672
5	0x3cf4aedf	0.029868541
6	0xbbb8bf31	-0.005638026
7	0x3da4da79	0.08049483
8	0x3cc9dc8a	0.024641294
9	0xbd60baeb	-0.05486576
10	0xbd284f81	-0.041091446
11	0x3dda799f	0.10667729
12	0xbe44fe49	-0.19237627
13	0x3ca6324f	0.02028766
14	0xbd3b48b2	-0.045723625
15	0x3c8c9773	0.01716206
16	0xbc961903	-0.018322473
17	0xbddb0648	-0.106945574
18	0x3c29fbf9	0.010375016
19	0x3b9a12ba	0.0047019394
20	0xbcd1aeec	-0.025596105
21	0x3d086af1	0.033305112
22	0x3e0a9a3d	0.135354
23	0xbbbc40f5	-0.005745048
24	0xbc87917a	-0.01654886
25	0xbc7046f8	-0.014665358
26	0xbd65011b	-0.055909257
27	0x3ce474e9	0.027887778
28	0x3ce83b5e	0.028348621
29	0x3a18c897	0.000582823
30	0x3d513674	0.05107732
31	0x3df20b5a	0.118185714
32	0xbd90ad9f	-0.070643656
33	0xbca92a08	-0.020649925
34	0x3dbf0535	0.09327165
35	0x3dc71cb8	0.097222745
36	0x3c4aeb02	0.012385132
37	0x3d0fc6e4	0.035101786
38	0x3dd5df6c	0.10443005
39	0x3c3b85b7	0.011445454
40	0xbd9adac8	-0.075612605
41	0x3bb0d920	0.005396977
42	0xbde76fea	-0.11300643
43	0x3d6fc0ad	0.05853336
44	0xbcaf596b	-0.021404942
45	0x3da37e5d	0.07983086
46	0x3ceda7af	0.029010622
47	0x3d91ca03	0.07118609
48	0xbd4b915e	-0.04969918
49	0x3dfee925	0.124468125
50	0xbe34fb93	-0.17674093
51	0xbd94d16a	-0.07266505
52	0x3cea9590	0.02863577
53	0x3d6e7195	0.05821379
54	0x3dc15be9	0.094413586
55	0xbcbb896f	-0.022892682
56	0x3c42944c	0.011876177
57	0x3dafc10c	0.08581743
58	0x3db18821	0.08668543
59	0xbdc99c3d	-0.09844253
60	0xbe130c95	-0.14360268
61	0xbda94db3	-0.08266773
62	0x3e0590c1	0.130435
63	0x3dd194f4	0.10233489
64	0xbd88296b	-0.06648525
65	0x3dbc887d	0.092057206
66	0x3d976672	0.07392587
67	0xbd958f7c	-0.07302758
68	0xbc3987b0	-0.011323854
69	0x3d1063a1	0.035251264
70	0x3d37f3bb	0.044910174
71	0x3cd89172	0.026436541
72	0xbd78f8a0	-0.060783982
73	0x39e34cba	0.0004335398
74	0xbd4fe230	-0.05075282
75	0x3d1980d2	0.03747637
76	0xbb3aab37	-0.00284834
77	0xbcae0979	-0.021244751
78	0xbdb70cd2	-0.08937992
79	0xbd837180	-0.06418133
80	0xbba74c9b	-0.0051055676
81	0xbc75c29c	-0.015000012
82	0xbdb8d322	-0.090246454
83	0xbc9f360a	-0.019434948
84	0xbd27d030	-0.040970027
85	0xbc6a3a84	-0.014296178
86	0xbdb0f7e4	-0.086410314
87	0x3e8c14dd	0.27359667
88	0xbd83c073	-0.06433191
89	0xba05956c	-0.0005095813
90	0x3d53a8b9	0.05167458
91	0x3da889ec	0.082294315
92	0xbb8fbb37	-0.0043863314
93	0x3dd23a8f	0.102650754
94	0x3d1fde21	0.039030198
95	0x3db879f7	0.09007638
96	0xbdff8bfa	-0.1247787
97	0x3e0354c4	0.12825304
98	0xbda9a979	-0.082842775
99	0xbdc1acfc	-0.09456822
100	0x3dbc37ae	0.091903076
101	0xbd99d2b6	-0.07510893
102	0x3d131aeb	0.035914343
103	0xbd75eff7	-0.0600433
104	0x3d9ffbc9	0.07811696
105	0xbd98147b	-0.07425781
106	0x3cb42ad6	0.021993082
107	0x3da9c824	0.08290127
108	0x3d447af5	0.047968823
109	0x3bdcaf3d	0.006734757
110	0xbd8bacda	-0.06820078
111	0xbd445159	-0.04792914
112	0xbd1d3c97	-0.03838786
113	0xbdad858d	-0.084727384
114	0x3b8d41d1	0.0043108244
115	0xbdbfe0fd	-0.09369085
116	0xbdf9aab2	-0.12190761
117	0x3ca53359	0.020166086
118	0x3c576178	0.013145797
119	0x3c0f505f	0.008747189
120	0xbc424996	-0.011858365
121	0x3d4f2450	0.05057174
122	0xbdc88333	-0.09790649
123	0x3c31976e	0.010839326
124	0x3d5b1d5f	0.053494807
125	0xbe37c8e5	-0.17947729
126	0x3decbfc9	0.115600176
127	0xbd6fd4e3	-0.058552634
128	0xbbdf5a95	-0.006816218
129	0xbde2ce0a	-0.11074455
130	0xbb9f6a59	-0.0048649726
131	0x3d7a92b6	0.06117507
132	0x3bcbe82a	0.0062227445
133	0xbc8c5bed	-0.017133677
134	0x3d8768db	0.066117965
135	0x3e0d7e23	0.13817649
136	0x3dcdb397	0.1004402
137	0xbc21e8ed	-0.009882194
138	0x3dd88618	0.10572451
139	0x3d7500fa	0.059815384
140	0xbd05276e	-0.032508306
141	0x3e094f09	0.13409056
142	0x3dad59f2	0.08464421
143	0xbdc9832e	-0.09839474
144	0xbdac61ef	-0.08417117
145	0xbe1001d3	-0.14063196
146	0xbdaacf01	-0.08340264
147	0xbe2f94d9	-0.17146625
148	0x3d2114d8	0.03932652
149	0xbc65fdbf	-0.014037549
150	0xbdb48a07	-0.08815389
151	0x3d3b4a00	0.04572487
152	0x3e0f1815	0.1397403
153	0xbde186dc	-0.110120505
154	0x3d1b6b07	0.037943866
155	0xbd313561	-0.043263797
156	0x3dd7227e	0.10504626
157	0xbd93c294	-0.07214847
158	0x3b84c611	0.0040519317
159	0x3da081c3	0.0783725
160	0x3c9ecbfe	0.01938438
161	0x3db6683e	0.08906601
162	0x3dbde190	0.09271538
163	0x3d14d26b	0.036333483
164	0x3d95a7d9	0.07307405
165	0x3d62ae90	0.055342257
166	0xbe594ae1	-0.2121997
167	0x3da973ed	0.08274064
168	0x3d8c4513	0.06849112
169	0x3dbedfef	0.09320056
170	0x3d9577ed	0.07298265
171	0x3c9ec1c5	0.019379506
172	0xbd913645	-0.07090429
173	0x3e01f64c	0.12691611
174	0xbd36f86d	-0.04467051
175	0xbc9c25e8	-0.019061044
176	0x3dad3c80	0.08458805
177	0x3d8cc492	0.0687343
178	0x3e1199e0	0.14218855
179	0xbc80c9ed	-0.015721286
180	0xbc870c19	-0.01648526
181	0x3def696b	0.11690029
182	0x3c146d68	0.009059288
183	0x3c07e685	0.008294706
184	0xbddf0a0e	-0.1089059
185	0xbe8e6aa5	-0.27815738
186	0x3d9935de	0.074809775
187	0xbc01ff39	-0.007934385
188	0xbba00e3d	-0.00488451
189	0x3d9c29eb	0.07625183
190	0xbc28fddd	-0.010314432
191	0xbcb623dd	-0.022233898
192	0xbcc9ba96	-0.024625104
193	0xbc00c4a0	-0.007859379
194	0xbdefeb7e	-0.117148384
195	0x3df2ea79	0.11861128
196	0xbcd181f6	-0.025574666
197	0x3e158c22	0.14604238
198	0xbddfa6e3	-0.10920503
199	0xbc36d9de	-0.011160342
200	0xbb75a898	-0.0037484523
201	0x3d8f3e00	0.069942474
202	0xbb7b7ae1	-0.0038372802
203	0x3d3f24de	0.04666602
204	0xbd0862c4	-0.033297315
205	0xbc8adad5	-0.01695005
206	0x3cc391c1	0.023873212
207	0xbe315d53	-0.17320757
208	0xbc5cbeb2	-0.0134732
209	0xbdae5b7e	-0.085135445
210	0xbc8368df	-0.016041217
211	0x3d19d288	0.037554294
212	0x3bf61aa5	0.0075105005
213	0x3c8b1cdc	0.016981535
214	0xbd4ebbce	-0.050472073
215	0xbe034a56	-0.12821326
216	0xbe15b5ff	-0.14620207
217	0x3ca7e63f	0.020495532
218	0xbe3d6917	-0.1849712
219	0x3dbd5fff	0.092468254
220	0xbc004613	-0.007829207
221	0xbe2a9e1f	-0.16661881
222	0xbde12eff	-0.10995292
223	0x3d2140e9	0.039368544
224	0xbe2d5058	-0.1692518
225	0xbe0672be	-0.13129708
226	0x3c782ed6	0.015147885
227	0x3c8e6488	0.017381921
228	0xbc01f519	-0.007931971
229	0xbd0ad382	-0.033893116
230	0x3c0c81d3	0.008575874
231	0xbbc6ed6c	-0.0060707834
232	0xbc9c28be	-0.019062396
233	0xbc6be3d2	-0.014397578
234	0xbcbd63ae	-0.02311882
235	0xbcda489c	-0.026645951
236	0x3d241a93	0.040064406
237	0xbda8ac49	-0.08235986
238	0xbe060f76	-0.13091835
239	0xbc33e989	-0.010980972
240	0x3e3e3982	0.18576625
241	0xbe022311	-0.1270869
242	0x3d1c1a13	0.038110804
243	0x3dd3302c	0.103119224
244	0x3d23a20e	0.03994947
245	0xbdfec1ec	-0.124393314
246	0xbc38fb33	-0.011290359
247	0x3ce8cc75	0.028417805
248	0x3d417fab	0.047240894
249	0x3e6d1862	0.23153833
250	0xbc0929de	-0.008371798
251	0xbcc26295	-0.023728648
252	0xbce55b0f	-0.027997522
253	0xbdbc3ba1	-0.09191061
254	0x3e735ab4	0.23765069
255	0x39ede358	0.00045373547

network_body.linear_encoder.seq_layers.2.bias f4 [128]
0	0x00000000	0.0
1	0x00000000	0.0
2	0x00000000	0.0
3	0x00000000	0.0
4	0x00000000	0.0
5	0x00000000	0.0
6	0x00000000	0.0
7	0x00000000	0.0
8	0x00000000	0.0
9	0x00000000	0.0
10	0x00000000	0.0
11	0x00000000	0.0
12	0x00000000	0.0
13	0x00000000	0.0
14	0x00000000	0.0
15	0x00000000	0.0
16	0x00000000	0.0
17	0x00000000	0.0
18	0x00000000	0.0
19	0x00000000	0.0
20	0x00000000	0.0
21	0x00000000	0.0
22	0x00000000	0.0
23	0x00000000	0.0
24	0x00000000	0.0
25	0x00000000	0.0
26	0x00000000	0.0
27	0x00000000	0.0
28	0x00000000	0.0
29	0x00000000	0.0
30	0x00000000	0.0
31	0x00000000	0.0
32	0x00000000	0.0
33	0x00000000	0.0
34	0x00000000	0.0
35	0x00000000	0.0
36	0x00000000	0.0
37	0x00000000	0.0
38	0x00000000	0.0
39	0x00000000	0.0
40	0x00000000	0.0
41	0x00000000	0.0
42	0x00000000	0.0
43	0x00000000	0.0
44	0x00000000	0.0
45	0x00000000	0.0
46	0x00000000	0.0
47	0x00000000	0.0
48	0x00000000	0.0
49	0x00000000	0.0
50	0x00000000	0.0
51	0x00000000	0.0
52	0x00000000	0.0
53	0x00000000	0.0
54	0x00000000	0.0
55	0x00000000	0.0
56	0x00000000	0.0
57	0x00000000	0.0
58	0x00000000	0.0
59	0x00000000	0.0
60	0x00000000	0.0
61	0x00000000	0.0
62	0x00000000	0.0
63	0x00000000	0.0
64	0x00000000	0.0
65	0x00000000	0.0
66	0x00000000	0.0
67	0x00000000	0.0
68	0x00000000	0.0
69	0x00000000	0.0
70	0x00000000	0.0
71	0x00000000	0.0
72	0x00000000	0.0
73	0x00000000	0.0
74	0x00000000	0.0
75	0x00000000	0.0
76	0x00000000	0.0
77	0x00000000	0.0
78	0x00000000	0.0
79	0x00000000	0.0
80	0x00000000	0.0
81	0x00000000	0.0
82	0x00000000	0.0
83	0x00000000	0.0
84	0x00000000	0.0
85	0x00000000	0.0
86	0x00000000	0.0
87	0x00000000	0.0
88	0x00000000	0.0
89	0x00000000	0.0
90	0x00000000	0.0
91	0x00000000	0.0
92	0x00000000	0.0
93	0x00000000	0.0
94	0x00000000	0.0
95	0x00000000	0.0
96	0x00000000	0.0
97	0x00000000	0.0
98	0x00000000	0.0
99	0x00000000	0.0
100	0x00000000	0.0
101	0x00000000	0.0
102	0x00000000	0.0
103	0x00000000	0.0
104	0x00000000	0.0
105	0x00000000	0.0
106	0x00000000	0.0
107	0x00000000	0.0
108	0x00000000	0.0
109	0x00000000	0.0
110	0x00000000	0.0
111	0x00000000	0.0
112	0x00000000	0.0
113	0x00000000	0.0
114	0x00000000	0.0
115	0x00000000	0.0
116	0x00000000	0.0
117	0x00000000	0.0
118	0x00000000	0.0
119	0x00000000	0.0
120	0x00000000	0.0
121	0x00000000	0.0
122	0x00000000	0.0
123	0x00000000	0.0
124	0x00000000	0.0
125	0x00000000	0.0
126	0x00000000	0.0
127	0x00000000	0.0

action_model._continuous_distribution.mu.weight f4 [1, 128]
0	0xbbf8113a	-0.007570413
1	0xbc3b4797	-0.011430643
2	0x3c0d5b60	0.0086277425
3	0x3c1d66fe	0.009607075
4	0xbd1123b3	-0.035434436
5	0xbb2b8115	-0.0026169468
6	0x3b98d2f7	0.004663821
7	0x3c987b07	0.018613352
8	0x3aab0aaf	0.0013049449
9	0x3b1dccf7	0.0024078467
10	0xbc11c620	-0.008897334
11	0x3b576d63	0.0032871596
12	0x3cd66500	0.026171207
13	0x3b7b0313	0.0038301393
14	0xbd0fa7fb	-0.035072308
15	0xbccbbbef	-0.024869887
16	0x3c740215	0.0148930745
17	0xbba47eab	-0.005019983
18	0x3cf3f1cf	0.02977839
19	0x3c23b951	0.009992913
20	0xbc8a2518	-0.01686339
21	0xbd374213	-0.044740748
22	0x3ca52187	0.020157589
23	0x3b2c0201	0.0026246312
24	0x3b71d742	0.0036901985
25	0x3d0fd79d	0.035117734
26	0x3c02c50b	0.007981549
27	0x3b2d7c10	0.0026471652
28	0x3ca2c14b	0.01986756
29	0xbb5640f3	-0.0032692521
30	0xba40062c	-0.00073251384
31	0x3aef0465	0.0018235563
32	0xbc42c9eb	-0.011888961
33	0xbc94b416	-0.018152278
34	0xbc17d0cf	-0.009266092
35	0xbc6205f3	-0.013795364
36	0x3c5df0f0	0.0135462135
37	0xbc961231	-0.018319221
38	0x39e7fde5	0.0004424892
39	0x3c899c81	0.01679826
40	0xbc8db9d7	-0.01730053
41	0x3b81da66	0.0039628027
42	0xbbd4cd30	-0.006494187
43	0xbbebc582	-0.0071951756
44	0xbb6682bd	-0.003517314
45	0xbb3afbbc	-0.0028531393
46	0x3d0ee635	0.03488751
47	0xbbfb13e2	-0.0076622823
48	0xbc14f903	-0.009092572
49	0xbd00e104	-0.03146459
50	0x3b4d746f	0.0031349917
51	0xbc82dc27	-0.015974117
52	0x3b8cf3c3	0.0043015196
53	0xbc19a8e9	-0.00937865
54	0x3c8194bb	0.01581799
55	0xbc93c6ee	-0.018039193
56	0x3b7ed7e7	0.0038886012
57	0x3b8c9d33	0.0042912005
58	0x3a04f359	0.0005071662
59	0x3d1e3cb4	0.03863211
60	0xbc7194c2	-0.014744939
61	0xbc15346c	-0.009106737
62	0xbc6ab205	-0.01432467
63	0xbc193856	-0.00935181
64	0xbc848413	-0.01617626
65	0xbd1cdc4f	-0.03829604
66	0xbc017ed8	-0.007903777
67	0xbb79c05d	-0.0038109042
68	0x3d091ea3	0.033476483
69	0x38a4c093	7.855999e-05
70	0xbc64ddd8	-0.013968907
71	0x3c3f2682	0.011666896
72	0x3bb95c2b	0.005656739
73	0xbc8b676b	-0.017017087
74	0x3bb5fcbf	0.0055538113
75	0xbc01c669	-0.00792084
76	0x3bef4f70	0.007303171
77	0x3c92203a	0.017837632
78	0x3c1f9f9e	0.009742646
79	0x3c99e2fb	0.01878499
80	0xbaf3626f	-0.0018568764
81	0xbb574578	-0.0032847803
82	0xbc06c732	-0.008226203
83	0x3c032c30	0.008006141
84	0xbc35f079	-0.011104696
85	0xbc97908c	-0.018501543
86	0x3c804094	0.015655793
87	0xbb33771a	-0.0027384222
88	0xb9fbad95	-0.0004800378
89	0xbc916a93	-0.017751014
90	0xbc93793b	-0.018002143
91	0xb971bd18	-0.00023053994
92	0xbb505740	-0.0031790286
93	0x3c8ca81d	0.017170006
94	0x3c9ae34b	0.01890721
95	0x3c1e4921	0.00966099
96	0xbc24958b	-0.010045419
97	0x3b81463f	0.0039451416
98	0xbbdf296b	-0.0068103573
99	0x3b3dd05f	0.002896331
100	0xbcb708f6	-0.02234314
101	0x3cb9c4d3	0.02267686
102	0xba64a92b	-0.0008722718
103	0xbacab5f8	-0.0015465608
104	0xbb24ccf0	-0.0025146566
105	0x3ca1c481	0.01974702
106	0xbcaca055	-0.021072546
107	0x3c4fb5ea	0.012677649
108	0x3cab2140	0.020889878
109	0x3bdf59af	0.006816111
110	0xbd115649	-0.03548268
111	0xbc4d5b8b	-0.012534033
112	0x3cc12d2d	0.023581112
113	0xbbb2a02c	-0.005451223
114	0xbc188982	-0.009310128
115	0x3cbd08b9	0.023075448
116	0x3d098357	0.03357252
117	0xbbe6aad5	-0.0070394077
118	0x3b161c4c	0.002290505
119	0x3b905df2	0.0044057304
120	0xbcae6ad4	-0.021291174
121	0x3c722bdb	0.014780964
122	0x3c636bca	0.013880679
123	0xbaf3c435	-0.0018597903
124	0xb82e2652	-4.152052e-05
125	0x3becea98	0.007230114
126	0x3c3258d1	0.010885433
127	0xbc3f6be9	-0.011683443

network_body.linear_encoder.seq_layers.0.weight f4 [128, 1]
0	0xbd8de3a9	-0.06928188
1	0xbf193cc9	-0.59858376
2	0xbf19a217	-0.60012954
3	0xbe96412d	-0.293466
4	0x3f973f98	1.1816282
5	0x3c83447d	0.016023869
6	0x3ebd5c15	0.36984316
7	0xbc370a06	-0.011171823
8	0x400bec5c	2.1863012
9	0x3eaf7fe3	0.34277257
10	0xbed7f8ea	-0.42182094
11	0x3f0603ef	0.5234975
12	0x3de2b4e6	0.1106966
13	0x3f0e5490	0.5559778
14	0xbe9e6c48	-0.30941987
15	0x3ed2f854	0.41205084
16	0x3efc3ec9	0.4926665
17	0x3f89ab68	1.0755434
18	0x3f82cfc5	1.0219656
19	0xbfa7911f	-1.3091162
20	0xbe1b15df	-0.15145062
21	0xbfe6e255	-1.8037821
22	0x3eea1ffb	0.45727524
23	0x3ff5e822	1.9211466
24	0xbe5da977	-0.21646677
25	0x3f977c1d	1.1834751
26	0x3f03a547	0.5142407
27	0x3f96b835	1.1774966
28	0x3f038de6	0.51388395
29	0xbf1e4276	-0.6182016
30	0x3f647c38	0.8925204
31	0x3e3347f8	0.17507923
32	0xbfaa6d0a	-1.3314526
33	0x3eac8113	0.33692226
34	0xc0001124	-2.0010462
35	0xbecec252	-0.4038263
36	0x3f86a562	1.0519221
37	0x3fdc1842	1.7194903
38	0xbe778aff	-0.24174117
39	0x3ef4b3fe	0.47793573
40	0xbf55e631	-0.8355437
41	0x3e941d23	0.2892848
42	0xbff67c01	-1.9256593
43	0x3fa7c4ed	1.3106972
44	0x3f0caf5d	0.54955083
45	0xbef0e10d	-0.470467
46	0xbfc9c44b	-1.5763029
47	0x3f5576ce	0.83384407
48	0xbfe70635	-1.8048769
49	0x3e9efd80	0.3105278
50	0xbf18c977	-0.5968241
51	0x3e83731b	0.25673756
52	0x3e587e5f	0.21141957
53	0x3e84d526	0.2594387
54	0x3d9ebe26	0.07751112
55	0xbfb73090	-1.4311695
56	0x3eb893ce	0.36050266
57	0xbfcdd15d	-1.6079518
58	0x3fd02978	1.6262655
59	0xbf43c570	-0.7647314
60	0xc019c4aa	-2.4026284
61	0x3faece30	1.3656673
62	0xbf859357	-1.043559
63	0x3f048d1b	0.5177781
64	0x3f2b0b2c	0.6681392
65	0xb9849cb2	-0.0002529375
66	0xc009f3fc	-2.1555166
67	0xbf8cf70a	-1.101289
68	0xbfad3a24	-1.3533368
69	0x3e2a8308	0.16651547
70	0xbea5a840	-0.32354927
71	0xbf3f5dea	-0.74752676
72	0xbf793ff1	-0.9736319
73	0xbe0de5a7	-0.13857137
74	0x3e587f5c	0.21142334
75	0x4042867a	3.0394578
76	0x3f2116b6	0.6292528
77	0xbef003a0	-0.46877766
78	0xbf70fb67	-0.9413361
79	0x3dc4cb1d	0.09609053
80	0xbe530681	-0.2060795
81	0x3f24d29a	0.6438385
82	0xbe7b5991	-0.24545886
83	0xbf8d8864	-1.1057248
84	0x3e5f0aff	0.21781538
85	0x3edb4678	0.428272
86	0x3ee190c5	0.44055763
87	0xbe3698fd	-0.17831798
88	0x3fd170cf	1.6362551
89	0xbec01bd1	-0.37521222
90	0xbd8b8f3e	-0.06814431
91	0x3eea9959	0.4582012
92	0xb89dd617	-7.526221e-05
93	0x3dc8a355	0.09796778
94	0xbfb536d1	-1.4157354
95	0x3f5ce325	0.86284095
96	0xbff17b5c	-1.8865771
97	0xbf7d5045	-0.98950607
98	0x3e6cc8ed	0.23123522
99	0x3ed9c931	0.4253631
100	0xbd5de27f	-0.05417108
101	0xbfb1ffa7	-1.3906144
102	0x3f5dec6d	0.8668888
103	0x3fbf24dc	1.4933124
104	0x3dd3c48c	0.10340223
105	0xc0293acf	-2.6442144
106	0x3db49c01	0.08818818
107	0xbf859512	-1.0436118
108	0xbf909953	-1.1296791
109	0xbda6112a	-0.081087425
110	0x3e85d0b9	0.26135805
111	0xbfcb9ab7	-1.590659
112	0x3f0b08ed	0.54310495
113	0x3d6ae2ce	0.057345204
114	0x3f76f61d	0.9646929
115	0x3e36e309	0.17860045
116	0xbf6193f9	-0.88116413
117	0x3e7b36d5	0.24532636
118	0xbef0b1e9	-0.47010735
119	0x3e271617	0.1631702
120	0xbe9acccd	-0.30234376
121	0xbd0c1b55	-0.034205753
122	0xbf6723f6	-0.9028925
123	0x3f6d9222	0.92801106
124	0x3eadd74f	0.3395333
125	0xbfc090e8	-1.5044222
126	0xbf71b1fa	-0.94412196
127	0x3fc0af89	1.5053569

network_body.linear_encoder.seq_layers.0.bias f4 [128]
0	0x00000000	0.0
1	0x00000000	0.0
2	0x00000000	0.0
3	0x00000000	0.0
4	0x00000000	0.0
5	0x00000000	0.0
6	0x00000000	0.0
7	0x00000000	0.0
8	0x00000000	0.0
9	0x00000000	0.0
10	0x00000000	0.0
11	0x00000000	0.0
12	0x00000000	0.0
13	0x00000000	0.0
14	0x00000000	0.0
15	0x00000000	0.0
16	0x00000000	0.0
17	0x00000000	0.0
18	0x00000000	0.0
19	0x00000000	0.0
20	0x00000000	0.0
21	0x00000000	0.0
22	0x00000000	0.0
23	0x00000000	0.0
24	0x00000000	0.0
25	0x00000000	0.0
26	0x00000000	0.0
27	0x00000000	0.0
28	0x00000000	0.0
29	0x00000000	0.0
30	0x00000000	0.0
31	0x00000000	0.0
32	0x00000000	0.0
33	0x00000000	0.0
34	0x00000000	0.0
35	0x00000000	0.0
36	0x00000000	0.0
37	0x00000000	0.0
38	0x00000000	0.0
39	0x00000000	0.0
40	0x00000000	0.0
41	0x00000000	0.0
42	0x00000000	0.0
43	0x00000000	0.0
44	0x00000000	0.0
45	0x00000000	0.0
46	0x00000000	0.0
47	0x00000000	0.0
48	0x00000000	0.0
49	0x00000000	0.0
50	0x00000000	0.0
51	0x00000000	0.0
52	0x00000000	0.0
53	0x00000000	0.0
54	0x00000000	0.0
55	0x00000000	0.0
56	0x00000000	0.0
57	0x00000000	0.0
58	0x00000000	0.0
59	0x00000000	0.0
60	0x00000000	0.0
61	0x00000000	0.0
62	0x00000000	0.0
63	0x00000000	0.0
64	0x00000000	0.0
65	0x00000000	0.0
66	0x00000000	0.0
67	0x00000000	0.0
68	0x00000000	0.0
69	0x00000000	0.0
70	0x00000000	0.0
71	0x00000000	0.0
72	0x00000000	0.0
73	0x00000000	0.0
74	0x00000000	0.0
75	0x00000000	0.0
76	0x00000000	0.0
77	0x00000000	0.0
78	0x00000000	0.0
79	0x00000000	0.0
80	0x00000000	0.0
81	0x00000000	0.0
82	0x00000000	0.0
83	0x00000000	0.0
84	0x00000000	0.0
85	0x00000000	0.0
86	0x00000000	0.0
87	0x00000000	0.0
88	0x00000000	0.0
89	0x00000000	0.0
90	0x00000000	0.0
91	0x00000000	0.0
92	0x00000000	0.0
93	0x00000000	0.0
94	0x00000000	0.0
95	0x00000000	0.0
96	0x00000000	0.0
97	0x00000000	0.0
98	0x00000000	0.0
99	0x00000000	0.0
100	0x00000000	0.0
101	0x00000000	0.0
102	0x00000000	0.0
103	0x00000000	0.0
104	0x00000000	0.0
105	0x00000000	0.0
106	0x00000000	0.0
107	0x00000000	0.0
108	0x00000000	0.0
109	0x00000000	0.0
110	0x00000000	0.0
111	0x00000000	0.0
112	0x00000000	0.0
113	0x00000000	0.0
114	0x00000000	0.0
115	0x00000000	0.0
116	0x00000000	0.0
117	0x00000000	0.0
118	0x00000000	0.0
119	0x00000000	0.0
120	0x00000000	0.0
121	0x00000000	0.0
122	0x00000000	0.0
123	0x00000000	0.0
124	0x00000000	0.0
125	0x00000000	0.0
126	0x00000000	0.0
127	0x00000000	0.0

network_body.linear_encoder.seq_layers.2.weight f4 [128, 128]
0	0x3e0d52f9	0.13801183
1	0xbdf5e3bd	-0.12006328
2	0xbde8bf9a	-0.1136467
3	0x3d77ae37	0.06046888
4	0x3d24c930	0.04023093
5	0xbd5c4450	-0.053776085
6	0x3d0c4552	0.034245797
7	0x3d7e250c	0.06204705
8	0x3d97d77e	0.07414149
9	0xbd419697	-0.047262754
10	0x3d67d421	0.056598786
11	0xbc858ef4	-0.016303517
12	0x3ddcf893	0.10789599
13	0xbd0192d3	-0.031634163
14	0xbd4d0cdf	-0.050061103
15	0xbe131d4f	-0.14366649
16	0x3d4f6c21	0.05064023
17	0xbe1cf3ca	-0.15327373
18	0x3bbc59e4	0.0057480205
19	0x3dc5772b	0.0964187
20	0x3dfbf2d6	0.12302177
21	0x3cf4c55e	0.029879268
22	0xbcc2352b	-0.023706993
23	0x3dc46363	0.09589269
24	0x3d1dd0fb	0.038529377
25	0xbddedd60	-0.10882068
26	0x3d359de2	0.044340022
27	0x3e1d450f	0.15358375
28	0xbc0c280a	-0.008554468
29	0xbd5478f5	-0.051873166
30	0xbe72adec	-0.23699158
31	0xbbcc5412	-0.006235608
32	0x3e5adef4	0.21374112
33	0x3d13ed92	0.036115237
34	0x3dc1e897	0.09468191
35	0x3dcf32e1	0.10117126
36	0x3df8428c	0.12122068
37	0x3d9a0217	0.0751993
38	0xbdb504cc	-0.088388056
39	0x3cee9ec0	0.029128432
40	0xbdeda304	-0.116033584
41	0xbdc007ff	-0.09376525
42	0x3c5c682d	0.013452572
43	0x3db4669b	0.08808633
44	0xbd3e6731	-0.04648513
45	0xbdcbb6e3	-0.09946992
46	0x3de4288b	0.111405455
47	0xbcc2c2bf	-0.023774503
48	0xbd8eefc9	-0.06979329
49	0xbd189706	-0.037253402
50	0xbc05dd91	-0.008170501
51	0x3d1d4741	0.03839803
52	0xbe033320	-0.12812471
53	0xbd05e48f	-0.032688674
54	0xbc45be06	-0.012069231
55	0xbd8f657a	-0.07001777
56	0x3d192efe	0.03739833
57	0x3d2fdc24	0.04293455
58	0x3c66f8b4	0.014097381
59	0xbd1a1d47	-0.037625577
60	0x3d9f490a	0.07777603
61	0xbd34a4e4	-0.044102564
62	0x3d84b4d8	0.06479806
63	0x3e1e7d42	0.1547747
64	0x3d87aaa4	0.06624344
65	0xbcda361a	-0.026637126
66	0xbce9db03	-0.028546816
67	0xbdb63144	-0.088961154
68	0xbc65b9e0	-0.014021367
69	0xbaf32411	-0.0018550177
70	0x3e04fd2d	0.12987204
71	0x3c992e85	0.01869894
72	0x3d8d9624	0.06913403
73	0xbbad20e1	-0.0052834605
74	0xbd3b8d94	-0.045789316
75	0x3dd36c38	0.103233755
76	0x3e344251	0.17603423
77	0x3d512502	0.051060684
78	0x3d00e379	0.031466935
79	0xbde9eb67	-0.114218526
80	0x3daad5e5	0.083415784
81	0x3e128727	0.14309369
82	0x3da190ab	0.07888921
83	0xbd1ea259	-0.038729046
84	0xbda9662d	-0.082714416
85	0xbc8b2aec	-0.01698824
86	0x3e33af95	0.17547448
87	0x3cc9ef57	0.024650259
88	0x3dc18726	0.09449606
89	0x3d19b880	0.03752947
90	0xbdb85f7a	-0.09002586
91	0xbccc068c	-0.024905466
92	0x3d54f005	0.051986713
93	0x3d2ec00a	0.04266361
94	0xbca63779	-0.020290123
95	0x3de2740b	0.1105729
96	0xbe04678b	-0.12930124
97	0x3cf074fe	0.029352661
98	0x3d994259	0.07483358
99	0xba06ac48	-0.0005137366
100	0xbd03bb8a	-0.032161273
101	0x3de98029	0.11401398
102	0xbe574781	-0.2102337
103	0xbd5de8eb	-0.054177206
104	0xbd43253f	-0.047642943
105	0x3d36ad86	0.04459908
106	0x3d9da657	0.076977424
107	0x3cf8aa47	0.030354632
108	0x3dd8690b	0.1056691
109	0x3e534bc9	0.20634378
110	0x3db852c1	0.09000159
111	0xbba92189	-0.0051614684
112	0xbe02ea62	-0.12784722
113	0xbd49143e	-0.04909157
114	0xbdbeceda	-0.093167976
115	0x3c8acc6f	0.016943185
116	0x3dc10620	0.094249964
117	0x3ce842ab	0.028352102
118	0xbde692ce	-0.112584695
119	0x3c87d399	0.01658039
120	0x3d0bf864	0.03417243
121	0x3dcb2693	0.09919467
122	0x3d049d8c	0.03237681
123	0xbd270db0	-0.040784538
124	0xbcce942e	-0.025217142
125	0xbd82083f	-0.06349229
126	0x3d8505f8	0.06495279
127	0xbde2dbe4	-0.11077097
128	0xbde55d1c	-0.111994
129	0xbe36ec49	-0.17863573
130	0xbcb9ac0c	-0.022665046
131	0x3c8f9363	0.017526334
132	0x3da1a418	0.078926265
133	0xbc06605f	-0.008201688
134	0x3d0cd480	0.034382343
135	0xbe091887	-0.13388263
136	0x3e274d67	0.1633812
137	0xbd5cc52c	-0.053898975
138	0x3d729e30	0.05923289
139	0xbcba9889	-0.022777813
140	0x3d2068dc	0.0391625
141	0x3b4ba537	0.0031073818
142	0xbd6d9c7b	-0.05801056
143	0x3e00899c	0.12552494
144	0xbd3a5f25	-0.045500893
145	0x3d8514a7	0.0649808
146	0x3e2399f1	0.15976693
147	0xbe08494e	-0.13309214
148	0x3d5c88c1	0.053841356
149	0x3d294347	0.041323926
150	0x3cb9294d	0.022602702
151	0xbdc3b518	-0.09556025
152	0x3c251068	0.010074712
153	0xbdba946f	-0.09110343
154	0x3b165c14	0.0022943066
155	0xbdb22226	-0.086979195
156	0x3d8034bd	0.06260059
157	0xbccc22b3	-0.02491889
158	0x3d527841	0.051384214
159	0xbdd09900	-0.101854324
160	0x3d998cb1	0.07497538
161	0x3d8432ff	0.06455039
162	0xbc6ff1bb	-0.014645035
163	0xbc8eb4ac	-0.017420135
164	0xbca0c97f	-0.01962733
165	0xbcacfd28	-0.021116808
166	0xbe10edd1	-0.1415322
167	0xbdfa28fb	-0.12214848
168	0xbdb9f3f2	-0.09079732
169	0x3c9de2c0	0.019273162
170	0x3c178687	0.009248382
171	0x3cb23e1e	0.021758135
172	0x3d77fdde	0.06054484
173	0xbcac3fe7	-0.021026565
174	0xbca9a8bc	-0.020710342
175	0x3cf6d525	0.030130932
176	0xbe31eb50	-0.17374921
177	0x3d9805cf	0.07422983
178	0x3dbb41ac	0.09143385
179	0xbd9f5821	-0.07780481
180	0x3d69cbf0	0.057079256
181	0x3d776585	0.06039955
182	0x3c9de836	0.019275766
183	0xbca624a3	-0.020281142
184	0x3d71ec05	0.059062976
185	0x3d78f9c7	0.06078508
186	0xbc618b46	-0.0137661155
187	0x3c9565cf	0.018237023
188	0xbd9f2abb	-0.07771822
189	0xbdeb25f6	-0.1148185
190	0x3ded371c	0.11582777
191	0xbd275f66	-0.040862463
192	0x3e0779bc	0.13230032
193	0x3c6b2e72	0.014354335
194	0xbbc6755f	-0.006056472
195	0xbdc87528	-0.09787971
196	0x3df95364	0.121741086
197	0x3e12667d	0.14296909
198	0x3d5d74f1	0.054066602
199	0x3c2ec6a6	0.010667479
200	0xbc296ebc	-0.010341343
201	0x3da5b555	0.08091227
202	0x3cf8b522	0.030359808
203	0xbc023be8	-0.007948853
204	0x3d2ee29f	0.04269659
205	0x3dd86d17	0.10567682
206	0x3d32d0b3	0.043656062
207	0xbd4e34ae	-0.050343208
208	0x3cf0ac72	0.029379103
209	0x3d75c7cd	0.060004998
210	0x3e140314	0.14454299
211	0x3c767483	0.015042427
212	0x3d57c843	0.05268122
213	0xbe4390a2	-0.19098142
214	0x3e34f7e0	0.17672682
215	0xbd3e0c52	-0.04639847
216	0xbd041a14	-0.032251433
217	0xbdb3059f	-0.087413065
218	0xbe0c7cc4	-0.1371947
219	0xbca38b9b	-0.01996403
220	0x3d125207	0.03572276
221	0xbd09da78	-0.033655614
222	0x3cb90b4e	0.022588398
223	0xbcde50f5	-0.027138213
224	0xbb2c5d73	-0.0026300817
225	0x3e194878	0.14969051
226	0xbda106f5	-0.07862655
227	0x3dfdcf58	0.12393063
228	0xbd277c00	-0.04088974
229	0x3e0d3e4d	0.13793297
230	0x3b5e6901	0.00339371
231	0xbdb91cd2	-0.090387
232	0x3df4f695	0.11961094
233	0x3b9c16dd	0.0047634677
234	0x3d0f06a3	0.03491844
235	0xbd46f201	-0.048570637
236	0xbb8fb533	-0.0043856143
237	0x3e04da6d	0.12973948
238	0xbe3293b6	-0.1743916
239	0x3c42bc3d	0.0118857
240	0x3d7ec1a2	0.06219638
241	0x3d3fbc11	0.046810213
242	0xbe487b7c	-0.19578356
243	0x3c64e6c1	0.013971032
244	0xbc2ed3b1	-0.010670588
245	0xbdb4f39d	-0.08835528
246	0x3addc423	0.0016919415
247	0x3d7b988e	0.061424784
248	0x3e2ead70	0.17058349
249	0xbcf880f7	-0.030334933
250	0x3ce4ba73	0.027920937
251	0xbdc7b2b6	-0.09750883
252	0x3c60bcff	0.013716935
253	0x3d475c75	0.04867216
254	0xbd2b63a3	-0.041843068
255	0xbd9f6af2	-0.0778407

network_body.linear_encoder.seq_layers.2.bias f4 [128]
0	0x00000000	0.0
1	0x00000000	0.0
2	0x00000000	0.0
3	0x00000000	0.0
4	0x00000000	0.0
5	0x00000000	0.0
6	0x00000000	0.0
7	0x00000000	0.0
8	0x00000000	0.0
9	0x00000000	0.0
10	0x00000000	0.0
11	0x00000000	0.0
12	0x00000000	0.0
13	0x00000000	0.0
14	0x00000000	0.0
15	0x00000000	0.0
16	0x00000000	0.0
17	0x00000000	0.0
18	0x00000000	0.0
19	0x00000000	0.0
20	0x00000000	0.0
21	0x00000000	0.0
22	0x00000000	0.0
23	0x00000000	0.0
24	0x00000000	0.0
25	0x00000000	0.0
26	0x00000000	0.0
27	0x00000000	0.0
28	0x00000000	0.0
29	0x00000000	0.0
30	0x00000000	0.0
31	0x00000000	0.0
32	0x00000000	0.0
33	0x00000000	0.0
34	0x00000000	0.0
35	0x00000000	0.0
36	0x00000000	0.0
37	0x00000000	0.0
38	0x00000000	0.0
39	0x00000000	0.0
40	0x00000000	0.0
41	0x00000000	0.0
42	0x00000000	0.0
43	0x00000000	0.0
44	0x00000000	0.0
45	0x00000000	0.0
46	0x00000000	0.0
47	0x00000000	0.0
48	0x00000000	0.0
49	0x00000000	0.0
50	0x00000000	0.0
51	0x00000000	0.0
52	0x00000000	0.0
53	0x00000000	0.0
54	0x00000000	0.0
55	0x00000000	0.0
56	0x00000000	0.0
57	0x00000000	0.0
58	0x00000000	0.0
59	0x00000000	0.0
60	0x00000000	0.0
61	0x00000000	0.0
62	0x00000000	0.0
63	0x00000000	0.0
64	0x00000000	0.0
65	0x00000000	0.0
66	0x00000000	0.0
67	0x00000000	0.0
68	0x00000000	0.0
69	0x00000000	0.0
70	0x00000000	0.0
71	0x00000000	0.0
72	0x00000000	0.0
73	0x00000000	0.0
74	0x00000000	0.0
75	0x00000000	0.0
76	0x00000000	0.0
77	0x00000000	0.0
78	0x00000000	0.0
79	0x00000000	0.0
80	0x00000000	0.0
81	0x00000000	0.0
82	0x00000000	0.0
83	0x00000000	0.0
84	0x00000000	0.0
85	0x00000000	0.0
86	0x00000000	0.0
87	0x00000000	0.0
88	0x00000000	0.0
89	0x00000000	0.0
90	0x00000000	0.0
91	0x00000000	0.0
92	0x00000000	0.0
93	0x00000000	0.0
94	0x00000000	0.0
95	0x00000000	0.0
96	0x00000000	0.0
97	0x00000000	0.0
98	0x00000000	0.0
99	0x00000000	0.0
100	0x00000000	0.0
101	0x00000000	0.0
102	0x00000000	0.0
103	0x00000000	0.0
104	0x00000000	0.0
105	0x00000000	0.0
106	0x00000000	0.0
107	0x00000000	0.0
108	0x00000000	0.0
109	0x00000000	0.0
110	0x00000000	0.0
111	0x00000000	0.0
112	0x00000000	0.0
113	0x00000000	0.0
114	0x00000000	0.0
115	0x00000000	0.0
116	0x00000000	0.0
117	0x00000000	0.0
118	0x00000000	0.0
119	0x00000000	0.0
120	0x00000000	0.0
121	0x00000000	0.0
122	0x00000000	0.0
123	0x00000000	0.0
124	0x00000000	0.0
125	0x00000000	0.0
126	0x00000000	0.0
127	0x00000000	0.0

value_heads.value_heads.extrinsic.weight f4 [1, 128]
0	0x3e4251ca	0.18976513
1	0x3d89fa88	0.06737238
2	0xbe1b8028	-0.15185606
3	0x3e113da0	0.14183664
4	0x3e3ee6f4	0.18642789
5	0xbdc7ce20	-0.09756112
6	0x3de1e5e4	0.11030176
7	0x3dc74f30	0.09731901
8	0xbc6fbe20	-0.014632732
9	0xbde4df27	-0.111753754
10	0x3da56b38	0.08077091
11	0xbe012d5c	-0.1261496
12	0x3dc040dc	0.09387371
13	0x3e2a929a	0.16657487
14	0x3e2a3232	0.1662071
15	0xbd8df80e	-0.06932078
16	0x3e046270	0.12928176
17	0x3e49dc58	0.1971296
18	0xbdb4f376	-0.08835499
19	0x3dfaefd8	0.12252778
20	0x3cd8e318	0.026475474
21	0xbe2a5f07	-0.16637813
22	0x3d8eafd4	0.0696713
23	0xbd33a3c4	-0.04385735
24	0x3c883708	0.016627803
25	0x3bb089c0	0.005387515
26	0x3dc90a5c	0.09816429
27	0xbddda224	-0.108219415
28	0xbd686014	-0.056732252
29	0x3e412c72	0.18864611
30	0xbe215308	-0.1575433
31	0x3e40b7ea	0.18820158
32	0xbcc00fe0	-0.02344507
33	0x3ca29ac0	0.019849181
34	0xbe375240	-0.1790247
35	0x3e2911e0	0.16510725
36	0x3e19b352	0.15009812
37	0x3cfa05f8	0.030520424
38	0x3e1ae74e	0.15127298
39	0x3d8fb1bc	0.07016322
40	0x3e0744a6	0.13209781
41	0x3ddb27e4	0.10700968
42	0x3c1ea070	0.009681806
43	0x3e4c4da2	0.1995149
44	0x3d16f290	0.03685242
45	0x3dbe53bc	0.09293315
46	0xbe4b9821	-0.19882251
47	0xbce408d8	-0.027836248
48	0x3da6d24c	0.0814558
49	0xbe3e3af6	-0.1857718
50	0x3e3e91c8	0.18610299
51	0xbe1e0834	-0.15432817
52	0x3e4f60c8	0.20251763
53	0x3e1aa9ba	0.15103808
54	0x3d5c2540	0.053746462
55	0xbc31dbf0	-0.01085566
56	0x3c932f28	0.017966822
57	0xbd739148	-0.059464723
58	0xbd923946	-0.0713983
59	0x3dc984e4	0.098398
60	0xbdc91539	-0.09818501
61	0xbe3caed4	-0.18426067
62	0x3d476318	0.048678488
63	0xbe1bd56a	-0.1521813
64	0xbe2d89df	-0.16947125
65	0x3e33fa94	0.17576057
66	0xbdb184ae	-0.08667885
67	0x3d0d7610	0.03453642
68	0x3e18f8fc	0.1493873
69	0xb9d09400	-0.0003978312
70	0xbd0610ac	-0.032730743
71	0xbdd73b57	-0.10509365
72	0x3d9138e4	0.07090929
73	0x3db2192c	0.086962074
74	0x3e526fe6	0.20550498
75	0xbe366ac8	-0.17814171
76	0x3e4c5530	0.19954371
77	0x3de0eda8	0.10982829
78	0xbd2f3244	-0.042772546
79	0xba5a7300	-0.00083331764
80	0x3e1bcfd0	0.15215993
81	0xbdde84ac	-0.10865149
82	0x3e496de8	0.19670832
83	0xbe002534	-0.12514192
84	0xbde117f9	-0.109909005
85	0x3cbea6b8	0.023272857
86	0x3e45fd70	0.1933496
87	0xbe45b479	-0.19307126
88	0x3e2d9c20	0.16954088
89	0x3d6a2138	0.057160586
90	0x3d59f348	0.053210527
91	0xbd9e73b0	-0.077369094
92	0xbcb29b18	-0.02180247
93	0x3d1bcb20	0.038035512
94	0xbdc3d09d	-0.09561274
95	0x3e276d4a	0.16350284
96	0xbdf6dec8	-0.12054211
97	0xbe55d923	-0.20883612
98	0x3c89e8b8	0.016834602
99	0x3e2d487e	0.16922185
100	0x3e118280	0.14209938
101	0xbd98c94e	-0.07460271
102	0x3e2df7a6	0.16989002
103	0xbe1960e6	-0.1497837
104	0x3dffc38c	0.124884695
105	0x3e5b42d4	0.21412212
106	0xbe08327a	-0.13300505
107	0x3ce86660	0.028369129
108	0xbdaec7d6	-0.085342094
109	0x3e0abe6a	0.135492
110	0xbde003e5	-0.10938243
111	0xbbdc1560	-0.0067164153
112	0x3d01126c	0.03151171
113	0x3ba46140	0.005016476
114	0x3d14a9a8	0.03629461
115	0xbe19d2be	-0.15021798
116	0xbd7f2f54	-0.062300995
117	0x3d2a98d8	0.04164967
118	0xbd3004d8	-0.04297337
119	0xbe04af68	-0.12957537
120	0x3d84185c	0.06449959
121	0x3d558e90	0.05213791
122	0x3daf3c18	0.08556384
123	0x3d373088	0.044724017
124	0x3c9284f8	0.01788567
125	0x3e00a784	0.12563902
126	0xbd88fd0a	-0.06688888
127	0x3e3ddccc	0.18541259
