UnityMLTutorial_complete/results/ppo/MoveToGoal/MoveToGoal-6080.pt (torch, 145479 bytes, 11 tensors)

network_body.linear_encoder.seq_layers.0.weight f4 [128, 1]
000000 9d 78 16 bf 4c f0 30 bd 70 70 f4 be f4 b6 05 40
       -0.5877779 -0.043197915 -0.47742033 2.0892916
000010 d0 15 b5 3f 56 7d bc bf 48 40 0f 3f 1a 43 19 be
       1.4147282 -1.472575 0.5595746 -0.14967003
000020 f8 a1 45 3e 20 32 9b bf 26 61 d7 bf 1d 08 af bf
       0.19300067 -1.2124672 -1.6826522 -1.3674351
000030 03 04 de bf d9 cb eb 3c 10 e2 87 3c 16 79 37 bf
       -1.7344974 0.028783726 0.016587287 -0.7166914
000040 18 3f b8 be de 76 26 3f 25 12 16 bf 24 b3 77 bf
       -0.35985637 0.65025127 -0.58621436 -0.9675772
000050 2b cd 7e 3f fe a2 a9 bf 5d 17 aa bd a9 03 34 3f
       0.9953181 -1.3252866 -0.083052374 0.70318085
000060 26 62 35 be a5 fb e7 bc de 8c 40 be b5 bd 49 3f
       -0.17713222 -0.028318236 -0.18803737 0.78805095
000070 32 e4 f7 bd 01 60 21 40 95 cf 9c 3f 25 c4 12 3f
       -0.12104072 2.5214846 1.2250849 0.5733054
000080 97 9a 06 bf 05 72 eb 3f 34 0a 1f 3f 93 82 f2 bf
       -0.52579635 1.8394171 0.62124944 -1.8946098
000090 61 ff 97 be 1c 8e ae bf a9 5f bf 3f 82 90 38 3f
       -0.29687026 -1.3637118 1.4951068 0.720955
0000a0 8f 7f ac bf 8e 36 aa 3e 08 97 33 3f 21 e6 99 3f
       -1.3476428 0.33244747 0.7015233 1.2023355
0000b0 9f 18 b4 be fb 04 66 3f 06 72 92 be 29 ea f7 3f
       -0.35175034 0.8985135 -0.28602618 1.9368335
0000c0 e4 8b 83 bf 87 8c 7a bf 50 c3 f7 3d 6e f9 9e 3f
       -1.0277066 -0.9787068 0.120978 1.241987
0000d0 95 64 5e bf a9 3d 12 40 cc 03 d9 3e e0 ef 02 3f
       -0.86872226 2.2850134 0.4238571 0.5114727
0000e0 72 e9 a0 3f 9b 75 6b bf d9 8b b1 3f 75 23 43 3f
       1.2571242 -0.91976327 1.3870803 0.7622598
0000f0 4c e6 ec 3e f5 bf 9c bf 25 8c fc be e2 65 f6 3f
       0.46269453 -1.2246081 -0.49325672 1.9249842
000100 5f 96 8a be c4 25 16 be e1 9a de 3f 79 4b 79 3e
       -0.2706785 -0.14662844 1.7391015 0.24345197
000110 50 46 8f 3f df 55 b4 bd 88 86 a7 bf 94 5e ec bf
       1.1193333 -0.08805441 -1.3087931 -1.8466363
000120 4e 39 5b 3e bb 6c 51 3d 4c 8c 25 3f 90 c4 b8 3f
       0.21408579 0.051129084 0.646672 1.4434986
000130 bd e7 ba be 90 17 e3 be 9b 01 33 bf b8 c6 0e be
       -0.36504927 -0.44353914 -0.69924325 -0.13942993
000140 e2 2b d1 bf 9a 4c 38 3f 41 4a 58 3f 55 12 b0 3f
       -1.6341517 0.71991885 0.844883 1.3755594
000150 0f 56 79 bf 0e a0 6d bf 90 99 3a bf 5f fa c6 bf
       -0.9739694 -0.9282235 -0.7289057 -1.5545157
000160 4f 5b 07 c0 9b 8c 11 40 07 fe 5c 3d 6e fc 52 3f
       -2.114948 2.2742069 0.053953197 0.8241643
000170 3e 83 08 40 f8 45 7b bf 08 5d 6a 3e 98 0e 87 bf
       2.1330104 -0.9815364 0.22887051 -1.0551329
000180 63 37 40 3d 84 ee 2b 3f 32 53 d6 be 5a c1 a9 be
       0.04692782 0.6716082 -0.41860348 -0.33155328
000190 a5 0f 0c bb 8a 93 f6 3e 0a 26 e1 bc 5b d5 ac bf
       -0.002137163 0.48159438 -0.027483959 -1.3502611
0001a0 3d c0 26 be 81 28 8f be 9c b8 72 bf fc a3 28 bf
       -0.1628427 -0.2796059 -0.9481294 -0.6587522
0001b0 5e f0 1e bf d5 45 9d be a3 68 95 bf 26 2c ce 3c
       -0.6208552 -0.3071734 -1.1672558 0.025167536
0001c0 1a 3d 07 40 aa ee eb 3d 18 70 3b 40 84 70 78 bf
       2.1131043 0.11520131 2.9287167 -0.97046685
0001d0 7f 9d 1f 3f 83 2d f4 3f 8f 34 7a 3f 05 ae f4 bf
       0.62349695 1.9076389 0.9773645 -1.9115607
0001e0 b6 c1 11 c0 e9 f5 30 bf bf d0 98 bf f8 41 b5 3f
       -2.2774482 -0.6912523 -1.1938704 1.4160757
0001f0 18 98 5a 3f 51 42 ef 3f 56 aa 93 be 62 e7 87 3f
       0.85388327 1.8692113 -0.28840894 1.0617487

network_body.linear_encoder.seq_layers.0.bias f4 [128]
000000 00 00 00 00 00 00 00 00 00 00 00 00 00 00 00 00
       0.0 0.0 0.0 0.0
000010 00 00 00 00 00 00 00 00 00 00 00 00 00 00 00 00
       0.0 0.0 0.0 0.0
000020 00 00 00 00 00 00 00 00 00 00 00 00 00 00 00 00
       0.0 0.0 0.0 0.0
000030 00 00 00 00 00 00 00 00 00 00 00 00 00 00 00 00
       0.0 0.0 0.0 0.0
000040 00 00 00 00 00 00 00 00 00 00 00 00 00 00 00 00
       0.0 0.0 0.0 0.0
000050 00 00 00 00 00 00 00 00 00 00 00 00 00 00 00 00
       0.0 0.0 0.0 0.0
000060 00 00 00 00 00 00 00 00 00 00 00 00 00 00 00 00
       0.0 0.0 0.0 0.0
000070 00 00 00 00 00 00 00 00 00 00 00 00 00 00 00 00
       0.0 0.0 0.0 0.0
000080 00 00 00 00 00 00 00 00 00 00 00 00 00 00 00 00
       0.0 0.0 0.0 0.0
000090 00 00 00 00 00 00 00 00 00 00 00 00 00 00 00 00
       0.0 0.0 0.0 0.0
0000a0 00 00 00 00 00 00 00 00 00 00 00 00 00 00 00 00
       0.0 0.0 0.0 0.0
0000b0 00 00 00 00 00 00 00 00 00 00 00 00 00 00 00 00
       0.0 0.0 0.0 0.0
0000c0 00 00 00 00 00 00 00 00 00 00 00 00 00 00 00 00
       0.0 0.0 0.0 0.0
0000d0 00 00 00 00 00 00 00 00 00 00 00 00 00 00 00 00
       0.0 0.0 0.0 0.0
0000e0 00 00 00 00 00 00 00 00 00 00 00 00 00 00 00 00
       0.0 0.0 0.0 0.0
0000f0 00 00 00 00 00 00 00 00 00 00 00 00 00 00 00 00
       0.0 0.0 0.0 0.0
000100 00 00 00 00 00 00 00 00 00 00 00 00 00 00 00 00
       0.0 0.0 0.0 0.0
000110 00 00 00 00 00 00 00 00 00 00 00 00 00 00 00 00
       0.0 0.0 0.0 0.0
000120 00 00 00 00 00 00 00 00 00 00 00 00 00 00 00 00
       0.0 0.0 0.0 0.0
000130 00 00 00 00 00 00 00 00 00 00 00 00 00 00 00 00
       0.0 0.0 0.0 0.0
000140 00 00 00 00 00 00 00 00 00 00 00 00 00 00 00 00
       0.0 0.0 0.0 0.0
000150 00 00 00 00 00 00 00 00 00 00 00 00 00 00 00 00
       0.0 0.0 0.0 0.0
000160 00 00 00 00 00 00 00 00 00 00 00 00 00 00 00 00
       0.0 0.0 0.0 0.0
000170 00 00 00 00 00 00 00 00 00 00 00 00 00 00 00 00
       0.0 0.0 0.0 0.0
000180 00 00 00 00 00 00 00 00 00 00 00 00 00 00 00 00
       0.0 0.0 0.0 0.0
000190 00 00 00 00 00 00 00 00 00 00 00 00 00 00 00 00
       0.0 0.0 0.0 0.0
0001a0 00 00 00 00 00 00 00 00 00 00 00 00 00 00 00 00
       0.0 0.0 0.0 0.0
0001b0 00 00 00 00 00 00 00 00 00 00 00 00 00 00 00 00
       0.0 0.0 0.0 0.0
0001c0 00 00 00 00 00 00 00 00 00 00 00 00 00 00 00 00
       0.0 0.0 0.0 0.0
0001d0 00 00 00 00 00 00 00 00 00 00 00 00 00 00 00 00
       0.0 0.0 0.0 0.0
0001e0 00 00 00 00 00 00 00 00 00 00 00 00 00 00 00 00
       0.0 0.0 0.0 0.0
0001f0 00 00 00 00 00 00 00 00 00 00 00 00 00 00 00 00
       0.0 0.0 0.0 0.0

network_body.linear_encoder.seq_layers.2.weight f4 [128, 128]
000000 09 20 0b 3d a6 55 97 bd 89 7e 1a bd 90 7e 3e be
       0.033966098 -0.07389383 -0.03771833 -0.18602967
000010 86 f9 a1 3d 0a 23 5c bc f3 cf 57 3c c1 48 25 3c
       0.07908921 -0.013436088 0.013172138 0.010088147
000020 e3 94 99 bd ad 71 31 3d dd 41 02 3e fe 1a e7 bd
       -0.07499101 0.0433213 0.12720437 -0.11284445
000030 b8 f5 2f bc 11 1f 66 3d bc aa cb bc 5d 8a 32 be
       -0.010739736 0.05618197 -0.024861686 -0.17435594
000040 11 cf 38 3e 3c ec 9e bd 22 e7 b3 bd 74 4a 8c bd
       0.1804774 -0.07759902 -0.087843195 -0.06850138
000050 1c b5 33 3e 4d 0b 03 be 95 88 35 3d 3c 40 8e bb
       0.17549556 -0.1279728 0.044319708 -0.0043411534
000060 3c 1b 47 3b 7b 54 02 be 14 1e 19 3c e3 79 2c 3e
       0.0030381223 -0.12727539 0.00934555 0.16843371
000070 4b 45 e5 bd fc 78 78 bc 39 9f 41 bb dc 41 7e bd
       -0.11194857 -0.015165564 -0.0029544367 -0.062074527
000080 49 e3 0d 3e c0 c9 e9 3b 8c 22 ab bd 87 85 02 be
       0.13856234 0.007134646 -0.08356199 -0.12746249
000090 b1 39 08 be d3 e9 35 bc e2 49 18 3b da 91 ba bd
       -0.13303258 -0.011103111 0.0023237397 -0.0910985
0000a0 8a 18 8f 3d 61 76 48 3e e1 72 57 bd c6 f2 56 3d
       0.06987102 0.19576408 -0.05259979 0.05247762
0000b0 72 0c ee 3c 7a cd 88 bd 42 54 8c bd ed ce 94 bd
       0.029058669 -0.066798165 -0.068520084 -0.072660305
0000c0 6f 9a c2 bb 53 af 02 bd 01 98 d2 bd 81 f8 df 3d
       -0.00593882 -0.031905483 -0.10282899 0.1093607
0000d0 2e cc 9b 3c 47 82 6e 3e bc 8d b5 3d a6 a3 0e be
       0.019018259 0.23291884 0.08864924 -0.13929614
0000e0 5d 2e 8e 3c 5e 38 d8 3d 4e 4e ef bd 5f b0 6f be
       0.017356092 0.10557626 -0.11684857 -0.23407124
0000f0 f5 37 27 3c b6 e1 01 bc 5b 42 c0 bd 30 60 6b 3d
       0.010206212 -0.007927349 -0.09387656 0.05746478
000100 09 80 02 bd 03 dc 13 be cf 7b 7d bd ef 46 41 3e
       -0.031860385 -0.14439397 -0.06188565 0.18874715
000110 1a 18 9b bd 22 8f ac 3d 7e fb c6 3c 4a aa 2c bd
       -0.075729564 0.08425738 0.024289843 -0.042154588
000120 23 d1 cb 3d 12 85 e8 3d 49 48 b2 3c 19 3a 7e bd
       0.09951999 0.11353506 0.021762984 -0.062067125
000130 09 ad c9 bc 0a 1f 0b 3e e1 52 0b 3d 9b 6d 72 3c
       -0.024618642 0.13586059 0.034014586 0.01479664
000140 2b 33 b1 3b ef b9 de 3d 7b 89 3d 3e 74 8c fd 3d
       0.005407711 0.10875308 0.18509476 0.12380305
000150 0c 57 d1 3d 95 95 f5 3c e2 f8 3d 3d 65 e8 f2 bd
       0.10221681 0.029978553 0.04637993 -0.11860732
000160 3c 97 d8 3d 3f 42 c7 bb a1 4f 6a 3e 51 1a ca 3d
       0.10575721 -0.006080895 0.22881939 0.09868301
000170 10 13 99 be be e3 72 3c d0 ad fa 3c 80 0d 6f bd
       -0.29897356 0.014824806 0.030600458 -0.058362484
000180 74 c5 0d 3e 2d 79 f9 bd c4 3d 2f 3d 37 27 56 bc
       0.13844854 -0.121813156 0.042783514 -0.013070873
000190 05 0c c6 3d fb a8 90 bd f5 4c 00 3e 19 ad 95 3d
       0.09670261 -0.070634805 0.12529357 0.073084064
0001a0 c3 54 29 3d 85 bf 0d 3e 6b dd 8e 3d 19 56 06 3d
       0.0413406 0.1384259 0.06975826 0.032796953
0001b0 b0 e2 99 bc 1d 12 72 3c 78 7c b2 bc cc 53 87 bc
       -0.01878485 0.014774826 -0.021787867 -0.01651945
0001c0 70 aa 96 bd af d3 99 3c 30 fa 5e 3c 93 30 1e be
       -0.07356727 0.018777696 0.013609454 -0.15448217
0001d0 0a eb a9 bd d4 22 15 3d 81 00 76 bd 8a 1e 98 3d
       -0.08296783 0.036410168 -0.060059074 0.074277
0001e0 46 38 ab 3b 7f 32 70 3d 86 3d b5 3d d6 38 10 3d
       0.005225214 0.058641907 0.08849625 0.035210453
0001f0 50 b4 4c 3d 79 8a 92 be ca 69 ba bd ae 1c c9 bc
       0.049976647 -0.2862127 -0.09102209 -0.024549808
000200 bc 2d 9b bd 28 96 0b be 40 01 74 bd 80 11 d6 3a
       -0.075770825 -0.13631499 -0.059571505 0.001633212
000210 b6 98 6f bd 41 ec 98 3c de 64 af bc d9 b7 48 bb
       -0.058495246 0.018667342 -0.021410402 -0.003062716
000220 f2 c0 a3 3d 83 1b b3 3d a7 52 e8 3c 23 a9 be bc
       0.07995786 0.08745482 0.028359724 -0.02327401
000230 0e 78 e5 3d 6c c7 88 3c 97 7c b2 bb db 6c 80 3d
       0.11204539 0.016696654 -0.005446981 0.062707625
000240 f5 6c 77 3d 14 2b d1 bd 39 43 a4 bd 88 cd 38 bd
       0.060406644 -0.102132946 -0.08020634 -0.045117885
000250 be 95 b9 3c f6 c7 5c bd 58 25 8b 3d e5 1b eb 3d
       0.02265441 -0.053901635 0.06794232 0.1147993
000260 69 0a a5 bd dd 12 5f bd 27 99 a8 bd f7 b2 06 bc
       -0.08058626 -0.05446135 -0.082323365 -0.0082213795
000270 bd 12 df 3c fb c4 23 3d 69 b8 69 be a4 f0 33 bd
       0.027230615 0.039982777 -0.22824253 -0.043930665
000280 67 ac 50 bd bd bf 97 3c cc db 86 3d c6 62 c8 bd
       -0.050945666 0.018524045 0.06584892 -0.097844645
000290 8f f3 f7 3d 9a f3 5e 3d 62 7a ec bc 9d c4 0b 3e
       0.12107002 0.054431535 -0.02886695 0.13649221
0002a0 1d f7 e9 bc a0 fd 0f 3d 95 78 fe 3d 15 d4 f8 bd
       -0.028560216 0.035153985 0.12425343 -0.121498264
0002b0 fa d5 50 bd 68 a8 b5 bd c5 a0 32 bd df 93 22 3e
       -0.050985314 -0.088700116 -0.043610353 0.15876721
0002c0 eb b6 a7 bd 3f 33 14 3c e3 8c b6 bc b5 0e 35 3d
       -0.08189186 0.009045421 -0.022283977 0.04420348
0002d0 2f df e9 bd 75 ba 37 be 41 28 08 bc 7e c5 60 bd
       -0.11419522 -0.17942221 -0.0083103785 -0.054875843
0002e0 ae ed 1b 3e b7 d7 91 3d 9a 5d 96 3d be 98 99 3b
       0.15227386 0.071212225 0.07342072 0.0046873977
0002f0 02 9e 57 bd 31 3f 86 bd 8f 13 25 3e 83 2c 78 bc
       -0.052640922 -0.065550216 0.16120742 -0.015147331
000300 cb 23 35 be 4d bb 09 3d 37 14 40 3c 82 67 ae bc
       -0.17689435 0.03362589 0.01172357 -0.02128959
000310 e1 f0 88 3d f6 d0 9f bd 31 d2 b8 bd 45 58 ea bc
       0.06686569 -0.07803528 -0.09024466 -0.028606543
000320 ef b0 87 bd 30 e4 e2 bd 34 44 93 bc 5a 4c 47 3d
       -0.06625544 -0.110786796 -0.017976858 0.0486568
000330 83 78 5c 3d 49 e0 44 be 3b 16 60 3d af 51 76 bd
       0.053825866 -0.19226183 0.0547087 -0.060136493
000340 fa 6f f7 3d bf c9 c8 bc 75 1d 9d 3d 2a 13 2a 3d
       0.12081905 -0.024510263 0.07671634 0.041522183
000350 05 4d 20 bc 75 96 1b 3e 1a a5 9b bd 1f 95 90 bd
       -0.009783988 0.15194114 -0.0759985 -0.070596926
000360 f7 e0 ab 3c 93 0d 69 bc c8 d7 0e bd 29 be 1f 3d
       0.020981295 -0.014224428 -0.034873754 0.03899971
000370 75 8f 7b 3d 16 d7 b4 3d 0f 52 0f be 8a 5c 44 bc
       0.06141611 0.08830087 -0.13996147 -0.011984954
000380 af f1 82 bc 64 b8 24 bc 4d 30 44 bc 79 c1 0e 3d
       -0.015984384 -0.010053728 -0.011974406 0.03485248
000390 f9 90 1a 3d f2 2a d8 bd 2a 2a 22 bd 06 c2 c8 bd
       0.037735913 -0.10555066 -0.039590992 -0.09802632
0003a0 f5 c0 3b 3d 73 bb 15 bd 0a 83 d1 3c 36 a9 3b be
       0.045838315 -0.03655572 0.02557518 -0.18326268
0003b0 6a 4e 9d bb 03 28 97 3c 35 37 d3 bc 0a 53 80 bd
       -0.0048006075 0.018451696 -0.02578316 -0.062658384
0003c0 93 de d5 bc 9f 9e 8e 3d 13 a9 8d 3d 85 6b 80 bc
       -0.026107108 0.06963848 0.06917014 -0.01567627
0003d0 8b 33 06 be b6 f9 1b 3d 21 42 fa bb 71 03 10 be
       -0.131056 0.03807994 -0.0076372777 -0.14063813
0003e0 48 df fb bd bd 04 68 bd ce d8 ae 3d 61 d9 06 3e
       -0.12298447 -0.056645144 0.08537446 0.13168861
0003f0 3c fa 68 bc 1a 62 79 3d 03 34 15 3d 43 a0 07 3d
       -0.014219817 0.060884573 0.036426555 0.03311182

network_body.linear_encoder.seq_layers.2.bias f4 [128]
000000 00 00 00 00 00 00 00 00 00 00 00 00 00 00 00 00
       0.0 0.0 0.0 0.0
000010 00 00 00 00 00 00 00 00 00 00 00 00 00 00 00 00
       0.0 0.0 0.0 0.0
000020 00 00 00 00 00 00 00 00 00 00 00 00 00 00 00 00
       0.0 0.0 0.0 0.0
000030 00 00 00 00 00 00 00 00 00 00 00 00 00 00 00 00
       0.0 0.0 0.0 0.0
000040 00 00 00 00 00 00 00 00 00 00 00 00 00 00 00 00
       0.0 0.0 0.0 0.0
000050 00 00 00 00 00 00 00 00 00 00 00 00 00 00 00 00
       0.0 0.0 0.0 0.0
000060 00 00 00 00 00 00 00 00 00 00 00 00 00 00 00 00
       0.0 0.0 0.0 0.0
000070 00 00 00 00 00 00 00 00 00 00 00 00 00 00 00 00
       0.0 0.0 0.0 0.0
000080 00 00 00 00 00 00 00 00 00 00 00 00 00 00 00 00
       0.0 0.0 0.0 0.0
000090 00 00 00 00 00 00 00 00 00 00 00 00 00 00 00 00
       0.0 0.0 0.0 0.0
0000a0 00 00 00 00 00 00 00 00 00 00 00 00 00 00 00 00
       0.0 0.0 0.0 0.0
0000b0 00 00 00 00 00 00 00 00 00 00 00 00 00 00 00 00
       0.0 0.0 0.0 0.0
0000c0 00 00 00 00 00 00 00 00 00 00 00 00 00 00 00 00
       0.0 0.0 0.0 0.0
0000d0 00 00 00 00 00 00 00 00 00 00 00 00 00 00 00 00
       0.0 0.0 0.0 0.0
0000e0 00 00 00 00 00 00 00 00 00 00 00 00 00 00 00 00
       0.0 0.0 0.0 0.0
0000f0 00 00 00 00 00 00 00 00 00 00 00 00 00 00 00 00
       0.0 0.0 0.0 0.0
000100 00 00 00 00 00 00 00 00 00 00 00 00 00 00 00 00
       0.0 0.0 0.0 0.0
000110 00 00 00 00 00 00 00 00 00 00 00 00 00 00 00 00
       0.0 0.0 0.0 0.0
000120 00 00 00 00 00 00 00 00 00 00 00 00 00 00 00 00
       0.0 0.0 0.0 0.0
000130 00 00 00 00 00 00 00 00 00 00 00 00 00 00 00 00
       0.0 0.0 0.0 0.0
000140 00 00 00 00 00 00 00 00 00 00 00 00 00 00 00 00
       0.0 0.0 0.0 0.0
000150 00 00 00 00 00 00 00 00 00 00 00 00 00 00 00 00
       0.0 0.0 0.0 0.0
000160 00 00 00 00 00 00 00 00 00 00 00 00 00 00 00 00
       0.0 0.0 0.0 0.0
000170 00 00 00 00 00 00 00 00 00 00 00 00 00 00 00 00
       0.0 0.0 0.0 0.0
000180 00 00 00 00 00 00 00 00 00 00 00 00 00 00 00 00
       0.0 0.0 0.0 0.0
000190 00 00 00 00 00 00 00 00 00 00 00 00 00 00 00 00
       0.0 0.0 0.0 0.0
0001a0 00 00 00 00 00 00 00 00 00 00 00 00 00 00 00 00
       0.0 0.0 0.0 0.0
0001b0 00 00 00 00 00 00 00 00 00 00 00 00 00 00 00 00
       0.0 0.0 0.0 0.0
0001c0 00 00 00 00 00 00 00 00 00 00 00 00 00 00 00 00
       0.0 0.0 0.0 0.0
0001d0 00 00 00 00 00 00 00 00 00 00 00 00 00 00 00 00
       0.0 0.0 0.0 0.0
0001e0 00 00 00 00 00 00 00 00 00 00 00 00 00 00 00 00
       0.0 0.0 0.0 0.0
0001f0 00 00 00 00 00 00 00 00 00 00 00 00 00 00 00 00
       0.0 0.0 0.0 0.0

action_model._discrete_distribution.branches.0.weight f4 [5, 128]
000000 6a 03 b0 3b e6 d5 ae bb c3 4f 0c bc 03 f2 91 bc
       0.0053715007 -0.0053355573 -0.008563939 -0.017815595
000010 ed d2 ed 3a 37 35 8f bc 18 2a ee 3b 4e 35 19 bc
       0.0018144526 -0.01748143 0.0072682016 -0.009351088
000020 90 f2 ce 3b 20 a6 fe bb ca ff b0 3b 1f 00 b3 ba
       0.006315537 -0.0077712685 0.005401586 -0.0013656652
000030 9c 22 24 3c 17 81 04 bc 93 e9 c4 bc 7c c3 40 bc
       0.010018017 -0.008087418 -0.024037158 -0.011765357
000040 ad de 59 bc b2 8d b8 3b 5b 2e 94 3b d8 dc 9a 3a
       -0.013297719 0.005632126 0.0045221276 0.0011815084
000050 34 c0 1b 3b ab 82 d6 3b 44 65 31 3c 28 b2 61 bc
       0.0023765685 0.0065463386 0.010827366 -0.013775386
000060 4b 9a 26 bc 62 4a dd ba 4b 7d 1a bc ef 4a fc 3a
       -0.010168622 -0.001688313 -0.009429286 0.0019248406
000070 e0 75 53 3b 53 ee b9 ba f8 f3 d8 bb ad 19 a6 ba
       0.0032266304 -0.0014185406 -0.00662088 -0.0012672447
000080 68 22 b4 3c ba fe 20 3c cf 0f 83 bb 5a 5b 40 3a
       0.021989062 0.009826357 -0.0039996873 0.0007337831
000090 33 15 3b bc 40 36 6f 39 e3 a1 06 bc 20 3a ff 3b
       -0.0114186285 0.00022813026 -0.008217308 0.0077889115
0000a0 fe f7 39 3c 4f 6b d0 3b 4b 04 68 39 03 b9 ea bb
       0.01135063 0.0063604484 0.00022126843 -0.0071631684
0000b0 2a 36 a0 bc 4f 18 54 3c 3d dd 23 3c 1f 9d e2 3c
       -0.019557077 0.012945249 0.010001478 0.027662812
0000c0 a3 2c f4 3b 3b f5 04 3b 40 02 61 3c ae b2 ad ba
       0.00745161 0.002028777 0.013733447 -0.0013252103
0000d0 c3 16 4b bc a0 d5 b7 bb ba dd 91 bc 93 cf 9f bb
       -0.012395564 -0.005610183 -0.017805923 -0.0048770397
0000e0 80 18 c7 bb 99 60 93 3b d7 9a d5 ba 54 a9 8c bb
       -0.0060759187 0.0044975993 -0.0016296756 -0.0042926464
0000f0 03 8d 93 3b a3 ec 94 3a 08 b3 19 bc a5 18 5b ba
       0.004502894 0.0011362027 -0.009381063 -0.00083578593
000100 31 d5 81 3b 88 cf c6 bb 4f 8b 82 3c a0 88 f8 3b
       0.003962182 -0.00606722 0.015935568 0.0075846463
000110 03 07 cc 3b a2 98 e5 b9 5a 4c 74 39 f4 88 1e 3c
       0.006226422 -0.00043792004 0.00023298096 0.009676207
000120 6f ff 9b bb a3 c0 6a 3b 3a 34 8a bb 55 35 bb bb
       -0.0047606747 0.0035820387 -0.0042176517 -0.005713145
000130 0e 20 05 3c 1d 45 04 3b 7b e3 ff bb d8 57 07 bc
       0.008125318 0.0020182796 -0.0078091 -0.00826069
000140 30 1a 67 b9 73 36 9b bb 99 f2 a9 ba 4c 95 08 3b
       -0.00022039632 -0.0047367155 -0.0012965976 0.002084094
000150 1b d8 05 3c e7 c8 e4 bb 4e 5f 06 bc cb 47 1e ba
       0.008169199 -0.0069819572 -0.008201433 -0.00060379197
000160 9b fe ec 3a 1f 27 51 bb be b8 0d bb eb 97 49 3c
       0.001808125 -0.0031914187 -0.0021625008 0.0123042865
000170 54 80 2f bc 9b a5 26 3c 9f 59 e4 bb 18 d9 3a ba
       -0.010711748 0.010171319 -0.0069686915 -0.00071276864
000180 3b 65 85 bb 40 72 67 bc 0b f7 47 bc 97 a8 4a bc
       -0.0040709055 -0.01412636 -0.012204896 -0.0123692965
000190 a8 ab f0 bb fa 28 88 3b a7 48 84 3b 23 ff 3e 38
       -0.007344682 0.0041552754 0.004036981 4.5537145e-05
0001a0 d5 a6 74 bb 6f 33 75 bc 2d e2 10 bb 4c 5a 16 bb
       -0.0037330885 -0.014965876 -0.0022107468 -0.0022942005
0001b0 c3 a3 33 bc 93 df 9d 3c 47 d2 e3 b9 d5 26 8d 3c
       -0.010964337 0.019271648 -0.00043453483 0.01723043
0001c0 5b 81 41 3c 77 15 cf 3b cb 27 d0 bb 8c 05 aa 3b
       0.011810626 0.0063196975 -0.0063524 0.0051886495
0001d0 e4 36 af 3c 27 aa 3d bb 8d 3c d3 3a 32 a4 41 bc
       0.021388479 -0.002894053 0.0016116068 -0.011818932
0001e0 8f b4 27 3c e3 9d 34 3c a6 a7 0c 3b ed 71 60 3b
       0.01023592 0.011023971 0.002146223 0.0034247593
0001f0 65 6e 81 bb 7c 8e 96 bc 32 e6 9b bc 73 aa ff ba
       -0.0039499276 -0.018378489 -0.019030664 -0.0019505754
000200 f2 2e 81 bb e2 5c 64 3c a7 65 2e 3b b5 fe ef 3b
       -0.003942364 0.013938161 0.0026610882 0.0073240646
000210 b0 e6 57 3a fa db d8 3b c1 26 c6 3b 4a a4 5d 3a
       0.0008235974 0.00661802 0.0060471003 0.0008454962
000220 3f 49 15 3b 27 93 02 bb d2 43 0b bc 02 2f 2e bc
       0.0022779254 -0.0019924135 -0.008500056 -0.010631325
000230 22 d9 23 3c c7 81 20 bb dd 1e eb bb 95 d5 ec 3b
       0.010000499 -0.0024491416 -0.00717531 0.0072276094
000240 7f 34 d1 3c cb f5 cc bb df c6 a1 3b a9 5f c9 bb
       0.025537727 -0.0062548867 0.0049370374 -0.006145437
000250 27 71 e2 3b 0d d6 c9 bb b3 ed 23 bc f5 16 63 bc
       0.0069104615 -0.00615955 -0.010005402 -0.013860454
000260 ea a8 18 bc 0c 20 03 bc 82 63 55 3b 06 a8 af bb
       -0.009317616 -0.008003246 0.0032560532 -0.005360606
000270 37 cf 11 bc 47 fa 67 bc af 40 35 bc e3 28 4e bb
       -0.0088995015 -0.014158792 -0.011062785 -0.0031457476
000280 49 c2 8c bc 48 1e 5c 3c fe d3 4b 3c c4 93 cb ba
       -0.017182486 0.013434954 0.01244068 -0.0015531708
000290 9d 36 97 bb a1 9a 1f bc fc e7 1a bb ea b8 51 bb
       -0.0046146647 -0.009741456 -0.0023636809 -0.0032001087
0002a0 53 2e 50 b9 28 f4 18 3c 87 8c f7 3a 1a 77 d4 bb
       -0.00019853683 0.009335555 0.0018886485 -0.0064839246
0002b0 30 b5 7c bc a7 74 c5 3b 72 5e 83 3c 3b a1 85 3b
       -0.015424058 0.006025869 0.016036246 0.004078058
0002c0 f0 65 72 bb c5 a0 f4 bb 8b 74 17 3c a3 ac 79 bb
       -0.003698703 -0.0074654543 0.009244095 -0.0038097284
0002d0 e3 5b 8d 3c c5 a0 a9 bb 13 5d b2 3b 0e f7 46 3c
       0.017255729 -0.005176636 0.005443224 0.012143863
0002e0 e7 8d 6b 3b c3 5e 5f 3b d7 1c 8d 3c da 52 07 3c
       0.0035942735 0.0034083582 0.017225666 0.008259499
0002f0 37 b5 5b 3b 83 c9 af bc 6b 3b bd bb 84 1c 4c bc
       0.003352476 -0.021458393 -0.0057749054 -0.0124579705
000300 a9 40 3c bc 9c 92 09 bc d0 d9 50 bb d3 1f 5d 3c
       -0.011490026 -0.008396771 -0.0031868108 0.013496357
000310 33 93 53 bb 5f e9 e3 bb 9c 6c c1 3b b5 5d f9 3b
       -0.0032283782 -0.0069553102 0.00590284 0.0076100477
000320 6a 7d 76 3b e5 d5 f5 3b d2 a8 4f ba aa a4 90 ba
       0.0037611374 0.007502305 -0.00079215795 -0.0011035402
000330 97 74 af b8 f3 f9 37 3b dc 25 92 bb 4c 68 3a bc
       -8.366367e-05 0.0028072565 -0.0044600796 -0.011377405
000340 7b e1 ba 3b ef 0c 46 ba c7 7c 9d ba 71 37 0a bc
       0.005703149 -0.0007555028 -0.0012015336 -0.00843607
000350 5b 2a 14 3c 66 98 bd bb 6b fd 8d bc 84 7f 88 bb
       0.009043301 -0.0057859896 -0.017332753 -0.0041655917
000360 0a e6 ee bb 63 1a 82 3c 03 22 ac ba 07 00 76 3c
       -0.0072906064 0.015881723 -0.0013132695 0.015014655
000370 99 c0 36 bc eb 4c e6 3b 28 53 70 3c 62 b6 52 3c
       -0.011154317 0.0070282123 0.0146682635 0.012860866
000380 0d 47 2f bb a5 4b 6b bb ce 27 0c 3c 70 d5 14 bb
       -0.002674523 -0.0035903242 0.008554412 -0.0022710226
000390 80 49 b5 bb 2f 71 0b bc 17 a0 ca 3a 1d 2e 70 bc
       -0.0055324435 -0.008510872 0.0015459087 -0.014659432
0003a0 af ce 9c 3b 7d 20 07 3c 71 26 9e bb 90 bd b4 bb
       0.004785381 0.008247492 -0.00482636 -0.0055157617
0003b0 33 23 87 3c 4f 9c 82 bc 2f 53 4b 3c 36 47 c6 3b
       0.016496276 -0.015943674 0.012409969 0.0060509695
0003c0 7d be 7f 3a 5b 75 34 bb 45 f5 d3 bc e8 e6 5c 3b
       0.0009755863 -0.002753577 -0.02587379 0.0033706967
0003d0 29 40 80 bc bd 90 88 3b f9 39 48 3a 62 c8 0d 3b
       -0.015655594 0.004167645 0.0007638033 0.002163433
0003e0 10 ef ee 3a 85 5f cd bb 8f a5 44 bb 91 7b 3a bc
       0.0018229205 -0.0062674903 -0.0030005907 -0.011382
0003f0 b4 9a b3 3b 18 a6 97 bb 2e 6e 0e bc 07 c4 33 bc
       0.0054810885 -0.004627954 -0.008693261 -0.0109720295

action_model._discrete_distribution.branches.0.bias f4 [5]
000000 00 00 00 00 00 00 00 00 00 00 00 00 00 00 00 00
       0.0 0.0 0.0 0.0
000010 00 00 00 00
       0.0

network_body.linear_encoder.seq_layers.0.weight f4 [128, 1]
000000 96 5d f1 be 90 1e 4e be 7c 97 69 3e 12 d3 82 3f
       -0.47141713 -0.20128846 0.22811693 1.0220664
000010 89 9d c6 bd 9e fc 17 bc b5 43 2a 3e 46 c0 98 bf
       -0.09698016 -0.009276537 0.1662739 -1.1933677
000020 f1 c9 5d bf c3 4d e4 be 41 b9 13 c0 42 10 77 be
       -0.86636263 -0.44590577 -2.308182 -0.24127296
000030 e5 ee 8e 3f 4b 4e 9f bf 8c e4 af 3f a7 72 99 bf
       1.1166655 -1.2445768 1.3741622 -1.1988114
000040 b4 16 00 3f 87 6f c5 3e 6f 70 e6 3f fd f8 dc 3c
       0.5003464 0.3856165 1.8003062 0.026974196
000050 29 be 11 3f 4b 14 7b 3f 5a f3 12 bf 1c 39 6a 3f
       0.56930786 0.9807784 -0.57402575 0.9149339
000060 0b 76 b7 3d a2 cd 03 be 68 f1 d8 bf 4a bb d4 3f
       0.08958062 -0.12871411 -1.6948671 1.6619656
000070 91 70 8c 3f 77 dc 09 3f 44 19 bd bd ce 46 89 3f
       1.0971853 0.5385203 -0.09233335 1.0724733
000080 85 cd 7f 3f 82 01 71 3f e0 81 c6 3e 6a f7 af bf
       0.9992297 0.94142926 0.38770962 -1.374738
000090 b1 78 5b 3f 76 fb 0d 3f 27 7b c0 bf 5e 1b 5b bf
       0.85731035 0.55461824 -1.5037583 -0.85588634
0000a0 08 a0 8e bf f6 87 86 be f1 20 0b 3e ef e3 23 bf
       -1.1142588 -0.26275605 0.13586785 -0.64019674
0000b0 2e 30 af bf d6 f8 90 bd 34 5a f7 3e 56 84 92 3f
       -1.3686578 -0.07078712 0.48311007 1.1446636
0000c0 38 70 8c 3f cd 03 c1 be 93 b1 45 3e e1 8c 81 3f
       1.0971746 -0.37698212 0.1930602 1.0121118
0000d0 bc 09 9f 3e a5 4e 9b bf 5f b4 26 3e f9 e5 ca 3f
       0.31062114 -1.2133375 0.16279744 1.5851432
0000e0 83 08 69 3f 46 43 39 bf 99 5a 0c bf 06 4b dd bf
       0.9102861 -0.72368276 -0.5482574 -1.728852
0000f0 68 cd 0d 3f 40 74 b1 3e 1c 08 af 3e 5e d7 c7 3f
       0.5539155 0.34659004 0.34185874 1.56126
000100 3c 9c 8d 3f 96 dc 96 3f 39 c8 36 3d 1c 22 70 3f
       1.1063304 1.1786067 0.04462454 0.93802047
000110 3f f0 3a 3f 75 c6 28 3f 7b f9 aa 3f 9f 05 9e 3e
       0.73022836 0.6592782 1.3357385 0.30863664
000120 70 5d 87 be ce 6c c0 bf 82 81 a8 3f d6 85 04 40
       -0.26438475 -1.5033205 1.3164523 2.0706687
000130 a6 87 0a be 95 e2 44 c0 c2 8c c4 be 44 2e dc be
       -0.13528308 -3.0763295 -0.3838864 -0.43004048
000140 65 fd 24 be f0 73 aa 3f 97 67 4d be a3 0a 8c 3f
       -0.16112287 1.3316631 -0.20059048 1.0940746
000150 c5 ac 3e 3f e1 86 fd 3f 93 df ef 3f 2e 9c d6 be
       0.74482375 1.9806787 1.8740104 -0.4191603
000160 68 c7 5f 3d d2 ca f4 3e 7b 51 48 bf f4 eb b7 3e
       0.054633528 0.4781099 -0.7824933 0.35922205
000170 e8 88 5c be be b4 24 3f ff e0 8e 3f 17 0e 26 3f
       -0.215366 0.6433829 1.1162413 0.6486525
000180 9a 58 4c be bd 72 f4 3e 76 9e ec be 56 50 f9 3d
       -0.19955674 0.47743788 -0.46214646 0.12173526
000190 ad 53 01 c0 54 b6 71 3d 92 26 3a 3f 08 40 c1 bd
       -2.0207322 0.059011772 0.72715104 -0.09436041
0001a0 84 a4 94 bf 5b e3 28 3f dd 0d ca bf 50 fe 1e 3f
       -1.1612706 0.65971917 -1.5785481 0.621068
0001b0 a0 e4 63 3f 11 fe 09 3e 91 3c 00 bf db 80 65 bf
       0.8902073 0.13475825 -0.50092417 -0.8964974
0001c0 98 7b 89 bf 43 51 d0 be c5 8a 02 3f 2d af eb 3e
       -1.0740843 -0.40686998 0.50992996 0.46032086
0001d0 24 5d 70 3f db 25 bd bf 20 6d 80 bf f7 93 1d c0
       0.9389212 -1.4777178 -1.0033302 -2.462156
0001e0 d8 bd 9e bf ef 87 d8 3e 07 49 dc 3f 2d c9 2c 3f
       -1.2401686 0.4229121 1.7209786 0.6749447
0001f0 4a c2 9d be 7d c3 83 3e 7f 04 ab bf 0f 3d 15 40
       -0.30812293 0.25735083 -1.3360747 2.3318517

network_body.linear_encoder.seq_layers.0.bias f4 [128]
000000 00 00 00 00 00 00 00 00 00 00 00 00 00 00 00 00
       0.0 0.0 0.0 0.0
000010 00 00 00 00 00 00 00 00 00 00 00 00 00 00 00 00
       0.0 0.0 0.0 0.0
000020 00 00 00 00 00 00 00 00 00 00 00 00 00 00 00 00
       0.0 0.0 0.0 0.0
000030 00 00 00 00 00 00 00 00 00 00 00 00 00 00 00 00
       0.0 0.0 0.0 0.0
000040 00 00 00 00 00 00 00 00 00 00 00 00 00 00 00 00
       0.0 0.0 0.0 0.0
000050 00 00 00 00 00 00 00 00 00 00 00 00 00 00 00 00
       0.0 0.0 0.0 0.0
000060 00 00 00 00 00 00 00 00 00 00 00 00 00 00 00 00
       0.0 0.0 0.0 0.0
000070 00 00 00 00 00 00 00 00 00 00 00 00 00 00 00 00
       0.0 0.0 0.0 0.0
000080 00 00 00 00 00 00 00 00 00 00 00 00 00 00 00 00
       0.0 0.0 0.0 0.0
000090 00 00 00 00 00 00 00 00 00 00 00 00 00 00 00 00
       0.0 0.0 0.0 0.0
0000a0 00 00 00 00 00 00 00 00 00 00 00 00 00 00 00 00
       0.0 0.0 0.0 0.0
0000b0 00 00 00 00 00 00 00 00 00 00 00 00 00 00 00 00
       0.0 0.0 0.0 0.0
0000c0 00 00 00 00 00 00 00 00 00 00 00 00 00 00 00 00
       0.0 0.0 0.0 0.0
0000d0 00 00 00 00 00 00 00 00 00 00 00 00 00 00 00 00
       0.0 0.0 0.0 0.0
0000e0 00 00 00 00 00 00 00 00 00 00 00 00 00 00 00 00
       0.0 0.0 0.0 0.0
0000f0 00 00 00 00 00 00 00 00 00 00 00 00 00 00 00 00
       0.0 0.0 0.0 0.0
000100 00 00 00 00 00 00 00 00 00 00 00 00 00 00 00 00
       0.0 0.0 0.0 0.0
000110 00 00 00 00 00 00 00 00 00 00 00 00 00 00 00 00
       0.0 0.0 0.0 0.0
000120 00 00 00 00 00 00 00 00 00 00 00 00 00 00 00 00
       0.0 0.0 0.0 0.0
000130 00 00 00 00 00 00 00 00 00 00 00 00 00 00 00 00
       0.0 0.0 0.0 0.0
000140 00 00 00 00 00 00 00 00 00 00 00 00 00 00 00 00
       0.0 0.0 0.0 0.0
000150 00 00 00 00 00 00 00 00 00 00 00 00 00 00 00 00
       0.0 0.0 0.0 0.0
000160 00 00 00 00 00 00 00 00 00 00 00 00 00 00 00 00
       0.0 0.0 0.0 0.0
000170 00 00 00 00 00 00 00 00 00 00 00 00 00 00 00 00
       0.0 0.0 0.0 0.0
000180 00 00 00 00 00 00 00 00 00 00 00 00 00 00 00 00
       0.0 0.0 0.0 0.0
000190 00 00 00 00 00 00 00 00 00 00 00 00 00 00 00 00
       0.0 0.0 0.0 0.0
0001a0 00 00 00 00 00 00 00 00 00 00 00 00 00 00 00 00
       0.0 0.0 0.0 0.0
0001b0 00 00 00 00 00 00 00 00 00 00 00 00 00 00 00 00
       0.0 0.0 0.0 0.0
0001c0 00 00 00 00 00 00 00 00 00 00 00 00 00 00 00 00
       0.0 0.0 0.0 0.0
0001d0 00 00 00 00 00 00 00 00 00 00 00 00 00 00 00 00
       0.0 0.0 0.0 0.0
0001e0 00 00 00 00 00 00 00 00 00 00 00 00 00 00 00 00
       0.0 0.0 0.0 0.0
0001f0 00 00 00 00 00 00 00 00 00 00 00 00 00 00 00 00
       0.0 0.0 0.0 0.0

network_body.linear_encoder.seq_layers.2.weight f4 [128, 128]
000000 86 14 50 be de 38 80 bd a0 e5 6b 3d 61 fc 3e 3d
       -0.20320329 -0.062608466 0.057592034 0.046627406
000010 f3 d0 8c bb 0a c1 b0 3d e2 a3 0a bd 55 60 27 3e
       -0.0042973696 0.08630569 -0.033847697 0.16345342
000020 7b f8 4a bd 11 1b 16 bc 43 a9 84 bc 42 8a 3a 3e
       -0.049553376 -0.009161727 -0.016193992 0.18216804
000030 c8 78 fe bd e5 20 c6 bc e5 59 6c bd 3b b8 b3 bb
       -0.12425381 -0.024185607 -0.057702918 -0.0054846085
000040 74 56 2d bd b6 73 b8 bd 61 c0 0d bd a5 54 97 3c
       -0.042318776 -0.09006445 -0.034607295 0.018472979
000050 45 e1 62 3d df 39 4b bd 70 31 1f 3e 16 fb 1e be
       0.055390615 -0.049615737 0.15546203 -0.15525469
000060 a9 a3 f2 bd 41 13 2d 3e 21 fc 1c 3d c7 00 55 3d
       -0.11847622 0.16901876 0.038326386 0.052002694
000070 49 df 33 3c 00 6c 09 bd f7 31 ef 3d 8b f6 07 3e
       0.010978528 -0.033550262 0.11679452 0.13277642
000080 2e fb cf 3d 81 91 ca bc 7a 33 4d 3d 58 a6 ff bd
       0.101553306 -0.024727585 0.05009792 -0.124828994
000090 25 cf 01 bb ca cf 24 3e 33 f1 26 be 39 91 2a 3e
       -0.0019807306 0.1609489 -0.16302948 0.1665696
0000a0 1a a3 fe 3c 6c 5d 91 3c ef af c0 bd d6 f1 f2 bc
       0.031083632 0.017744742 -0.09408557 -0.029656332
0000b0 b1 51 43 3e 7c 33 54 bd 95 45 9a 3d 86 67 a4 bd
       0.19074132 -0.05180691 0.07532803 -0.08027558
0000c0 2a 0d 17 3d 8f e5 28 3e ad 3f eb 3c 3d a5 fa bd
       0.03687779 0.1649382 0.028716886 -0.12238548
0000d0 5d fe 72 3d 3c a3 a1 bd d0 68 b7 bd 1d 3b 82 be
       0.05932461 -0.078924626 -0.08955538 -0.25435725
0000e0 bc ba d4 3b ed af 90 3d e7 c5 8d 3d eb c5 ad 3d
       0.006491987 0.07064805 0.069225125 0.084850155
0000f0 8d 1a f3 3c 6b 9a 01 3e 3d 90 81 bc 5c 88 f0 3d
       0.029675746 0.12656562 -0.015815848 0.117447585
000100 97 7c 55 3d a9 ec 90 3b 2c 25 99 bd 17 2d 0f be
       0.05212077 0.0044227433 -0.07477793 -0.13982044
000110 7c 8d 3b 3d 06 fd 26 3c ee f4 88 bc 67 02 08 be
       0.045789227 0.010192161 -0.016718354 -0.13282166
000120 b3 04 08 be ef 43 40 bc 8c 6e 00 be 0a d3 06 be
       -0.13283043 -0.011734947 -0.1254217 -0.13166443
000130 f0 a8 16 bd ae f8 cc 3d d8 93 28 be 7e 01 00 3d
       -0.036782205 0.100083694 -0.16462648 0.031251423
000140 6c 28 63 be c3 6f b1 3d 49 fb f8 3d 73 ce 27 3e
       -0.22183388 0.08663895 0.12157304 0.16387348
000150 8b 36 91 3c b6 93 d3 3d 28 e0 42 3c bc 8d 81 bd
       0.017726203 0.10330908 0.011894263 -0.06325862
000160 20 4b f4 3d c6 12 d3 3d 25 b5 22 be 6e 7a cf 3c
       0.119283915 0.10306315 -0.15889414 0.025326934
000170 92 ba 45 3d 3a 2b ad 3c f4 04 c9 bd f2 6d 02 3d
       0.04827363 0.021138776 -0.09815398 0.031843133
000180 59 8c 88 bd 19 43 af 3d fd 22 83 bd 78 b6 d3 bd
       -0.06667394 0.0855772 -0.06403158 -0.103375375
000190 40 56 ca 3d 1b 22 8d bd 10 92 66 3d 76 5d 8f 3d
       0.09879732 -0.06891271 0.05629164 0.07000248
0001a0 64 2d 48 3d 1a 9c 8b bc a6 21 aa 3d 01 2a d6 bd
       0.048871413 -0.017042208 0.08307199 -0.1045723
0001b0 05 c7 93 bd 9f c5 05 3d ca 9c 24 3e fe f0 ae 3d
       -0.07215694 0.03265917 0.16075435 0.08542059
0001c0 e5 10 bd bd fc b6 91 bb 20 5f 56 be 41 20 10 bd
       -0.09231738 -0.0044468623 -0.20934725 -0.03518701
0001d0 07 9a f5 3c 25 68 ab bd 89 2f fe bd 31 a9 0a bd
       0.029980673 -0.08369473 -0.1241141 -0.03385276
0001e0 5f 82 c8 3d e7 67 e4 bd a0 1b 2c 3e 9b f1 78 3c
       0.09790491 -0.1115263 0.16807413 0.015194322
0001f0 9c ce a2 3d 0a 18 00 be f1 70 9e bd dc d8 0f 3b
       0.07949564 -0.1250917 -0.077363856 0.0021949327
000200 59 fc 25 3e 88 6c 63 3d 54 ab 57 3e ca 54 8d 3c
       0.16209544 0.055523425 0.2106145 0.017252345
000210 8a 41 28 3e 26 9e 1c 3d 73 2a 5d bc 16 c7 ee bb
       0.16431251 0.03823676 -0.01349889 -0.0072869165
000220 fe fd 04 be 15 b8 12 bd 26 5e 0f 3c a7 5a 5a 3d
       -0.12987515 -0.035820086 0.008750474 0.05330911
000230 6b c9 bb bb a6 e0 09 bd e8 ca 9b 3d 6f 07 3e 3e
       -0.005730798 -0.033661507 0.07607061 0.18557523
000240 46 45 2c 3c 4c 35 d7 3d 18 e1 54 be 39 d3 d3 3d
       0.010514563 0.105082124 -0.20788991 0.10343022
000250 f2 3a 0a 3e 24 f6 55 bd e5 a6 ca bd a5 67 d6 3c
       0.13499048 -0.05223669 -0.09895114 0.026172468
000260 2e 8a e4 3d 63 da e8 bd 8b 65 67 3d 06 bb b0 bc
       0.11159168 -0.11369779 0.056493323 -0.021573555
000270 4b 8a 16 bd 1c a9 3b be 16 1c cf 3d 31 a2 13 bd
       -0.03675298 -0.18326229 0.10112779 -0.03604335
000280 10 32 8b 3d 5a 8e af 3c fc 55 c2 bd 68 09 09 be
       0.06796658 0.021430183 -0.094890565 -0.13382494
000290 30 c3 ca bd 29 f8 99 bd 20 1e 03 3d 81 e3 66 bc
       -0.0990051 -0.07518036 0.03201115 -0.014092327
0002a0 a9 ca ba bd ab 2d db 3d 86 f9 00 bd 8b 17 5c 3c
       -0.091206856 0.1070207 -0.031487964 0.013433347
0002b0 f5 d7 40 be 61 7d c6 ba 58 e2 c4 3d 42 d6 9b bb
       -0.18832381 -0.0015143567 0.09613484 -0.004755766
0002c0 3d a1 23 be 05 89 0e be 9c e3 9f 3b c1 87 15 3d
       -0.15979476 -0.13919456 0.004879428 0.03650642
0002d0 62 6c d9 bd 04 e1 4c bd ca 1c 84 bc e8 35 30 3b
       -0.106163755 -0.05001928 -0.016127009 0.00268876
0002e0 36 de d2 3d 88 2d 91 3d 8d 96 ee bc 53 8b 99 3d
       0.102962896 0.070887625 -0.029124523 0.07497277
0002f0 c6 c1 f0 3c 53 98 8a bc 93 2d a2 bc 08 f0 d8 bb
       0.029389273 -0.016918337 -0.019797122 -0.006620411
000300 7c 2a 13 3e 1d eb 3e 3d 57 2c c2 bd 4c e0 9f bd
       0.14371675 0.04661094 -0.094811134 -0.07806453
000310 c0 6b 6e 3c 22 ce 3e bd a3 64 a8 bd ae 2c 4d 3d
       0.014552057 -0.046583302 -0.0822232 0.050091438
000320 ca cf 8f bd a6 ee 48 3d 69 24 b1 3d 53 71 c4 bd
       -0.070220545 0.049055718 0.08649523 -0.095919274
000330 97 a1 74 bd 18 07 4c 3d 34 54 39 3d 42 3d 98 bc
       -0.059724417 0.049811453 0.045246318 -0.018583898
000340 ac 06 c9 bd 44 b4 ea bd 32 f0 c7 bc 67 0e b8 ba
       -0.09815726 -0.11460164 -0.024406526 -0.0014042378
000350 47 20 02 3c 60 9d 43 be 0b e6 e1 bb c9 50 c2 3d
       0.007942266 -0.19103003 -0.0068938783 0.09488065
000360 76 12 5c bb 49 35 fc bd 87 64 15 3e d6 13 ea 3d
       -0.003358034 -0.12314851 0.1458913 0.11429565
000370 25 88 da 3d d4 bd c7 3c ad 8f 13 3e f8 4e 25 bc
       0.10670499 0.02438251 0.14410277 -0.010089628
000380 a9 d8 80 bd 90 bb 1a 3d de d8 49 3d 1e 5e 9d bc
       -0.06291325 0.03777653 0.049279086 -0.019209918
000390 e0 97 06 3e 14 a6 23 be f3 6c db bd 34 ce 49 3e
       0.13143873 -0.15981323 -0.1071414 0.19707566
0003a0 54 c1 e9 bd bd b5 63 3e ac d1 f2 bd 45 9f 07 3d
       -0.114138275 0.22237296 -0.11856398 0.033110876
0003b0 d3 6b 28 be 74 92 31 bd 46 4e e4 bd 7f e4 b9 bb
       -0.16447382 -0.04335256 -0.11147742 -0.005672991
0003c0 ac f2 18 bc 1f a7 5e 3d 14 4b 95 bd 48 eb 00 3e
       -0.009335201 0.054358598 -0.07289711 0.12589753
0003d0 0e 1d d9 bc 22 cb 09 be 94 fc c3 3c 62 fc 75 3d
       -0.026503112 -0.13456395 0.02392415 0.060055144
0003e0 a5 7e 20 3c 53 af 29 3e 16 a2 55 bd 02 2d 2f bd
       0.009795819 0.16570787 -0.05215653 -0.042767532
0003f0 2e 55 04 bc ef 6b 80 bc ec d6 62 3d c4 95 ec 3b
       -0.008076949 -0.015676467 0.055380747 0.007220002

network_body.linear_encoder.seq_layers.2.bias f4 [128]
000000 00 00 00 00 00 00 00 00 00 00 00 00 00 00 00 00
       0.0 0.0 0.0 0.0
000010 00 00 00 00 00 00 00 00 00 00 00 00 00 00 00 00
       0.0 0.0 0.0 0.0
000020 00 00 00 00 00 00 00 00 00 00 00 00 00 00 00 00
       0.0 0.0 0.0 0.0
000030 00 00 00 00 00 00 00 00 00 00 00 00 00 00 00 00
       0.0 0.0 0.0 0.0
000040 00 00 00 00 00 00 00 00 00 00 00 00 00 00 00 00
       0.0 0.0 0.0 0.0
000050 00 00 00 00 00 00 00 00 00 00 00 00 00 00 00 00
       0.0 0.0 0.0 0.0
000060 00 00 00 00 00 00 00 00 00 00 00 00 00 00 00 00
       0.0 0.0 0.0 0.0
000070 00 00 00 00 00 00 00 00 00 00 00 00 00 00 00 00
       0.0 0.0 0.0 0.0
000080 00 00 00 00 00 00 00 00 00 00 00 00 00 00 00 00
       0.0 0.0 0.0 0.0
000090 00 00 00 00 00 00 00 00 00 00 00 00 00 00 00 00
       0.0 0.0 0.0 0.0
0000a0 00 00 00 00 00 00 00 00 00 00 00 00 00 00 00 00
       0.0 0.0 0.0 0.0
0000b0 00 00 00 00 00 00 00 00 00 00 00 00 00 00 00 00
       0.0 0.0 0.0 0.0
0000c0 00 00 00 00 00 00 00 00 00 00 00 00 00 00 00 00
       0.0 0.0 0.0 0.0
0000d0 00 00 00 00 00 00 00 00 00 00 00 00 00 00 00 00
       0.0 0.0 0.0 0.0
0000e0 00 00 00 00 00 00 00 00 00 00 00 00 00 00 00 00
       0.0 0.0 0.0 0.0
0000f0 00 00 00 00 00 00 00 00 00 00 00 00 00 00 00 00
       0.0 0.0 0.0 0.0
000100 00 00 00 00 00 00 00 00 00 00 00 00 00 00 00 00
       0.0 0.0 0.0 0.0
000110 00 00 00 00 00 00 00 00 00 00 00 00 00 00 00 00
       0.0 0.0 0.0 0.0
000120 00 00 00 00 00 00 00 00 00 00 00 00 00 00 00 00
       0.0 0.0 0.0 0.0
000130 00 00 00 00 00 00 00 00 00 00 00 00 00 00 00 00
       0.0 0.0 0.0 0.0
000140 00 00 00 00 00 00 00 00 00 00 00 00 00 00 00 00
       0.0 0.0 0.0 0.0
000150 00 00 00 00 00 00 00 00 00 00 00 00 00 00 00 00
       0.0 0.0 0.0 0.0
000160 00 00 00 00 00 00 00 00 00 00 00 00 00 00 00 00
       0.0 0.0 0.0 0.0
000170 00 00 00 00 00 00 00 00 00 00 00 00 00 00 00 00
       0.0 0.0 0.0 0.0
000180 00 00 00 00 00 00 00 00 00 00 00 00 00 00 00 00
       0.0 0.0 0.0 0.0
000190 00 00 00 00 00 00 00 00 00 00 00 00 00 00 00 00
       0.0 0.0 0.0 0.0
0001a0 00 00 00 00 00 00 00 00 00 00 00 00 00 00 00 00
       0.0 0.0 0.0 0.0
0001b0 00 00 00 00 00 00 00 00 00 00 00 00 00 00 00 00
       0.0 0.0 0.0 0.0
0001c0 00 00 00 00 00 00 00 00 00 00 00 00 00 00 00 00
       0.0 0.0 0.0 0.0
0001d0 00 00 00 00 00 00 00 00 00 00 00 00 00 00 00 00
       0.0 0.0 0.0 0.0
0001e0 00 00 00 00 00 00 00 00 00 00 00 00 00 00 00 00
       0.0 0.0 0.0 0.0
0001f0 00 00 00 00 00 00 00 00 00 00 00 00 00 00 00 00
       0.0 0.0 0.0 0.0

value_heads.value_heads.extrinsic.weight f4 [1, 128]
000000 40 20 8f 3b 10 a8 82 3d 83 14 46 be ce ad 51 3e
       0.004367858 0.06379712 -0.19343762 0.20476457
000010 58 6c b0 bd b6 38 50 be da 93 1b be e8 57 5d bd
       -0.08614415 -0.20334134 -0.1519312 -0.054038912
000020 78 83 99 bd a4 ca f7 3d 54 ca d0 3d a0 f9 03 bd
       -0.07495779 0.120991975 0.10194841 -0.032220483
000030 84 b9 0e 3e fe 0b 2b be 94 a8 eb 3d 0a d4 12 be
       0.13937956 -0.16703793 0.11506763 -0.14338699
000040 94 83 23 3e b2 ef 9e bd d9 a4 cb bd 02 8a 07 be
       0.15968162 -0.07760562 -0.099435516 -0.1323624
000050 80 74 da ba 7c 82 1b be 22 b5 a8 bd 90 23 1b bc
       -0.00166668 -0.15186495 -0.08237673 -0.009468928
000060 48 5d b8 3c c6 b3 1b 3e b8 bf 96 3d 64 0e 56 3e
       0.022505417 0.15205297 0.07360786 0.20903927
000070 30 59 7a 3d 44 73 81 3d 24 ad 8c bd c0 18 b4 bd
       0.061120212 0.06320813 -0.068689615 -0.08793783
000080 a4 b1 fe bd 23 00 f5 bd cf bd 01 be 0a e5 2c 3e
       -0.12436226 -0.11962917 -0.12670062 0.16884246
000090 10 e4 43 3d f4 3b 20 be 90 a4 1f 3d f8 89 f9 3d
       0.04782492 -0.1564787 0.0389753 0.121845186
0000a0 2e 01 13 be 31 71 ef bd e0 b0 4c bc d8 fb aa bd
       -0.14355919 -0.116915114 -0.012493342 -0.08348817
0000b0 d4 fe d7 3d 98 b4 00 3e fc 66 af 3d 84 0f a7 bd
       0.105466515 0.12568891 0.085645646 -0.08157256
0000c0 a0 e8 0c bd e0 40 4d 3d a0 d4 b2 bc 5f 31 de bd
       -0.034401536 0.050110698 -0.021829903 -0.108492605
0000d0 96 a6 3e 3e d8 7f 65 bd 0b d0 31 be 46 79 a4 bd
       0.18618235 -0.056030124 -0.17364518 -0.080309436
0000e0 1b b4 54 be f0 15 15 3d b2 71 18 3e 0e 8d a0 bd
       -0.2077183 0.036397874 0.14887121 -0.07839404
0000f0 46 ba 19 be 20 3e 5b 3e c0 0f 5b be 28 d0 bb bc
       -0.15012464 0.21410418 -0.21392727 -0.022926405
000100 6c f9 98 3d e4 1e 4c 3e d8 7c 58 3d d8 e1 00 be
       0.074694484 0.19933659 0.052853435 -0.12586153
000110 b6 ab 50 3e 00 2a 3a be 80 cf 12 3c 8e d6 4e 3e
       0.20378003 -0.18180084 0.008960605 0.20199034
000120 80 e8 e5 3d 50 f7 f8 3c 8b 7b 00 be af 93 1a be
       0.112259865 0.030391365 -0.12547128 -0.150954
000130 a8 64 db 3c 80 9e 97 bc 12 4b 9c bd 3c a0 fd 3d
       0.026781395 -0.018508196 -0.07631506 0.12384078
000140 d8 33 0b 3e 31 1a 2a be 8e 04 ee bd 98 05 f7 3d
       0.13593996 -0.16611554 -0.116219625 0.12061614
000150 54 54 10 be 1c da 5e bd 3a 49 02 3e d4 b2 8a 3d
       -0.14094669 -0.054407224 0.12723246 0.0677239
000160 60 1c ae 3d 60 1a 26 3e 48 d9 a5 bc dc 04 c1 bd
       0.08501506 0.16220999 -0.02024521 -0.09424755
000170 3c 61 2d bd c9 cd 5b be f0 02 38 3c b4 8d 11 be
       -0.042329058 -0.2146522 0.011231169 -0.14214212
000180 80 06 d1 3b de d0 34 3e 38 ff 35 be 90 ec bd 3d
       0.0063789487 0.17657802 -0.1777314 0.09273636
000190 8a 13 2b be e6 f0 3e 3e ea 68 05 3e 1a 9a 43 be
       -0.16706672 0.18646583 0.13028303 -0.19101754
0001a0 b8 6c 06 be 12 7c 52 be de 75 1e 3e c0 f7 ef 3d
       -0.1312741 -0.20555142 0.1547465 0.117171764
0001b0 ea 10 3e 3e 00 a1 91 3a 74 0d 8f bd d9 3b 2e be
       0.1856114 0.0011110604 -0.06984988 -0.17015018
0001c0 78 b3 a9 3d 6a 71 35 be 60 ac 8d 3d 18 a5 81 bd
       0.08286184 -0.17719045 0.069176435 -0.06330317
0001d0 68 b0 9f 3d 4c d3 29 be 98 bb 1b 3d 40 ac 3d 3e
       0.07797319 -0.1658451 0.0380207 0.1852274
0001e0 38 44 de 3d a0 1e a3 3b ca 12 11 be 80 be 74 bc
       0.108528554 0.004978016 -0.14167324 -0.014937997
0001f0 58 5b 93 3c 9c 70 fe 3d 58 a6 ab bc 22 ba 0a be
       0.017987892 0.12423822 -0.020953342 -0.13547567
