UnityMLTutorial_complete/results/MoveToGoal/MoveToGoal/MoveToGoal-151300.pt (torch, 438623 bytes, 36 tensors)

network_body.linear_encoder.seq_layers.0.weight f4 [128, 6]
0	0x3dc8c7f3	0.09803762
1	0xbd97ec17	-0.074180774
2	0xbe84b0c6	-0.25916117
3	0x3f15e715	0.5855573
4	0xbe71b4b7	-0.23604093
5	0x3f20f563	0.6287443
6	0x3ed52016	0.41626042
7	0xbe077b54	-0.1323064
8	0x3d899b57	0.06719082
9	0xbebc13be	-0.36733812
10	0x3ed8b957	0.42328903
11	0x3f05147c	0.5198438
12	0x3e7c4a38	0.24637687
13	0xbed82879	-0.42218378
14	0x3f4dc2f5	0.80375606
15	0x3d9d1311	0.07669652
16	0xbc332eb8	-0.010936432
17	0x3e7b78fa	0.24557868
18	0xbf76df07	-0.9643406
19	0x3f2cd41f	0.6751117
20	0xbf8e64db	-1.1124529
21	0x3eff43ec	0.49856508
22	0x3e0d5bed	0.13804598
23	0x3e4900f1	0.19629265
24	0xbd93b68a	-0.07212551
25	0xbda8762c	-0.082256645
26	0x3e903dce	0.28172153
27	0x3e716a9b	0.23575823
28	0xbe12ff86	-0.14355287
29	0xbe849e36	-0.25901955
30	0x3e4c4b28	0.19950545
31	0xbe85f4be	-0.26163286
32	0x3f88230a	1.0635693
33	0x3c6886f4	0.014192332
34	0xbe3ea00e	-0.18615744
35	0x3f0c924f	0.5491075
36	0xbf6ee4a0	-0.93317604
37	0x3d6c1b8c	0.05764346
38	0x3e50ec23	0.20402579
39	0xbd43e0f2	-0.047821946
40	0x3d91d22c	0.07120165
41	0x3eda3215	0.42616335
42	0x3d519cd9	0.051174972
43	0x3cfe6338	0.03105317
44	0xbded08dd	-0.11573956
45	0xbfa2ad75	-1.2709185
46	0x3c4d6bda	0.012537921
47	0x3ea153b9	0.31509188
48	0xbea37157	-0.3192241
49	0xbb6a0603	-0.003570915
50	0xbe9a5524	-0.30143082
51	0xbea4e520	-0.32206059
52	0x3ed4da16	0.41572636
53	0x3ee1a2d4	0.4406954
54	0xbe536145	-0.20642574
55	0x3ce88cf2	0.02838752
56	0xbce12b12	-0.027486358
57	0xbe87903b	-0.26477227
58	0xbf4cbe6e	-0.7997807
59	0xbeae65e0	-0.340621
60	0x3e7dae48	0.24773514
61	0xbc4f1ab7	-0.012640647
62	0xbe80ef81	-0.25182727
63	0x3ed07532	0.40714413
64	0x3ef64a51	0.48103574
65	0x3eb956a1	0.36198905
66	0xbe994a95	-0.29939714
67	0x3e94c44f	0.29056022
68	0x3f243ff3	0.6416008
69	0x3ee78374	0.45217478
70	0x3f015b58	0.50530005
71	0x3d8be357	0.06830471
72	0xbf77eeb0	-0.96848583
73	0xbe081fac	-0.13293332
74	0xbf4c7c4e	-0.79877174
75	0x3e917432	0.28408962
76	0xbd6065ec	-0.0547847
77	0x3ee3bcd3	0.4448
78	0x3e3756ff	0.1790428
79	0xbea79273	-0.3272892
80	0x3ebc9c34	0.36837924
81	0x3eb69f3f	0.3566837
82	0xbe5b4921	-0.21414615
83	0x3e33cd3a	0.17558756
84	0xbf758a1e	-0.95913875
85	0x3e02acf8	0.12761295
86	0xbdc751a3	-0.09732368
87	0x3d01238c	0.03152804
88	0xbe0f5326	-0.13996562
89	0xbe660ddd	-0.22466226
90	0xbf0428f3	-0.51624984
91	0xbf909755	-1.1296183
92	0xbc5c8061	-0.013458342
93	0x3dc636e9	0.09678442
94	0xbe7caba7	-0.24674855
95	0x3d1e9665	0.038717646
96	0x3ebfbd05	0.37448898
97	0xbef65ec5	-0.48119178
98	0x3f1ef089	0.6208578
99	0x3e855f6f	0.26049373
100	0xbe459c5e	-0.1929793
101	0xbe5efa1f	-0.21775101
102	0x3e2826c1	0.16421033
103	0xbf63aa17	-0.8893141
104	0xbefc9393	-0.4933134
105	0x3e371bce	0.178817
106	0xbeaaa983	-0.33332452
107	0xbf5a5573	-0.85286635
108	0x3db35c80	0.08757877
109	0x3c90fe30	0.017699331
110	0x3ea2a58f	0.31766936
111	0x3ce63774	0.028102614
112	0x3ec84b84	0.39120114
113	0x3e0ff1b4	0.14057046
114	0xbd0a651f	-0.033787843
115	0xbd014783	-0.03156234
116	0xbe98bb66	-0.29830474
117	0xbd0c2b18	-0.034220785
118	0x3dbbace7	0.09163838
119	0x3e6e9f7a	0.23303023
120	0xbe0fc3fd	-0.14039607
121	0xbe4062bd	-0.18787666
122	0xbea48d03	-0.32138833
123	0x3f213286	0.6296772
124	0x3f080c29	0.53143555
125	0xbcbfe8b4	-0.023426391
126	0x3f2296fe	0.63511646
127	0x3d6f97d7	0.058494415
128	0xbe2ed30d	-0.17072697
129	0x3f58ba42	0.84659207
130	0x3f143e0f	0.57907194
131	0x3f1d5b44	0.61467385
132	0x3b9501fb	0.004547355
133	0xbf250716	-0.6446394
134	0xbef61038	-0.4805925
135	0x3e6066a4	0.21914154
136	0x3e86c98b	0.2632564
137	0xbe137e80	-0.14403725
138	0xbe2e930e	-0.17048284
139	0x3e830b30	0.25594473
140	0xbd575ba2	-0.052577622
141	0xbf081d25	-0.5316947
142	0x3e8d6bae	0.27621216
143	0x3e7c7550	0.24654126
144	0xbf3e8444	-0.7442057
145	0x3e0eece0	0.13957548
146	0xbf1992d7	-0.59989685
147	0xbd95a964	-0.07307699
148	0xbf147c0c	-0.5800178
149	0xbdf00b24	-0.11720875
150	0x3e0164bd	0.12636085
151	0x3e865b66	0.26241606
152	0xbe77c82b	-0.24197452
153	0x3ef44ac5	0.47713295
154	0x3ed2881d	0.4111947
155	0xbd4ca9e8	-0.049966723
156	0xbe9902ff	-0.29885098
157	0xbefe45b4	-0.49662554
158	0xbf567bff	-0.83782953
159	0x3ed18456	0.40921277
160	0xbd9f9d3b	-0.07793661
161	0xbee95f5a	-0.4558056
162	0xbe63acef	-0.22233938
163	0x3f3e5a17	0.74356216
164	0x3e017af0	0.12644553
165	0x3e14aa8e	0.14518186
166	0x3d517ccc	0.051144406
167	0xbf38c83f	-0.7218055
168	0xbef34def	-0.47520396
169	0x3f786b4d	0.9703873
170	0x3f61c820	0.8819599
171	0xbeb46426	-0.35232657
172	0xbe809b62	-0.25118548
173	0x3e093845	0.13400371
174	0x3df48b76	0.119406626
175	0x3e9faa3a	0.3118456
176	0xbe7145a7	-0.23561727
177	0x3f161dde	0.58639324
178	0x3eb19681	0.34685138
179	0x3e932b17	0.28743812
180	0xbdda22c0	-0.10651159
181	0x3ec29f1d	0.3801202
182	0xbf5173ac	-0.81817126
183	0x3dfd35a6	0.12363748
184	0x3e620adb	0.22074454
185	0xbf21060f	-0.6289987
186	0xbe64d037	-0.22345053
187	0xbf6c3335	-0.92265636
188	0x3e88e255	0.26735178
189	0x3e87ae8c	0.26500356
190	0x3e1e1d84	0.15440947
191	0x3bfa327e	0.0076354137
192	0x3e4468f2	0.19180658
193	0x3e0406d2	0.12893227
194	0xbef37758	-0.4755199
195	0x3ccf7f77	0.025329335
196	0xbeaec921	-0.34137824
197	0xbe69f0d5	-0.22845776
198	0xbed72dbb	-0.42027077
199	0xbe30f54e	-0.17281076
200	0x3dec9058	0.11550969
201	0xbec75d46	-0.3893835
202	0xbf48cde1	-0.78439146
203	0x3edd534f	0.43227622
204	0xbd7b6ed1	-0.06138498
205	0xbf99c3ae	-1.2012842
206	0x3ea818ad	0.32831326
207	0x3f6b6b43	0.91960543
208	0xbee7d93b	-0.4528292
209	0xbecf5db1	-0.40501168
210	0xbd7aa391	-0.061191145
211	0xbe026868	-0.1273514
212	0x3efa697d	0.48908606
213	0x3da28c5b	0.07936927
214	0xbee8fabb	-0.45503792
215	0xbdea2d39	-0.11434407
216	0xbe5cf26c	-0.21576852
217	0x3e35aa10	0.17740655
218	0xbbfc363b	-0.0076968945
219	0xbee7b101	-0.4525223
220	0xbe433791	-0.19064166
221	0xbebcea15	-0.3689734
222	0x3ca423d5	0.020036617
223	0xbe02a40f	-0.12757896
224	0x3ec451de	0.3834371
225	0x3e87c920	0.26520634
226	0xbf77b581	-0.9676133
227	0xbd844a5d	-0.06459496
228	0xbed4eab1	-0.41585305
229	0xbe0cee06	-0.13762674
230	0xbb6d46fd	-0.0036205642
231	0x3e6d2157	0.2315725
232	0x3dbff1df	0.09372305
233	0xbecd7504	-0.40128338
234	0xbf0ddcb7	-0.5541491
235	0xbdce398c	-0.1006957
236	0xbe9f3596	-0.3109557
237	0x3dbd5bc2	0.09246017
238	0xbddc1fb5	-0.10748235
239	0x3e585617	0.2112659
240	0x3a3d72da	0.0007226892
241	0xbeb6ff9c	-0.3574189
242	0x3e934532	0.2876373
243	0xbd993cd4	-0.07482305
244	0xbdc28a44	-0.09499028
245	0x3f47a512	0.7798625
246	0xbe5e85bf	-0.21730708
247	0xbe72305a	-0.23651257
248	0x3eb5c874	0.35504496
249	0x3f4ee441	0.8081704
250	0x3ef8765d	0.48527804
251	0xbd9e5c80	-0.07732487
252	0xbf2635cc	-0.6492584
253	0xbf03f0a2	-0.5153905
254	0x3e0ea7e0	0.13931227
255	0xbe557fc0	-0.20849514

network_body.linear_encoder.seq_layers.0.bias f4 [128]
0	0x3c832206	0.016007435
1	0xbc1c68c4	-0.009546462
2	0x3ca760f6	0.020431977
3	0x3cff8592	0.031191621
4	0x3c490f8f	0.012271776
5	0x3d20bc8f	0.039242323
6	0xbc1aee66	-0.009456253
7	0x3c625c2b	0.01381592
8	0x3cc9f682	0.024653677
9	0xbb8d2718	-0.004307639
10	0xbcbd68e0	-0.023121297
11	0xbcca3404	-0.024683006
12	0xbbeb0434	-0.007172132
13	0x3c3b8709	0.011445769
14	0x3ba2208b	0.004947727
15	0x3c8a80c9	0.016907113
16	0x3c6629e7	0.014048076
17	0x3c9d9e1d	0.019240433
18	0x3c1c09fb	0.009523864
19	0xbb924d4f	-0.0044647823
20	0x3c9d5181	0.019203903
21	0x3c1fe952	0.009760218
22	0x3c5f1a19	0.013617062
23	0x3c8dd87c	0.017315142
24	0xbc46f3c3	-0.012143078
25	0xbb78b843	-0.0037951625
26	0xbc26cbb6	-0.010180404
27	0x3c7ff7a9	0.015623012
28	0x3cd83167	0.026390744
29	0x3b855678	0.004069146
30	0x3d032562	0.032018073
31	0xbc842a54	-0.016133465
32	0xbbf8b476	-0.007589872
33	0x3c31b0d6	0.010845384
34	0x3c379c10	0.011206642
35	0x3cbe394e	0.023220684
36	0x3a79f1d7	0.0009534633
37	0x3c665b93	0.014059919
38	0x3c07febb	0.008300479
39	0x3ba9a29b	0.005176855
40	0xbc897cff	-0.016783236
41	0x3ca0cc66	0.019628715
42	0x3cd271c7	0.025689019
43	0x3cbcf9e3	0.023068374
44	0x3cfcbea1	0.030852618
45	0x3c9a364b	0.018824717
46	0xbb8508fa	-0.004059908
47	0x3ca52167	0.020157529
48	0x3ca11be5	0.019666621
49	0xbc58bef1	-0.013229118
50	0xbc9e56d2	-0.019328509
51	0xbc3d3e72	-0.011550533
52	0x3b9bc77b	0.0047540045
53	0xbc8df325	-0.017327854
54	0x3bec3350	0.0072082654
55	0xb9aa3d54	-0.0003247062
56	0xbbb22153	-0.0054361015
57	0x3c15efbd	0.009151396
58	0x3c7d3956	0.0154555645
59	0xbbeb3d57	-0.007178943
60	0xbcabe904	-0.020985134
61	0xbbfa0932	-0.0076304907
62	0xbb716fca	-0.0036840313
63	0xbbf2e0f5	-0.007412071
64	0xbc199b14	-0.009375352
65	0xbd38ca85	-0.045115013
66	0xbc9be64e	-0.019030716
67	0x3caf48c9	0.021397011
68	0xbc0d1d55	-0.00861295
69	0x3c9f087a	0.019413222
70	0x3ca829c6	0.020527732
71	0xbba5eb71	-0.005063467
72	0x3bc6b9c4	0.0060646255
73	0xbc002af7	-0.007822744
74	0xbc42e211	-0.011894719
75	0x3bb3ce6f	0.0054872553
76	0xbca14f53	-0.019691145
77	0x3c38798d	0.011259449
78	0x3c2eed4c	0.010676693
79	0x3b964327	0.004585642
80	0x3c9ab525	0.018885205
81	0xbc277d4c	-0.010222744
82	0x3c2f6758	0.010705791
83	0x3ca67fef	0.020324675
84	0x3c31dfde	0.010856597
85	0x3cd33c00	0.025785446
86	0xbb0966ab	-0.0020965736
87	0xbc4b2886	-0.012399798
88	0x3c27dee3	0.010246011
89	0xbc105eee	-0.0088116955
90	0xbbb66f84	-0.005567493
91	0xbbcd67be	-0.0062684705
92	0x3be656cd	0.0070293904
93	0xbb4eb50e	-0.0031541022
94	0x3c95788a	0.018245954
95	0x3c40f6d6	0.0117776
96	0x3c89cf7a	0.016822565
97	0x3cec1d79	0.028822647
98	0x3b660126	0.00350959
99	0xbcab541a	-0.020914126
100	0x3c839380	0.016061544
101	0xbb42392a	-0.0029636123
102	0x3c8cb880	0.01717782
103	0x3c1530e4	0.009105895
104	0x3cadf5a6	0.021235298
105	0x398e20be	0.00027108745
106	0x3cf91e31	0.030409904
107	0x3ccb8ada	0.024846483
108	0x3c3475aa	0.011014381
109	0xbb8277dd	-0.003981574
110	0x3c3d9de7	0.011573291
111	0x3b811d16	0.003940235
112	0x3ca5fe4f	0.020262865
113	0xbca281d4	-0.019837297
114	0xbbb8bbb9	-0.0056376127
115	0x3ce2f153	0.027702963
116	0x3bd7a199	0.0065805432
117	0x3c866725	0.016406605
118	0x3c12852d	0.008942884
119	0xbc8b7e32	-0.017027948
120	0x3d0ffb45	0.03515174
121	0xbcb81063	-0.022468751
122	0xb96e04ac	-0.00022699189
123	0x3ca7558b	0.020426532
124	0xbb449b31	-0.0029999728
125	0x3cd29f4c	0.025710724
126	0x3c84bfea	0.016204793
127	0x3ad39b2c	0.0016144267

network_body.linear_encoder.seq_layers.2.weight f4 [128, 128]
0	0x3c7f281f	0.01557353
1	0xbe03af73	-0.12859897
2	0xbdf46846	-0.11933951
3	0xbd744203	-0.059633266
4	0x3b5efa8b	0.0034023847
5	0xbe0c76c7	-0.13717185
6	0x3d13e26f	0.036104616
7	0x3cd76643	0.02629388
8	0x3da061b7	0.078311376
9	0x3e2e993b	0.1705064
10	0x3d8084bd	0.06275318
11	0x3d8eb052	0.06967224
12	0x3bbc268d	0.0057419003
13	0x3d65c148	0.05609253
14	0xbd929b3d	-0.071585156
15	0x3d94a075	0.07257167
16	0xbc142fab	-0.009044568
17	0xbcf551ee	-0.029946294
18	0x3afa93b8	0.001911751
19	0x3deadf7e	0.11468409
20	0xbccf0f91	-0.025275977
21	0xbd9f2b50	-0.07771933
22	0x3ba1ccdd	0.0049377517
23	0xbcc7bae1	-0.024381103
24	0x3e3e65c0	0.18593502
25	0xbe16b06d	-0.14715739
26	0x3b18afc3	0.0023298122
27	0x3d6d7257	0.05797037
28	0xbdc7fd22	-0.09765078
29	0xbcd0c5d3	-0.025484955
30	0xbd50d5b1	-0.050985042
31	0x3c79aa11	0.015238301
32	0xbdc2beb5	-0.09509031
33	0x3dc9afbc	0.09847972
34	0xbce83d46	-0.02834953
35	0xbd7d7430	-0.061878383
36	0xbc3d7cde	-0.011565415
37	0xbd1cb643	-0.038259756
38	0x3c66c38f	0.014084711
39	0xbdec3e95	-0.11535374
40	0xbdb158e3	-0.08659532
41	0x3d83568c	0.06412992
42	0x3ba319d2	0.0049774433
43	0xbc74fb65	-0.014952515
44	0x3d639e35	0.0555708
45	0x3c4c3466	0.012463665
46	0x3d69e5fa	0.05710409
47	0xbd297456	-0.041370712
48	0x3d6fdef5	0.058562238
49	0xbd40938b	-0.047015708
50	0xbcaf3e71	-0.02139208
51	0xbe052380	-0.13001823
52	0xbdb66850	-0.08906615
53	0x3d37dad3	0.04488642
54	0x3d0c7c69	0.034298334
55	0xbd5bf0c7	-0.05369642
56	0x3dd8dce9	0.1058901
57	0x3c174f5d	0.00923523
58	0xbbaf6b8d	-0.005353397
59	0x3d08326a	0.033251204
60	0x3e7a2c58	0.24430978
61	0xbde34c96	-0.11098592
62	0xbca1a51a	-0.019732047
63	0xbcecf9eb	-0.028927764
64	0xbd31da4e	-0.043421082
65	0x3e0417fe	0.12899777
66	0xbbf8953c	-0.0075861495
67	0xbd7c2c82	-0.061565883
68	0x3d091303	0.033465397
69	0xbe266889	-0.16250814
70	0xbdd3013d	-0.103029706
71	0xbd512b51	-0.0510667
72	0x3d8fbe7e	0.070187554
73	0xbbcf41cb	-0.006324982
74	0xbd9e41b2	-0.07727374
75	0xbdae113f	-0.08499383
76	0xbdaec046	-0.08532767
77	0x3d4dada8	0.05021444
78	0x3cec7ec0	0.028869033
79	0x3ceb8039	0.028747665
80	0x3e361573	0.1778162
81	0xbd47a316	-0.048739515
82	0x3ce44754	0.027866043
83	0x3d3484f7	0.044072118
84	0x3ddc8bfa	0.10768886
85	0xbca8f1eb	-0.020623168
86	0xbcedd61d	-0.029032761
87	0xbd0a7565	-0.033803362
88	0xbc86d31b	-0.016458085
89	0x3d9716f9	0.073774286
90	0x3d093fa3	0.033507954
91	0xbc97c70f	-0.018527536
92	0x3c2c303f	0.01050955
93	0xbcedac5c	-0.029012851
94	0x3d264eb9	0.04060242
95	0x3d4434e7	0.047902014
96	0x3dcfefaf	0.10153138
97	0x3d0b8c06	0.034069084
98	0xbd6604d1	-0.056156937
99	0xbca16082	-0.019699339
100	0x3e7051a3	0.23468642
101	0xbd331e02	-0.04372979
102	0xbd14a3d4	-0.03628905
103	0x3d621a7f	0.05520105
104	0x3d9c78be	0.07640217
105	0x3c928da8	0.017889813
106	0xbb6101f1	-0.0034333433
107	0xbd729247	-0.059221532
108	0x3d37b164	0.044846907
109	0xbe072edd	-0.1320147
110	0x3e45b37a	0.19306746
111	0xbd51e23d	-0.05124115
112	0x3d0f302d	0.034958053
113	0xbe6c47ca	-0.2307426
114	0x3c8df060	0.017326534
115	0xbdb9d92a	-0.09074624
116	0x3dbd242c	0.09235415
117	0x3d9de275	0.07709209
118	0xbdc3f921	-0.09569002
119	0x3d36c193	0.0446182
120	0x3dc148fb	0.09437748
121	0x3db9c6d3	0.09071126
122	0x3d766df8	0.060163468
123	0xbdd3bb69	-0.1033848
124	0xbc2cc4e0	-0.0105449855
125	0xbcac2550	-0.021013886
126	0xbe20e3b6	-0.15711865
127	0xbdad4686	-0.08460717
128	0xbd02dacc	-0.031946942
129	0xbe1f6dc3	-0.15569215
130	0x3ded3ab7	0.115834646
131	0xbdb3a63d	-0.08771942
132	0x3e5c0f1f	0.21490143
133	0xbc46dd5d	-0.012137738
134	0xbdbaf455	-0.09128634
135	0xbdd63e52	-0.104611054
136	0xbbac0f76	-0.0052508665
137	0xbcd762a0	-0.026292145
138	0x3d940dc7	0.0722919
139	0x3d432cd7	0.047650184
140	0x3daef177	0.085421495
141	0xbd2c0ee1	-0.042006377
142	0x3da114c1	0.078652866
143	0x3c841d70	0.016127318
144	0x3d07bf0c	0.03314118
145	0x3e004332	0.12525633
146	0x3c95f9ad	0.018307531
147	0x3d719223	0.058977257
148	0x3d2725db	0.040807586
149	0xbd43b5f2	-0.04778094
150	0x3dfb1fa1	0.12261892
151	0xbe270d6f	-0.16313718
152	0x3e045111	0.1292155
153	0xbdd33755	-0.10313288
154	0x3d52b56d	0.051442552
155	0x3e077ad6	0.13230452
156	0xbd64cea4	-0.05586113
157	0x3d12fedc	0.035887584
158	0x3d5de518	0.05417356
159	0xbde3c3ad	-0.111213066
160	0xbcc51767	-0.02405901
161	0xbcd44d6d	-0.025915826
162	0x3dbcec7e	0.09224795
163	0x3dbe3f2c	0.09289393
164	0xba9dfd65	-0.0012053667
165	0x3daa235a	0.08307524
166	0x3d3cb591	0.046071593
167	0x3df0fc03	0.117668174
168	0xbdc87a00	-0.09788895
169	0x3ce9d4c7	0.028543843
170	0x3d7c7be6	0.061641596
171	0x3d0eae48	0.034834176
172	0xbc82e71e	-0.015979346
173	0xbc893057	-0.016746683
174	0xbda3dcba	-0.080010846
175	0x3c996578	0.018725142
176	0xbd7d107f	-0.06178331
177	0x3bf803b9	0.007568803
178	0xbe22113a	-0.15826884
179	0x3d5aacf1	0.053387586
180	0x3d6e4b7b	0.058177453
181	0x3bc3130a	0.0059531974
182	0x3c0d429b	0.008621837
183	0x3ddd376a	0.10801585
184	0xbcb937f1	-0.022609683
185	0xbe412981	-0.18863489
186	0xbdcc1183	-0.099642776
187	0x3d951740	0.07279825
188	0xbcf7f9b7	-0.03027044
189	0x3d8a2c74	0.0674676
190	0xbdfbfbde	-0.12303899
191	0x3cda7991	0.026669296
192	0xbdbee0b0	-0.093201995
193	0xbd24f170	-0.040269315
194	0x3d5f7296	0.054552637
195	0x3e5d452b	0.21608417
196	0x3e1f4851	0.1555493
197	0x3db93c3d	0.09044693
198	0xbdaec791	-0.08534158
199	0xbe6edb0e	-0.2332575
200	0xbd7b9ccf	-0.06142884
201	0xbd04b816	-0.03240212
202	0x3cb8d929	0.022564488
203	0xbe0197e6	-0.12655601
204	0xbbad4a4b	-0.0052883974
205	0xbd01b758	-0.03166899
206	0xbcce946c	-0.025217257
207	0xbd9726f8	-0.073804796
208	0x3d3f6fc8	0.046737462
209	0xbdd310f1	-0.10305966
210	0xbcc3d3d6	-0.023904722
211	0x3d67447b	0.056461792
212	0xbdafaafe	-0.08577536
213	0xbb8d874f	-0.0043191086
214	0x3d8d7c53	0.069084786
215	0xbcd4e994	-0.025990285
216	0x3d9ff39e	0.07810138
217	0xbe06d07a	-0.13165465
218	0xbe5e4113	-0.21704511
219	0x3d316811	0.043312136
220	0xbc4a9673	-0.012364971
221	0x3d3ea9be	0.046548598
222	0xbe022b0e	-0.12711737
223	0x3d9baa4e	0.076008424
224	0xbe02aff0	-0.12762427
225	0x3d482091	0.048859183
226	0x3d92ca37	0.07167476
227	0xbd51390a	-0.051079787
228	0xbe7b96c1	-0.24569227
229	0xbe1845da	-0.14870396
230	0xbe1a3359	-0.1505865
231	0x3d6905c4	0.056890264
232	0xbd04cf1b	-0.032424074
233	0x3d606194	0.054780558
234	0x3d738cd0	0.05946046
235	0xbd543377	-0.051806893
236	0x3db96150	0.09051764
237	0x3d913463	0.0709007
238	0xbe4e1705	-0.20125969
239	0xbd65cb19	-0.056101892
240	0xbc9a3cf0	-0.018827885
241	0x3dad3e71	0.084591754
242	0xbd10a76f	-0.035315927
243	0x3df0ba33	0.11754265
244	0xbd74e72b	-0.05979077
245	0xbd222a3f	-0.03959107
246	0xbe20caa4	-0.15702301
247	0xbd3e3249	-0.046434674
248	0x3d963a45	0.07335333
249	0xbc84b412	-0.016199145
250	0x3e33581f	0.17514084
251	0xbe2643e8	-0.16236842
252	0x3dca3344	0.098730594
253	0xbe3fe4ce	-0.18739626
254	0x3cc33cf0	0.023832768
255	0xbde0f759	-0.10984678

network_body.linear_encoder.seq_layers.2.bias f4 [128]
0	0xbc70977b	-0.014684553
1	0x3c927d8a	0.017882127
2	0x3caed199	0.021340178
3	0xbc0e63de	-0.008690802
4	0xbc4a0259	-0.012329661
5	0x3acfc959	0.0015852853
6	0x3c0a94cd	0.008458328
7	0xbc2da200	-0.010597706
8	0x3c33a76c	0.010965209
9	0x3c337a11	0.010954396
10	0x3c9e537f	0.019326923
11	0x3ca2a7e5	0.019855449
12	0x3a860bdd	0.0010226924
13	0xbc419d42	-0.011817278
14	0x39f580f0	0.00046826107
15	0xbc2f1bb6	-0.010687759
16	0x3c95ec9c	0.0183013
17	0xbc028dc8	-0.007968374
18	0x3c895f9b	0.016769221
19	0x39468bd9	0.00018934849
20	0xbc517f93	-0.012786764
21	0xbc7a1a1d	-0.015265015
22	0xbb9606d2	-0.0045784498
23	0x3c961445	0.018320212
24	0x3c3260d5	0.010887344
25	0xb8142983	-3.532461e-05
26	0x3c09a97b	0.008402224
27	0xbc735715	-0.014852305
28	0xbba0ecd6	-0.0049110455
29	0xbc833955	-0.016018549
30	0xbc43effa	-0.01195907
31	0x3c8f2b56	0.017476719
32	0x3c5334b2	0.0128909815
33	0xba43ce86	-0.0007469434
34	0x3caf477e	0.021396395
35	0x3c9cd952	0.019146595
36	0xbc8828da	-0.016621042
37	0x3c77bdca	0.015120933
38	0xba11be2f	-0.00055596506
39	0xbc75d125	-0.015003477
40	0x3b30e599	0.002699232
41	0x3b8ddb2e	0.004329107
42	0xbc478d3c	-0.012179669
43	0x3bb7e91f	0.005612507
44	0xbc6f3452	-0.0145998765
45	0x3c0aa222	0.008461507
46	0x3b0f7e23	0.0021895252
47	0x3cbf33ea	0.023340184
48	0xbc79ea8a	-0.015253672
49	0xbc9dfa4c	-0.01928439
50	0x3c8d63be	0.017259475
51	0x3c9c9aba	0.019116748
52	0x3b0b7f81	0.0021285715
53	0x3c5f5b26	0.013632571
54	0xbbdbd830	-0.006709121
55	0xbaae416d	-0.0013294645
56	0x3c6451e2	0.013935538
57	0xbc1ad0ad	-0.009449166
58	0x3c84b88c	0.01620128
59	0x3c886102	0.01664782
60	0x3c954bbf	0.018224595
61	0x3b94e112	0.004543432
62	0xbc0b91b8	-0.008518629
63	0xbc956794	-0.018237866
64	0x3cba8930	0.022770494
65	0x3c4a654f	0.012353255
66	0x3cabc960	0.020970047
67	0x3b3b428d	0.0028573603
68	0x3cda580a	0.026653308
69	0xbc4fa0a3	-0.012672576
70	0x3ca9aac1	0.020711305
71	0x3b8b89b8	0.0042583607
72	0x3ab3c732	0.0013715981
73	0xbc920d75	-0.017828682
74	0x3cbc2ce6	0.022970628
75	0x3ca50368	0.020143226
76	0x3c91a65f	0.017779527
77	0xbc548b2d	-0.012972635
78	0x3b4a874e	0.0030903402
79	0x3cb0b429	0.021570282
80	0xbc19c78c	-0.009385955
81	0xbc83adf7	-0.016074164
82	0xbc6e16df	-0.01453182
83	0x3c97a85a	0.018512893
84	0xbb8d4fae	-0.004312477
85	0xbc7afce3	-0.015319082
86	0x3ca6c93f	0.020359633
87	0x3bd9d243	0.0066473796
88	0xbbb557f6	-0.0055341674
89	0x39326c11	0.0001701566
90	0xbc0b2bdb	-0.008494343
91	0xbc6ac57e	-0.014329312
92	0x3bdf50bf	0.0068150456
93	0xbc915d8b	-0.0177448
94	0xbbfa8c01	-0.0076460843
95	0xbcb022b9	-0.021500932
96	0xb905cdaf	-0.00012760492
97	0xba62adc9	-0.0008647112
98	0xbbae912d	-0.005327365
99	0x3ca272ab	0.019830069
100	0x3c8d9958	0.017285034
101	0xba8b383a	-0.0010621615
102	0x3bef5c0b	0.0073046735
103	0x3c81a596	0.015826028
104	0x3c5889dd	0.013216463
105	0xbbeb1d5a	-0.00717513
106	0x3cd29a80	0.025708437
107	0x3c4ba7a5	0.012430106
108	0xbc38d1ff	-0.011280536
109	0x3c1c6674	0.009545911
110	0xbc0ab271	-0.008465395
111	0x3c4d67d7	0.012536964
112	0x3b7bd7b5	0.0038428132
113	0xbaa1ea18	-0.001235309
114	0x3cb3b7f9	0.021938311
115	0x3cc6a6db	0.024249485
116	0xbbb423d5	-0.0054974356
117	0xbc1731e6	-0.009228205
118	0xbb0a1b11	-0.0021073262
119	0xbb516db0	-0.0031956248
120	0x3a578e91	0.0008222843
121	0xbc918047	-0.017761363
122	0xbc3b823d	-0.011444625
123	0xbc4ca9cc	-0.012491655
124	0x3c9e506c	0.019325458
125	0xbc6df528	-0.014523782
126	0x3aec9516	0.0018049802
127	0x3c94f804	0.01818467

action_model._continuous_distribution.log_sigma f4 [1, 2]
0	0xbd222dcb	-0.039594453
1	0xbcf1873a	-0.029483426

action_model._continuous_distribution.mu.weight f4 [2, 128]
0	0xbd83f903	-0.064439796
1	0x3d0b54fc	0.034016594
2	0x3d0197d3	0.03163893
3	0xbc702315	-0.014656802
4	0xbd0f102c	-0.034927532
5	0xbc0bb023	-0.008525881
6	0x3c802e08	0.01564695
7	0xbc7d1386	-0.015446549
8	0xbc89ddea	-0.01682945
9	0x3c911e62	0.017714683
10	0x3ce695ba	0.028147567
11	0x3cca973c	0.024730317
12	0xbd0d810c	-0.034546897
13	0xbcca00e1	-0.024658622
14	0xbbfd3af6	-0.007727976
15	0xbd08958b	-0.03334574
16	0x3d25ccfd	0.040478695
17	0xbc50e706	-0.012750393
18	0x3cd255ea	0.025675733
19	0xbcb761be	-0.022385474
20	0xbd174dbc	-0.036939368
21	0xbb858656	-0.004074852
22	0xbd3a53e4	-0.04549016
23	0x3ae9301a	0.0017790825
24	0x3c8396bf	0.016063092
25	0xbc5225a3	-0.012826356
26	0x3cf852e0	0.030312955
27	0xbd3ff8bd	-0.046868075
28	0xbd10ba20	-0.035333753
29	0xbc09b391	-0.008404628
30	0xbc55bd61	-0.01304564
31	0x3cd96692	0.026538167
32	0x3c6a5b89	0.01430405
33	0xbcd0be28	-0.025481299
34	0x3d1723a6	0.03689923
35	0x3c639f49	0.013892957
36	0xbd15812a	-0.036500134
37	0x3ccf5e67	0.02531357
38	0xbd28fda3	-0.04125751
39	0xbd235084	-0.039871708
40	0xbc83f555	-0.016108194
41	0xbb653962	-0.003497683
42	0xbbcf1c4a	-0.006320511
43	0xbc42e8dd	-0.011896339
44	0xbcff66f7	-0.031177027
45	0x3caea8e2	0.021320764
46	0x3bf85b85	0.0075792694
47	0x3c52e489	0.01287187
48	0xbd231cda	-0.039822437
49	0xbc48d828	-0.012258567
50	0x3ca043d4	0.019563593
51	0x3d3801d0	0.044923604
52	0x3b82b526	0.0039888797
53	0x3c3ea4c0	0.011635959
54	0xbd17ffbb	-0.037109118
55	0xbce851ed	-0.028359378
56	0x3ce41388	0.027841344
57	0xbd5d5af5	-0.05404182
58	0x3b06e907	0.0020585672
59	0x3d190adb	0.03736387
60	0x3d3b951c	0.0457965
61	0xbd299d45	-0.04140975
62	0xbc8b3e23	-0.016997403
63	0xbcff1e7d	-0.031142468
64	0x3d4a369d	0.04936849
65	0x3bcb3fac	0.0062026586
66	0x3d14e474	0.036350682
67	0xbcc78d9b	-0.024359515
68	0x3b850bac	0.0040602293
69	0xbd4fadd6	-0.050702892
70	0x3d0b2e69	0.033979807
71	0xbcf98b56	-0.030461948
72	0xbc555035	-0.013019611
73	0xbbf690e0	-0.0075245947
74	0x3cca67dd	0.024707729
75	0x3d1a6d7c	0.03770207
76	0x3ce7f9c5	0.028317342
77	0xbd12b42c	-0.035816357
78	0xbc9986d8	-0.018741056
79	0x3bef4714	0.0073021743
80	0xbd03549c	-0.03206311
81	0xbcac3d72	-0.021025393
82	0xbc85533f	-0.016275046
83	0x3b591665	0.003312492
84	0x3c087b2d	0.008330149
85	0xbca12cb1	-0.01967463
86	0x3d0a5ab9	0.033777926
87	0x3bade1ab	0.0053064427
88	0x3c039517	0.008031151
89	0xbce6a9ff	-0.028157232
90	0x3bcf080f	0.0063180993
91	0xbd304fb1	-0.04304475
92	0xbd0ceadc	-0.034403667
93	0xbd150e67	-0.03639069
94	0xbd02fcf6	-0.031979524
95	0xbaad2bf2	-0.0013211949
96	0x3c0b59c4	0.0085052885
97	0xbce9f856	-0.028560799
98	0xbc894b87	-0.016759647
99	0x3af77ae1	0.0018881225
100	0x3cc32c3d	0.023824805
101	0xbd28a083	-0.0411687
102	0xbc93257d	-0.017962212
103	0xbd1aaa5b	-0.03776012
104	0x3ca1ce89	0.019751804
105	0xbcb340ac	-0.021881424
106	0x3c790366	0.015198564
107	0x3c744dc4	0.014911119
108	0xbcd404c1	-0.025881173
109	0xbd336ddf	-0.043805953
110	0xbc34a8df	-0.01102659
111	0xbcac8dfb	-0.021063795
112	0x3b4015b1	0.0029309804
113	0xbcaa0977	-0.020756466
114	0x3bcdb2d9	0.006277424
115	0x3cebf17d	0.028801674
116	0xbd11b883	-0.035576355
117	0xbd753e61	-0.059873942
118	0xbc84f441	-0.01622975
119	0xbcdd7202	-0.027031902
120	0xbc60ac54	-0.013712961
121	0xbcdd28f7	-0.026997073
122	0xbd0c57f7	-0.034263577
123	0xbbe2e8aa	-0.0069247084
124	0x3d39cee7	0.045363333
125	0xbcf3f4ac	-0.029779755
126	0x3c24c362	0.0100563485
127	0x3c7fd26f	0.015614136
128	0xbc72e05b	-0.014823998
129	0x3b50dee2	0.003187113
130	0x3d3208da	0.043465473
131	0x3cfb487c	0.030674212
132	0xbd1b3f2b	-0.03790204
133	0xbd173456	-0.036915146
134	0x3cc69836	0.024242502
135	0x3b2f5437	0.0026753077
136	0xbd273254	-0.04081948
137	0x3bd80888	0.006592814
138	0x3c1c681e	0.009546308
139	0xbcacfd8f	-0.021117
140	0xbb011aa7	-0.0019699724
141	0xbcc7b817	-0.024379773
142	0xbcb8e381	-0.02256942
143	0x3c1cef6b	0.009578566
144	0xbba4d942	-0.005030782
145	0xbc81ac73	-0.0158293
146	0x3cda5ac0	0.026654601
147	0xbd741ea6	-0.05959954
148	0xbccc5df7	-0.02494715
149	0x3c37ff50	0.011230305
150	0xbca24b2e	-0.01981124
151	0xbd007348	-0.03135994
152	0xbd1f2fc4	-0.038863912
153	0xbca436dd	-0.020045692
154	0xbbedec8d	-0.007260865
155	0x3cf26be5	0.029592464
156	0xbc965562	-0.01835126
157	0x3ab77d37	0.0013999109
158	0xbd1a457c	-0.03766392
159	0xbcf25660	-0.029582202
160	0xbd22be1a	-0.039732076
161	0x3ae134ae	0.0017181837
162	0x3b786d6d	0.003790702
163	0x3d583c09	0.05279163
164	0x3b8c1028	0.004274387
165	0x3d247227	0.040147927
166	0x395c50a5	0.00021010877
167	0xbc3c83ba	-0.011506015
168	0xbd0f0577	-0.03491732
169	0x3d2068e3	0.039162528
170	0x3bfd0a0c	0.007722145
171	0x3c2d6dd5	0.010585268
172	0x3c0a30ac	0.008434456
173	0x3bdf5c1d	0.0068164007
174	0xbca1cc43	-0.01975072
175	0xbd1b1fc8	-0.037872106
176	0xbafe2ef6	-0.0019392658
177	0xbbca4403	-0.0061726584
178	0x3c448ad8	0.011995994
179	0xbc9a3826	-0.018825602
180	0x3d11678c	0.03549914
181	0xbc8c39a5	-0.01711733
182	0x3b87b6ca	0.004141663
183	0xbc2b41b8	-0.01045268
184	0x3db92613	0.09040465
185	0xbc2f5a08	-0.0107026175
186	0xbc7248e9	-0.014787891
187	0xbce7ff0c	-0.028319858
188	0xbcb6ef78	-0.022330984
189	0x3c26da0d	0.010183823
190	0x3cc1e65b	0.023669412
191	0x3c58b296	0.013226172
192	0x3b369895	0.0027861942
193	0xbce76dde	-0.028250631
194	0x3b2e794a	0.0026622587
195	0x3c1c9fc9	0.00955958
196	0x3d100001	0.035156254
197	0xbcb366bf	-0.02189958
198	0xbbff665d	-0.007794185
199	0xbca6fe4f	-0.020384936
200	0x3c3195fc	0.010838982
201	0x3a6b2510	0.00089700613
202	0xbd6ec025	-0.058288712
203	0x3cb566f1	0.022143813
204	0x3c95f51a	0.01830535
205	0xbb60a601	-0.0034278634
206	0x3cb71577	0.022349102
207	0xbd8dbac3	-0.069203876
208	0xbc4cf706	-0.012510067
209	0x3ba09b03	0.0049012913
210	0xbc2e0aed	-0.010622722
211	0xbcd17c60	-0.025572002
212	0xbc9fa905	-0.019489774
213	0x3b1fdd55	0.0024393399
214	0xbc6a69b8	-0.014307432
215	0xbcc177e5	-0.02361674
216	0x3ab9b660	0.0014168732
217	0xbd2be7e4	-0.041969195
218	0x3cc54691	0.0240815
219	0xbb7b8060	-0.0038376078
220	0x3b841587	0.0040308866
221	0xbb8bb748	-0.004263792
222	0xbd89e9fb	-0.06734081
223	0x3c890d58	0.016729996
224	0xbcd51bea	-0.026014287
225	0xbd084b45	-0.033274908
226	0xbb9873d0	-0.004652478
227	0x3d0747d7	0.033027496
228	0xbcb271a3	-0.021782702
229	0x3d3daa1a	0.0463048
230	0xbc042139	-0.0080645615
231	0xbbcc9620	-0.006243482
232	0xbd012ce2	-0.031536944
233	0x3cbbd5cb	0.022929093
234	0xbd83e8da	-0.06440897
235	0xbd168958	-0.036752075
236	0x3c154016	0.009109518
237	0x3cf002bf	0.029298184
238	0xbc9cc7f8	-0.019138321
239	0xbd810409	-0.06299598
240	0xbd5bd9f0	-0.05367464
241	0xbc949ea5	-0.018142054
242	0x3d0314b0	0.03200215
243	0x3ca211b4	0.019783832
244	0x3d2b9a01	0.041894916
245	0xbc0e6aeb	-0.008692483
246	0xbcf872a9	-0.030328112
247	0x3d7327e0	0.0593642
248	0x3c70f301	0.014706374
249	0x3bd883c8	0.0066075064
250	0xbb4d6cb1	-0.0031345303
251	0x3ce2960d	0.02765944
252	0xba19ea85	-0.0005871433
253	0x3c074f00	0.008258581
254	0xbca090f1	-0.019600363
255	0x3c090169	0.008362153

action_model._continuous_distribution.mu.bias f4 [2]
0	0x3cabd24d	0.020974303
1	0xbb04232a	-0.002016256

exp_avg f4 [128, 6]
0	0xb978539f	-0.00023682274
1	0x2bb99b96	1.3188224e-12
2	0x36f27979	7.2263033e-06
3	0xba174338	-0.0005770209
4	0x00000000	0.0
5	0x00000000	0.0
6	0x37cc8862	2.4382203e-05
7	0xa9d34e20	-9.383835e-14
8	0x36d3af3c	6.30869e-06
9	0x38f8ff7e	0.00011873151
10	0x00000000	0.0
11	0x00000000	0.0
12	0xb92de088	-0.0001658221
13	0x2c52f924	2.9981096e-12
14	0xb9766c90	-0.00023500831
15	0xba54154b	-0.0008090331
16	0x00000000	0.0
17	0x00000000	0.0
18	0xb91fbd08	-0.00015233841
19	0xac74ca58	-3.4786809e-12
20	0x396342b8	0.00021673262
21	0xb8917c4e	-6.937292e-05
22	0x00000000	0.0
23	0x00000000	0.0
24	0xb92cd4c3	-0.00016482458
25	0x2bd23324	1.4935592e-12
26	0xb7f86602	-2.9611405e-05
27	0xb9ede583	-0.00045375162
28	0x00000000	0.0
29	0x00000000	0.0
30	0xb9354ae8	-0.0001728941
31	0x2c4ee156	2.9399447e-12
32	0xb9821b17	-0.00024815716
33	0xba5a8e1f	-0.0008337218
34	0x00000000	0.0
35	0x00000000	0.0
36	0x37d8c244	2.5839669e-05
37	0xab989ff7	-1.0844649e-12
38	0x36c8e126	5.986675e-06
39	0x38e50256	0.00010920006
40	0x00000000	0.0
41	0x00000000	0.0
42	0xb705133c	-7.931896e-06
43	0x29d0a05c	9.2648735e-14
44	0xb61f38c1	-2.3725881e-06
45	0xb7bc03cb	-2.2413113e-05
46	0x00000000	0.0
47	0x00000000	0.0
48	0xb70cb272	-8.386198e-06
49	0x29a47c10	7.3045845e-14
50	0x36926de0	4.36393e-06
51	0xb8247f58	-3.9219245e-05
52	0x00000000	0.0
53	0x00000000	0.0
54	0x365b1df8	3.2650987e-06
55	0x29951dc3	6.622092e-14
56	0xb5702df9	-8.9473866e-07
57	0xb69cc3ed	-4.671971e-06
58	0x00000000	0.0
59	0x00000000	0.0
60	0x3840d0aa	4.59707e-05
61	0xab05e508	-4.7568937e-13
62	0x37ce9f5c	2.4631321e-05
63	0x392bae6a	0.00016372805
64	0x00000000	0.0
65	0x00000000	0.0
66	0x3899dc1b	7.336606e-05
67	0xa991ebd2	-6.480202e-14
68	0xb6d4caea	-6.3417147e-06
69	0x3961283e	0.00021472664
70	0x00000000	0.0
71	0x00000000	0.0
72	0x38bb19e6	8.921679e-05
73	0xac128935	-2.0824013e-12
74	0x387dc1b8	6.0500315e-05
75	0x393397c0	0.00017127302
76	0x00000000	0.0
77	0x00000000	0.0
78	0xb9201cd3	-0.00015269527
79	0x2c285204	2.3919764e-12
80	0xb9029626	-0.00012453701
81	0xba0aaea2	-0.00052903045
82	0x00000000	0.0
83	0x00000000	0.0
84	0x380bbf15	3.331814e-05
85	0xab5d9bf2	-7.873139e-13
86	0x378421a9	1.57513e-05
87	0xb84a751c	-4.826962e-05
88	0x00000000	0.0
89	0x00000000	0.0
90	0x33a07ec0	7.473636e-08
91	0xab6e5f1c	-8.4686576e-13
92	0x382323b2	3.8895472e-05
93	0x38750077	5.8412985e-05
94	0x00000000	0.0
95	0x00000000	0.0
96	0xb4f1e000	-4.505273e-07
97	0x2c405856	2.7333877e-12
98	0xb9928521	-0.0002794648
99	0xb9cb2c74	-0.00038752297
100	0x00000000	0.0
101	0x00000000	0.0
102	0xb9980861	-0.00028997942
103	0x2ad21ee6	3.7324934e-13
104	0x3917822d	0.00014448976
105	0xba0a6177	-0.00052788056
106	0x00000000	0.0
107	0x00000000	0.0
108	0xb852db1b	-5.027196e-05
109	0x2c11bfc8	2.07122e-12
110	0xb92d29af	-0.00016514094
111	0xb9bcc480	-0.00036004558
112	0x00000000	0.0
113	0x00000000	0.0
114	0x36f37778	7.2558723e-06
115	0xaadc2d0e	-3.9111113e-13
116	0x37ca4a94	2.4115005e-05
117	0x383b4ed4	4.465769e-05
118	0x00000000	0.0
119	0x00000000	0.0
120	0xb98922ce	-0.00026156608
121	0x2b7b1230	8.9198354e-13
122	0x388fd613	6.858646e-05
123	0xba0a3aaa	-0.0005273024
124	0x00000000	0.0
125	0x00000000	0.0
126	0xb98f12bb	-0.0002728904
127	0x2c208276	2.2809788e-12
128	0xb768852a	-1.3859282e-05
129	0xba30142e	-0.0006716874
130	0x00000000	0.0
131	0x00000000	0.0
132	0xb99de3e9	-0.0003011518
133	0x2b69b44e	8.302845e-13
134	0x38e5671d	0.00010938777
135	0xba17fef7	-0.00057981856
136	0x00000000	0.0
137	0x00000000	0.0
138	0xb6a096f8	-4.7859467e-06
139	0x29924528	6.495699e-14
140	0xb6bc89be	-5.618872e-06
141	0xb7ab7490	-2.0439067e-05
142	0x00000000	0.0
143	0x00000000	0.0
144	0x379a65ac	1.8405575e-05
145	0x2b0b67bb	4.9526675e-13
146	0x35b4d06a	1.3471702e-06
147	0xb6ea52e8	-6.983395e-06
148	0x00000000	0.0
149	0x00000000	0.0
150	0xb915f64b	-0.00014301499
151	0xab456ac4	-7.0136627e-13
152	0x390942d8	0.0001309024
153	0xb94e50e6	-0.00019675828
154	0x00000000	0.0
155	0x00000000	0.0
156	0xb8acc437	-8.238147e-05
157	0xac25cfbb	-2.3563224e-12
158	0x3960bbb5	0.00021432231
159	0x385af150	5.219999e-05
160	0x00000000	0.0
161	0x00000000	0.0
162	0xb8805b16	-6.120482e-05
163	0x2b704611	8.5362365e-13
164	0xb80288aa	-3.1121694e-05
165	0xb918d3b4	-0.00014574715
166	0x00000000	0.0
167	0x00000000	0.0
168	0xb769a85e	-1.3927083e-05
169	0xa955354b	-4.7341725e-14
170	0xb701e2be	-7.741792e-06
171	0xb81df5a3	-3.7660484e-05
172	0x00000000	0.0
173	0x00000000	0.0
174	0xb92cc00f	-0.00016474746
175	0x2b004ffc	4.5585736e-13
176	0x384c59ac	4.8720904e-05
177	0xb9c03900	-0.00036663562
178	0x00000000	0.0
179	0x00000000	0.0
180	0xb9395023	-0.00017672828
181	0xabe67708	-1.6375521e-12
182	0x3943c261	0.00018669061
183	0xb96fe040	-0.00022876356
184	0x00000000	0.0
185	0x00000000	0.0
186	0x38b8c660	8.810754e-05
187	0xa9a0ccd4	-7.1409594e-14
188	0xb824b2d4	-3.9267194e-05
189	0x3920299d	0.00015274291
190	0x00000000	0.0
191	0x00000000	0.0
192	0xb89d5024	-7.501271e-05
193	0xab861022	-9.52575e-13
194	0x391f32eb	0.0001518239
195	0xb76aade0	-1.398797e-05
196	0x00000000	0.0
197	0x00000000	0.0
198	0xb7451330	-1.17465825e-05
199	0x299b8732	6.9068354e-14
200	0xb57f336e	-9.506974e-07
201	0xb8251aa3	-3.9363873e-05
202	0x00000000	0.0
203	0x00000000	0.0
204	0xb8e7510f	-0.00011030037
205	0x2c0e3c76	2.0212976e-12
206	0xb88e266e	-6.778246e-05
207	0xb9acb4c0	-0.00032941066
208	0x00000000	0.0
209	0x00000000	0.0
210	0xb904d9d6	-0.00012669651
211	0x2c83aa38	3.742142e-12
212	0xb98a63f4	-0.00026395882
213	0xba362c81	-0.00069493806
214	0x00000000	0.0
215	0x00000000	0.0
216	0xb685e2c9	-3.99011e-06
217	0x296120cb	4.998848e-14
218	0xb60af6cf	-2.0707264e-06
219	0xb78628be	-1.5993017e-05
220	0x00000000	0.0
221	0x00000000	0.0
222	0xb8e72b7a	-0.000110230365
223	0x2c202a2d	2.276078e-12
224	0xb9055d8b	-0.00012718716
225	0xb9e2b700	-0.00043242425
226	0x00000000	0.0
227	0x00000000	0.0
228	0xb70c45ec	-8.36093e-06
229	0x2a1de998	1.4025445e-13
230	0xb57320d0	-9.05723e-07
231	0xb71a2dfc	-9.189822e-06
232	0x00000000	0.0
233	0x00000000	0.0
234	0x382c9272	4.1144383e-05
235	0xac0ac34a	-1.9719387e-12
236	0x388ba537	6.65881e-05
237	0x38f7c032	0.00011813677
238	0x00000000	0.0
239	0x00000000	0.0
240	0x388fb30c	6.8521214e-05
241	0xaa560ace	-1.9010767e-13
242	0xb81915df	-3.649841e-05
243	0x39078c84	0.0001292695
244	0x00000000	0.0
245	0x00000000	0.0
246	0xb98bde1b	-0.00026677627
247	0x2c6e350e	3.3851285e-12
248	0xb91320e1	-0.00014031261
249	0xba662d12	-0.000878052
250	0x00000000	0.0
251	0x00000000	0.0
252	0xb79eeb92	-1.8944764e-05
253	0x2ad2ce9a	3.7446852e-13
254	0x36b76d13	5.466523e-06
255	0xb8bc2253	-8.970932e-05

exp_avg_sq f4 [128, 6]
0	0x358715a3	1.0064581e-06
1	0x19e2d788	2.3454905e-23
2	0x32d6e0dd	2.5015135e-08
3	0x372a90c5	1.0166496e-05
4	0x00000000	0.0
5	0x00000000	0.0
6	0x34671b34	2.1523448e-07
7	0x18358bb8	2.3464242e-24
8	0x327301f7	1.4144908e-08
9	0x35180d51	5.664379e-07
10	0x00000000	0.0
11	0x00000000	0.0
12	0x3517182a	5.6287047e-07
13	0x19a976a5	1.752211e-23
14	0x33078e72	3.156169e-08
15	0x36680902	3.4575937e-06
16	0x00000000	0.0
17	0x00000000	0.0
18	0x340e6497	1.3261375e-07
19	0x19d0ab6e	2.1575936e-23
20	0x3280f75a	1.5013644e-08
21	0x35c74f2f	1.4849701e-06
22	0x00000000	0.0
23	0x00000000	0.0
24	0x3529bd55	6.323292e-07
25	0x1981e824	1.3432048e-23
26	0x325ef225	1.2977158e-08
27	0x36be1387	5.6647145e-06
28	0x00000000	0.0
29	0x00000000	0.0
30	0x348e5435	2.651083e-07
31	0x1956d429	1.1106386e-23
32	0x331f0704	3.7026453e-08
33	0x35b27206	1.3295219e-06
34	0x00000000	0.0
35	0x00000000	0.0
36	0x315dcad9	3.2275038e-09
37	0x17ca13b4	1.3058918e-24
38	0x30156f65	5.4364185e-10
39	0x33c3941a	9.1073346e-08
40	0x00000000	0.0
41	0x00000000	0.0
42	0x312cd27d	2.5148943e-09
43	0x1584d8c1	5.365635e-26
44	0x2e4a3ff7	4.5986295e-11
45	0x32c1097a	2.2472467e-08
46	0x00000000	0.0
47	0x00000000	0.0
48	0x3213b913	8.598607e-09
49	0x162033cb	1.294104e-25
50	0x301b52ca	5.650632e-10
51	0x32aa3020	1.981249e-08
52	0x00000000	0.0
53	0x00000000	0.0
54	0x3043b569	7.1198386e-10
55	0x152eef56	3.5327823e-26
56	0x2f01388e	1.1752574e-10
57	0x31aee99e	5.0906257e-09
58	0x00000000	0.0
59	0x00000000	0.0
60	0x34956783	2.7828727e-07
61	0x18ebf2c1	6.0991195e-24
62	0x33012b59	3.0074577e-08
63	0x35fa5116	1.8650051e-06
64	0x00000000	0.0
65	0x00000000	0.0
66	0x342f36db	1.6318101e-07
67	0x18a2fa5d	4.212882e-24
68	0x32a29d54	1.8930827e-08
69	0x35acc571	1.2872462e-06
70	0x00000000	0.0
71	0x00000000	0.0
72	0x338d3bcb	6.5767004e-08
73	0x18c34d7e	5.0484566e-24
74	0x31819c79	3.772183e-09
75	0x360b5f22	2.0767989e-06
76	0x00000000	0.0
77	0x00000000	0.0
78	0x3564d13a	8.5241084e-07
79	0x19be2478	1.9660269e-23
80	0x32ee7304	2.775915e-08
81	0x36f83f77	7.3983642e-06
82	0x00000000	0.0
83	0x00000000	0.0
84	0x328e251a	1.6547848e-08
85	0x182bab6b	2.2187776e-24
86	0x310bbabb	2.0333306e-09
87	0x35132389	5.481348e-07
88	0x00000000	0.0
89	0x00000000	0.0
90	0x32be431d	2.214943e-08
91	0x1805f005	1.7311026e-24
92	0x3137f4a3	2.6769065e-09
93	0x34b8f6ac	3.4452148e-07
94	0x00000000	0.0
95	0x00000000	0.0
96	0x34eb775a	4.3859e-07
97	0x19ca85c7	2.0940343e-23
98	0x334ff5b8	4.8419423e-08
99	0x3621f63c	2.4134197e-06
100	0x00000000	0.0
101	0x00000000	0.0
102	0x35968993	1.121591e-06
103	0x1a0af08d	2.8732047e-23
104	0x32f61c62	2.8651076e-08
105	0x372cbd4b	1.0296072e-05
106	0x00000000	0.0
107	0x00000000	0.0
108	0x3437b409	1.71087e-07
109	0x1919b9d9	7.947446e-24
110	0x323bddcd	1.0935264e-08
111	0x35a357e0	1.2170021e-06
112	0x00000000	0.0
113	0x00000000	0.0
114	0x3264459f	1.3287177e-08
115	0x16c2af2b	3.1452937e-25
116	0x302ff47d	6.401207e-10
117	0x33b99079	8.641013e-08
118	0x00000000	0.0
119	0x00000000	0.0
120	0x360d31f5	2.1039716e-06
121	0x1a6db8cf	4.915974e-23
122	0x3363124f	5.2869208e-08
123	0x37aa710d	2.0318223e-05
124	0x00000000	0.0
125	0x00000000	0.0
126	0x35fd94d9	1.8893289e-06
127	0x1a4edf10	4.277999e-23
128	0x32bfefe1	2.234441e-08
129	0x37a3fd19	1.9548972e-05
130	0x00000000	0.0
131	0x00000000	0.0
132	0x35db8eb4	1.6358304e-06
133	0x1a2ef989	3.618393e-23
134	0x33153678	3.4741305e-08
135	0x3773dc99	1.4535291e-05
136	0x00000000	0.0
137	0x00000000	0.0
138	0x3110f965	2.1096522e-09
139	0x153bdcff	3.7938684e-26
140	0x2f886d32	2.4815844e-10
141	0x3227941a	9.754354e-09
142	0x00000000	0.0
143	0x00000000	0.0
144	0x3302a888	3.0421262e-08
145	0x17e48748	1.4768304e-24
146	0x3196fe5f	4.394493e-09
147	0x340fb888	1.3385045e-07
148	0x00000000	0.0
149	0x00000000	0.0
150	0x34c330c4	3.6357062e-07
151	0x197fe856	1.3230111e-23
152	0x331463b1	3.4549604e-08
153	0x36438390	2.9133844e-06
154	0x00000000	0.0
155	0x00000000	0.0
156	0x348c37f2	2.6117738e-07
157	0x199cb7ec	1.6204307e-23
158	0x32f61489	2.8647507e-08
159	0x35e684d2	1.7174991e-06
160	0x00000000	0.0
161	0x00000000	0.0
162	0x342205eb	1.5089579e-07
163	0x18adf15a	4.4963155e-24
164	0x326bb581	1.37200695e-08
165	0x35f19834	1.8000196e-06
166	0x00000000	0.0
167	0x00000000	0.0
168	0x32ca56fc	2.3555451e-08
169	0x170df2ac	4.586585e-25
170	0x3137a4c0	2.6723654e-09
171	0x33dd2254	1.0297359e-07
172	0x00000000	0.0
173	0x00000000	0.0
174	0x34ef8797	4.4615874e-07
175	0x19396865	9.585358e-24
176	0x324a1b96	1.176422e-08
177	0x36737ef6	3.6283723e-06
178	0x00000000	0.0
179	0x00000000	0.0
180	0x342fa612	1.6358561e-07
181	0x196d277c	1.2260587e-23
182	0x327be9e2	1.4663302e-08
183	0x3573d75e	9.0837955e-07
184	0x00000000	0.0
185	0x00000000	0.0
186	0x34596685	2.0246996e-07
187	0x18e5e0b9	5.9422024e-24
188	0x322baefd	9.993298e-09
189	0x361f65d3	2.3752116e-06
190	0x00000000	0.0
191	0x00000000	0.0
192	0x33e2c524	1.0559805e-07
193	0x18d1f7b9	5.427537e-24
194	0x32037bc9	7.653349e-09
195	0x3518ed87	5.697006e-07
196	0x00000000	0.0
197	0x00000000	0.0
198	0x31f8f563	7.245647e-09
199	0x15d830d5	8.731875e-26
200	0x30016e10	4.7086335e-10
201	0x32c76b73	2.3215511e-08
202	0x00000000	0.0
203	0x00000000	0.0
204	0x35698bbc	8.7002604e-07
205	0x19bad2fa	1.9317162e-23
206	0x32c63b61	2.3077236e-08
207	0x37032ef1	7.819138e-06
208	0x00000000	0.0
209	0x00000000	0.0
210	0x34b4b581	3.3659674e-07
211	0x19bb8554	1.9389198e-23
212	0x3386d7bc	6.279103e-08
213	0x36067194	2.0033667e-06
214	0x00000000	0.0
215	0x00000000	0.0
216	0x3109e7d1	2.0067896e-09
217	0x15195a19	3.0969178e-26
218	0x2e8f1054	6.5057876e-11
219	0x322c34f6	1.002376e-08
220	0x00000000	0.0
221	0x00000000	0.0
222	0x348801bf	2.5333244e-07
223	0x191e2e41	8.1777495e-24
224	0x31f9950e	7.2637993e-09
225	0x36200f32	2.3850703e-06
226	0x00000000	0.0
227	0x00000000	0.0
228	0x331eb5f9	3.6952745e-08
229	0x1782ea51	8.460203e-25
230	0x31a332c9	4.749698e-09
231	0x347e283d	2.3670232e-07
232	0x00000000	0.0
233	0x00000000	0.0
234	0x32c258f2	2.262502e-08
235	0x187dc122	3.279699e-24
236	0x31326f42	2.5965652e-09
237	0x350ca7b8	5.2398127e-07
238	0x00000000	0.0
239	0x00000000	0.0
240	0x3418f475	1.4245036e-07
241	0x1886292a	3.4679753e-24
242	0x31bb6b10	5.454588e-09
243	0x35ba1f92	1.3867268e-06
244	0x00000000	0.0
245	0x00000000	0.0
246	0x35f79834	1.8447231e-06
247	0x1a3d78ff	3.9182024e-23
248	0x33179627	3.529399e-08
249	0x377f2161	1.5206956e-05
250	0x00000000	0.0
251	0x00000000	0.0
252	0x3222cc6c	9.476121e-09
253	0x16f44bb6	3.9468106e-25
254	0x301853b3	5.541622e-10
255	0x32a58023	1.9266798e-08

exp_avg f4 [128]
0	0xb9290228	-0.00016117899
1	0x380b1ae8	3.316524e-05
2	0xb96cf6e8	-0.00022598694
3	0xb7a28dcc	-1.9377934e-05
4	0xb904e730	-0.00012674625
5	0xb9743219	-0.00023288316
6	0x37ffe04d	3.0502817e-05
7	0xb6d21283	-6.2606427e-06
8	0xb737cbc4	-1.0955093e-05
9	0xb5af2827	-1.3050202e-06
10	0x383fd29a	4.5734087e-05
11	0x387b927c	5.9979488e-05
12	0x3848a970	4.7841517e-05
13	0xb91af3c1	-0.0001477739
14	0xb76235a2	-1.3483137e-05
15	0x3788df5c	1.6316473e-05
16	0xb8e3027a	-0.00010824665
17	0xb91a9d8a	-0.00014745272
18	0xb8d2e9da	-0.000100571386
19	0x37514866	1.2474227e-05
20	0xb91a722a	-0.00014729114
21	0xb944bc6c	-0.00018762209
22	0xb929d3de	-0.00016196023
23	0xb6bf91ea	-5.70923e-06
24	0xb602e858	-1.9506751e-06
25	0xb866854d	-5.496042e-05
26	0x3774a0d4	1.4580979e-05
27	0xb82ac1a0	-4.0711486e-05
28	0xb7307dcb	-1.0519706e-05
29	0xb8d6c620	-0.00010241219
30	0xb8860246	-6.3900414e-05
31	0x3832f3d4	4.266559e-05
32	0xb6831af8	-3.907244e-06
33	0xb7387955	-1.0995504e-05
34	0xb8c0f7c1	-9.201421e-05
35	0xb94b8bd2	-0.00019411676
36	0xb695e5fb	-4.4673193e-06
37	0xb8fd5008	-0.00012078887
38	0xb62c4494	-2.5669915e-06
39	0x380a687b	3.299907e-05
40	0x38177387	3.61088e-05
41	0xb980970b	-0.00024526598
42	0xb7d234aa	-2.5058474e-05
43	0xb7c1e4ae	-2.311388e-05
44	0xb6f30c69	-7.243409e-06
45	0xb8cf1df7	-9.8761106e-05
46	0xb6072683	-2.0138984e-06
47	0xb94649a2	-0.00018910182
48	0xb64dbb20	-3.0656302e-06
49	0xb79ea97e	-1.8913994e-05
50	0x37e9db9b	2.7878026e-05
51	0x36d5a002	6.366522e-06
52	0xb8f5d927	-0.00011722958
53	0xb4f182f0	-4.4985018e-07
54	0xb8923ede	-6.9735324e-05
55	0xb6bad78a	-5.568324e-06
56	0x37ce6712	2.460511e-05
57	0x37219cc6	9.6328495e-06
58	0xb82234ca	-3.8672973e-05
59	0xb76b9113	-1.4040869e-05
60	0xb38e03c0	-6.6130724e-08
61	0x37e4d0cf	2.7276952e-05
62	0xb5d2be29	-1.5701563e-06
63	0xb8bfe09d	-9.149427e-05
64	0x3824baf6	3.9274768e-05
65	0x36aa8e4b	5.08296e-06
66	0x386a5326	5.5867386e-05
67	0xb9680776	-0.00022128024
68	0x378ea618	1.7005063e-05
69	0xb58b1230	-1.03616e-06
70	0xb9593333	-0.00020713806
71	0xb81b0a2d	-3.6964357e-05
72	0x36c7033a	5.931038e-06
73	0xb541c414	-7.2183434e-07
74	0x38315e3e	4.228786e-05
75	0xb817a18f	-3.615167e-05
76	0x372a4bea	1.0150465e-05
77	0x3757cda1	1.2862875e-05
78	0xb8b7f3b0	-8.77151e-05
79	0xb50405a0	-4.918202e-07
80	0xb6e2da46	-6.7607352e-06
81	0x3772c367	1.446982e-05
82	0xb59ce181	-1.1688536e-06
83	0xb88aaa7e	-6.6121094e-05
84	0xb78e7552	-1.698235e-05
85	0xb8df907a	-0.000106603795
86	0x37bdbddd	2.2618968e-05
87	0x374b0e11	1.2103018e-05
88	0xb900ea4d	-0.00012294315
89	0x380abdd1	3.3078544e-05
90	0x37d9a1ef	2.5943822e-05
91	0x36f99556	7.4381633e-06
92	0xb77e90c3	-1.5173285e-05
93	0xb8d51032	-0.00010159648
94	0xb68114e2	-3.8469307e-06
95	0x371d3c40	9.371957e-06
96	0xb828b151	-4.021946e-05
97	0xb92ff3d1	-0.00016780129
98	0xb8805586	-6.1194456e-05
99	0x3747e886	1.1915463e-05
100	0xb71712f8	-9.004718e-06
101	0xb550b017	-7.774228e-07
102	0xb8bf9e00	-9.1370195e-05
103	0xb74dc52c	-1.226486e-05
104	0xb9170ff0	-0.0001440642
105	0x37255582	9.854675e-06
106	0xb935bc22	-0.0001733159
107	0xb8360b8a	-4.3402928e-05
108	0xb7430474	-1.1623943e-05
109	0xb8d76417	-0.00010270642
110	0xb4e5e944	-4.2824297e-07
111	0xb87643ca	-5.8714104e-05
112	0xb88606bd	-6.390873e-05
113	0x37daa982	2.6066558e-05
114	0xb6b4b88c	-5.385902e-06
115	0xb9544c5c	-0.00020246342
116	0x37af39c2	2.0888521e-05
117	0xb9067428	-0.00012822507
118	0xb8fa48b6	-0.000119344724
119	0x388856b2	6.5011336e-05
120	0xb8ebd87d	-0.00011245997
121	0x348b9a18	2.6002886e-07
122	0xb88745a1	-6.450271e-05
123	0xb8e84693	-0.000110757675
124	0xb8c90359	-9.5850504e-05
125	0xb8380dd6	-4.3881904e-05
126	0xb950f958	-0.00019929314
127	0x36a591ee	4.9343716e-06

exp_avg_sq f4 [128]
0	0x3554ef21	7.932413e-07
1	0x333dd266	4.4196348e-08
2	0x3490d622	2.6977892e-07
3	0x33f8d15e	1.15864836e-07
4	0x34ed4a98	4.4198964e-07
5	0x33dec56f	1.03735935e-07
6	0x31f4290a	7.1060002e-09
7	0x30f0fccb	1.7534146e-09
8	0x30d47679	1.5458702e-09
9	0x2fda5c65	3.971962e-10
10	0x341c3f6b	1.4551703e-07
11	0x33d7b00c	1.00437404e-07
12	0x342dfddb	1.6204233e-07
13	0x351af4d1	5.7725725e-07
14	0x3337b036	4.276827e-08
15	0x32e6e8a0	2.688131e-08
16	0x344a317e	1.8830721e-07
17	0x3557a5df	8.0335116e-07
18	0x33cbeafb	9.495667e-08
19	0x31e7a8a0	6.7421553e-09
20	0x35d4c78d	1.5853308e-06
21	0x35ccb937	1.5253089e-06
22	0x359837f7	1.134117e-06
23	0x30513488	7.610841e-10
24	0x32336bd0	1.0443685e-08
25	0x34741465	2.273169e-07
26	0x340fe3d4	1.3400796e-07
27	0x3416cdac	1.4044662e-07
28	0x320a082d	8.034516e-09
29	0x3497fd7e	2.8310382e-07
30	0x339834b2	7.087637e-08
31	0x3446fdff	1.853259e-07
32	0x333eea51	4.4450932e-08
33	0x30f8f4a7	1.8113909e-09
34	0x3523c4f6	6.100885e-07
35	0x3427d6f2	1.5631284e-07
36	0x3056fbb0	7.8210416e-10
37	0x3447d170	1.8609512e-07
38	0x329ea51f	1.846871e-08
39	0x332f9812	4.088367e-08
40	0x33e85b42	1.08199416e-07
41	0x359f40a2	1.1865234e-06
42	0x30ce9c63	1.503292e-09
43	0x323327ac	1.0428192e-08
44	0x3128c7a7	2.4560707e-09
45	0x34899f03	2.5633935e-07
46	0x310f0537	2.0812203e-09
47	0x3554c3a7	7.9260866e-07
48	0x2f3a04cf	1.691831e-10
49	0x33729ff6	5.64905e-08
50	0x324e27c7	1.19998225e-08
51	0x2f2f5241	1.594538e-10
52	0x349ebbc1	2.9566402e-07
53	0x32ae136e	2.0265102e-08
54	0x342d05c4	1.6113978e-07
55	0x2fa6ef67	3.036533e-10
56	0x340a9447	1.2906195e-07
57	0x316174d1	3.2808212e-09
58	0x33d12a6f	9.7400395e-08
59	0x311fc5a0	2.3249882e-09
60	0x2fe2325d	4.1144946e-10
61	0x32bb4249	2.1799808e-08
62	0x306128fa	8.1912754e-10
63	0x34139b2b	1.3746892e-07
64	0x3395e3f4	6.9798176e-08
65	0x2ebda21f	8.6235234e-11
66	0x3409bed0	1.2828536e-07
67	0x35a18fc7	1.203728e-06
68	0x327f9298	1.4876285e-08
69	0x31bec130	5.5516907e-09
70	0x35b2757c	1.3296226e-06
71	0x33444fcd	4.5707385e-08
72	0x312f2be5	2.5490803e-09
73	0x2fdbb0d5	3.9961515e-10
74	0x33893ec7	6.390979e-08
75	0x32891a56	1.5960875e-08
76	0x311c13a8	2.271216e-09
77	0x3316677a	3.5018708e-08
78	0x34a739b7	3.1148167e-07
79	0x3146fe81	2.895746e-09
80	0x301cf767	5.710405e-10
81	0x326a1c2e	1.3627e-08
82	0x2f0ddcf8	1.2902379e-10
83	0x339a6207	7.189015e-08
84	0x32310328	1.0303474e-08
85	0x352844e8	6.268515e-07
86	0x33190eab	3.563643e-08
87	0x31e59279	6.681429e-09
88	0x344f641c	1.9314797e-07
89	0x338653d2	6.255108e-08
90	0x332ca735	4.0198945e-08
91	0x313c35c4	2.7388163e-09
92	0x313703d2	2.6632176e-09
93	0x342034b1	1.492033e-07
94	0x3132ca9f	2.6017586e-09
95	0x346b6d49	2.1925838e-07
96	0x34496521	1.8756374e-07
97	0x33150f5b	3.470573e-08
98	0x3426a34d	1.5519363e-07
99	0x31833519	3.8186383e-09
100	0x30bac367	1.3588818e-09
101	0x31216452	2.348561e-09
102	0x3491ae3e	2.7135133e-07
103	0x30455198	7.1784134e-10
104	0x34d7d24b	4.019988e-07
105	0x31b67482	5.3101425e-09
106	0x337f1f46	5.9400257e-08
107	0x336bfec4	5.494691e-08
108	0x31595db2	3.1630916e-09
109	0x340c0a31	1.3042224e-07
110	0x30126133	5.325262e-10
111	0x333576f6	4.225054e-08
112	0x344e46f1	1.9211053e-07
113	0x32c58286	2.2993174e-08
114	0x334672e6	4.6204967e-08
115	0x33efdc8f	1.1169424e-07
116	0x34004d2d	1.1949005e-07
117	0x348fae69	2.6762726e-07
118	0x3525e85e	6.180543e-07
119	0x3443c190	1.8231208e-07
120	0x33f43da2	1.1373346e-07
121	0x2f989836	2.775679e-10
122	0x352126c9	6.0033614e-07
123	0x352a7695	6.3502495e-07
124	0x35069720	5.0138806e-07
125	0x328c97e6	1.636722e-08
126	0x34c8db8b	3.7412642e-07
127	0x3332203b	4.1473168e-08
